weights/linear_freq_weights/RLinear_horizon96_lookback512_cycle_64/checkpoint.pth (torch, 198570 bytes, 2 tensors)

Linear.weight f4 [96, 512]
000000 b5 e3 3f 3c 1e 99 aa 3b 91 7d 96 bc 61 42 2c 3c
       0.011712004 0.0052062413 -0.018370422 0.010513873
000010 89 45 5a bc 25 18 ae 3a 6b 36 5b bc 98 c7 a6 bb
       -0.013322243 0.0013282342 -0.0133796735 -0.0050897114
000020 3b e5 b8 bb e2 10 a9 bb 17 11 0a bc ef 1e 83 bb
       -0.005642561 -0.0051594833 -0.008426926 -0.0040014903
000030 db 4e dd bb 2c fb 84 bb d7 84 31 bb 18 25 88 bb
       -0.006753785 -0.0040582623 -0.0027087235 -0.0041548125
000040 68 b4 12 bc c3 d2 05 bb 18 f3 1b ba e4 f6 24 bc
       -0.008954145 -0.0020419813 -0.00059490046 -0.010068629
000050 82 60 75 bb b0 c6 ca bb 0c 98 c5 bb 5b bd 66 bb
       -0.0037441556 -0.006188236 -0.0060300883 -0.003520808
000060 99 70 5e bb ba ea ff ba ab 86 eb bb fb b6 b1 bb
       -0.0033941625 -0.001952491 -0.0071876845 -0.0054234243
000070 65 9e 44 bb 9b d9 f8 bb 0d 91 96 bb 71 51 f4 ba
       -0.0030001637 -0.0075943 -0.004594928 -0.0018639994
000080 86 3f 27 bc 48 85 74 ba 5c b3 48 bc 70 f7 da bb
       -0.010208016 -0.0009327722 -0.012249794 -0.006682329
000090 9b 4f 92 ba 85 9b 42 bb 35 7d 9a bb 38 cd b5 bb
       -0.001116264 -0.0029694748 -0.004714633 -0.0055481456
0000a0 6b 8f 8a 3b 33 a7 fa bb 67 0b a2 bb 22 b0 d2 ba
       0.0042285225 -0.007649326 -0.004945207 -0.001607422
0000b0 07 71 a7 3a ec 62 86 bb 0d 0a 08 bc fd 56 3a bc
       0.0012774774 -0.004101148 -0.008303178 -0.011373279
0000c0 d4 b9 cc bb 5a d8 89 3a a5 73 3b bc c9 1a a8 b9
       -0.0062477384 0.0010516748 -0.011441146 -0.00032063414
0000d0 e8 08 88 ba be 48 0d bc ad 4f cc bb 96 c6 4b bc
       -0.0010378631 -0.0086233 -0.006235084 -0.012437483
0000e0 c0 57 b3 3b 22 4c ac bc 3c 65 46 bc d1 5c 9b bb
       0.005473107 -0.021032397 -0.012109097 -0.004741289
0000f0 79 d4 0a bd 8a 07 ad bc d8 fb ce bc 60 bd 04 bd
       -0.033894036 -0.021121759 -0.025266573 -0.032407165
000100 ed c7 91 3d 50 76 7d 3c d7 46 2b 3c 72 ae 05 3d
       0.07118211 0.015470102 0.010453901 0.032637067
000110 e1 c6 9b bc fe 9a 1c bc 1d ee 80 3b b1 17 78 bc
       -0.019015731 -0.009558437 0.0039346353 -0.015142367
000120 99 41 2d 3c 0b 9e 5b bb 5c 3c 68 bc c5 7c 92 bb
       0.010574722 -0.003351095 -0.014174547 -0.00447044
000130 ba 44 63 bb cd 8b 3a b8 4a fc 67 bb b5 98 54 bc
       -0.0034678415 -4.4476055e-05 -0.0035398179 -0.012975861
000140 92 d3 95 bb dd 48 c3 bb dd de ef bb a2 41 0a bc
       -0.0045723403 -0.0059596137 -0.0073202685 -0.0084385
000150 67 0c 80 bb 3f 70 28 bc 44 e4 11 bb 45 5d d1 bb
       -0.0039077285 -0.010280668 -0.00222613 -0.0063892924
000160 61 a1 0a 3a 5b 24 08 bb 01 d9 83 bc 94 8f a3 3b
       0.00052883296 -0.0020773623 -0.016094686 0.004991481
000170 ee 69 06 bc f8 e4 df bb fc bb ec ba 46 d8 a8 bb
       -0.008203967 -0.006832715 -0.0018061395 -0.005152735
000180 24 00 79 bb 7b 23 85 bb 20 14 f5 bb 27 b5 d8 bb
       -0.0037994469 -0.0040630675 -0.0074792057 -0.006613392
000190 a0 81 3e bb 77 84 99 bb 0b 3d 7b bb 9f 31 1e bc
       -0.0029068962 -0.0046849805 -0.0038335945 -0.009655385
0001a0 5c d9 7c bb e9 bd 18 bb 33 b1 56 bb 25 41 05 bc
       -0.0038581705 -0.0023306555 -0.0032759428 -0.008133207
0001b0 8b 33 0a bc fe 8f 59 3b b8 6f d6 bb 63 97 0e bc
       -0.00843514 0.0033197398 -0.0065440796 -0.008703086
0001c0 9d 87 99 bb 46 bd 83 3a 6f ac 19 bc 1e d5 2b bb
       -0.004685356 0.0010050915 -0.00937949 -0.0026219557
0001d0 ee e2 93 ba 72 6e 48 bc 09 47 d8 bb 66 bd 02 bb
       -0.001128284 -0.012233363 -0.006600265 -0.0019949316
0001e0 a8 0a 99 bb 04 79 ea bb 6b ae 6d bc 7f db b8 3a
       -0.00467046 -0.0071555395 -0.0145069165 0.0014103501
0001f0 37 20 75 bc ff 68 60 bc ac c1 c4 bc 3d f5 ac bc
       -0.014961294 -0.013696908 -0.024018131 -0.021113032
000200 30 1a 36 3d 44 a2 fa 3b 58 25 1c bc fc 87 63 3c
       0.044458568 0.007648738 -0.009530388 0.013887402
000210 e6 8a 38 bc 38 aa 57 bb 1f 55 71 3a 9e 30 5f bc
       -0.011263585 -0.0032907855 0.00092061044 -0.013622431
000220 e2 cf 35 3b 1a 08 e7 bb e7 bf ba bb a3 9f 15 bc
       0.0027742316 -0.0070505263 -0.005699146 -0.009132299
000230 c7 d3 15 bb f7 ea 5b bb 03 1f bf 39 dc 04 04 bc
       -0.0022861825 -0.0033556798 0.00036453464 -0.008057799
000240 12 66 7a bb ea 80 85 bb c0 67 e4 bb a3 b8 f2 b9
       -0.0038207811 -0.0040742056 -0.006970376 -0.00046295402
000250 88 38 53 bc 8e c0 8b 3b 6b f5 25 bc 0f b1 be bb
       -0.012891896 0.0042648977 -0.010129313 -0.005819447
000260 46 e0 8c bb d8 ca 93 39 f1 b7 26 bc 7a a8 98 bb
       -0.0042991964 0.00028189155 -0.010175691 -0.004658756
000270 5f e9 a6 3a de 59 52 bb d5 2e 27 bc 36 4c 2f bc
       0.0012734345 -0.0032097022 -0.010204037 -0.010699322
000280 32 af 59 ba 93 cb a4 bb a0 3e 4e 3b 16 21 1c bc
       -0.0008303999 -0.0050291508 0.0031470433 -0.009529373
000290 aa 51 a0 bb e5 4b 66 bb a0 1f 3e bc 8a d3 1d 3b
       -0.0048925476 -0.0035140452 -0.01160422 0.0024082386
0002a0 1d 69 a1 bb a3 97 07 bc 9c 96 54 bb bc 48 a4 bb
       -0.0049258606 -0.008275899 -0.0032438403 -0.0050135534
0002b0 62 33 88 bb 17 80 a8 bb cf 09 35 bb 7f e1 06 bc
       -0.004156516 -0.0051422226 -0.0027624255 -0.008232473
0002c0 9a bc 2f b9 c9 87 a4 bb 7e 7a bf bb 0c 21 87 b9
       -0.0001675956 -0.0050210697 -0.0058434596 -0.00025773828
0002d0 6a f6 24 bc 6f ba 8f ba aa 51 14 bc a5 e3 35 bc
       -0.010068515 -0.0010965596 -0.009052673 -0.011101638
0002e0 50 54 d5 3b af e8 e7 bb 3d 53 46 3a 2d 82 3c bb
       0.006510295 -0.0070772986 0.0007565504 -0.0028764114
0002f0 50 12 38 bc bb 1d 2f bc ba 13 04 bc b8 e3 2a bd
       -0.011234835 -0.010688241 -0.008061344 -0.041721076
000300 92 d0 33 3d 41 5e 03 bb 95 27 cc 3b 78 98 45 bc
       0.04390008 -0.0020045193 0.0062303045 -0.012060277
000310 45 c9 52 bc d5 0a 4c 3a ef 3e 03 bc 0a 9e 95 3b
       -0.012865369 0.00077835965 -0.00801061 0.004565959
000320 06 59 9a bc 08 50 1c 3c 5d 7d 0f bc e5 eb 85 bb
       -0.018841278 0.009540565 -0.008757916 -0.0040869587
000330 d3 b0 50 bb 37 1f 1b bc 52 c4 2d bc d6 ce 5f bb
       -0.0031843677 -0.009467891 -0.010605888 -0.0034150383
000340 3d ab 92 3a 1f e5 86 bb 2e 2a 4c bb ef b3 15 bc
       0.0011189949 -0.004116669 -0.003115307 -0.009137138
000350 56 45 9c 3b 33 69 38 bc bd c7 67 ba 4b 6d f2 bb
       0.0047690077 -0.01125555 -0.0008841714 -0.0073982826
000360 c4 c3 52 bb 08 f9 93 bb ca 8d d3 bb f6 d1 6f bb
       -0.0032160142 -0.004515771 -0.0064561116 -0.0036593652
000370 c5 b6 05 bc 77 57 96 bb 3a 28 30 ba e0 6c f4 bb
       -0.008161251 -0.0045880633 -0.00067198614 -0.007459268
000380 27 68 a1 bb 9d 2c ba bb 1c 47 6f bb 41 a1 d5 bb
       -0.004925746 -0.005681588 -0.003651089 -0.006519467
000390 df ef 17 bb 1c 5c 9f bb 4d 60 49 ba 27 b0 a4 bb
       -0.0023183746 -0.004863275 -0.00076818914 -0.005025882
0003a0 a8 86 93 bb 0d 96 fb bb 9c 40 a3 bb c3 73 e4 bb
       -0.0045021363 -0.0076777996 -0.0049820673 -0.0069718077
0003b0 98 ee 99 bb 27 4a 65 bb 8e 00 b3 bb 52 3b 63 3b
       -0.004697632 -0.0034986825 -0.0054627126 0.0034672809
0003c0 64 d9 90 bb aa a0 56 bc 06 d6 29 bc e2 01 bf 3a
       -0.004420446 -0.013099829 -0.010365969 0.0014572705
0003d0 7d e3 16 bc 75 ba 82 3b 6c ae b8 bb d5 72 15 bc
       -0.009209511 0.0039895126 -0.005636027 -0.009121616
0003e0 6b 00 20 bb 52 b7 d3 b9 69 78 05 bc a6 3c 33 bb
       -0.0024414312 -0.0004038164 -0.008146384 -0.0027349382
0003f0 8d 1b 26 bc e7 b8 43 bc 9e 4e 45 bb f8 55 2b bd
       -0.010138405 -0.01194594 -0.0030106674 -0.041830033

Linear.bias f4 [96]
000000 e0 dd c3 ba e2 ad 1e bb 36 50 40 bb 1f e6 60 bb
       -0.0014943443 -0.002421253 -0.0029344684 -0.003431685
000010 e2 57 83 bb 0d 48 a9 bb ba 1b a2 bb 76 6a a8 bb
       -0.004008279 -0.00516606 -0.004947153 -0.0051396443
000020 86 94 ce bb a5 41 e8 bb 00 3a 00 bc 4c a8 f2 bb
       -0.0063043265 -0.0070879036 -0.007826328 -0.0074053165
000030 74 2a 04 bc ff 10 02 bc dd a2 f7 bb 1c a8 0c bc
       -0.008066762 -0.0079386225 -0.0075572566 -0.008585002
000040 a6 58 10 bc 70 79 0e bc 93 e2 22 bc 67 5c 22 bc
       -0.008810198 -0.008695945 -0.009941715 -0.009909726
000050 fa cc 22 bc 6a 55 26 bc 93 5a 26 bc 1f b6 27 bc
       -0.0099365655 -0.0101522 -0.0101534305 -0.010236292
000060 ec 88 34 bc d4 a0 3f bc c4 1b 3c bc 50 ac 39 bc
       -0.011018973 -0.011696059 -0.011481229 -0.011332586
000070 56 00 35 bc 09 1e 37 bc f5 9b 2e bc b6 28 34 bc
       -0.011047443 -0.0111765945 -0.0106573 -0.010996034
000080 57 9f 34 bc 16 03 46 bc 83 07 47 bc 52 57 4c bc
       -0.011024318 -0.012085697 -0.012147787 -0.012471991
000090 24 0b 49 bc 86 a3 4f bc 5b 28 4c bc 31 0f 54 bc
       -0.012270723 -0.012673264 -0.012460793 -0.012943075
0000a0 d8 46 4f bc c4 1e 59 bc aa 10 5b bc 38 3d 51 bc
       -0.012651168 -0.013251964 -0.013370672 -0.012770943
0000b0 10 9b 60 bc db 83 63 bc b7 e2 62 bc 80 c2 5d bc
       -0.013708845 -0.013886417 -0.013847998 -0.013535142
0000c0 72 35 5a bc d5 46 5c bc b0 f5 63 bc 15 bd 58 bc
       -0.013318406 -0.013444622 -0.013913557 -0.013228674
0000d0 ff f8 4b bc 29 b3 50 bc af fa 58 bc 1b 75 63 bc
       -0.012449502 -0.012738028 -0.013243361 -0.013882901
0000e0 f3 ac 59 bc 23 0c 62 bc 3b fc 66 bc 8c 26 60 bc
       -0.013285863 -0.013796839 -0.014098222 -0.013681065
0000f0 52 d1 61 bc f1 26 57 bc f2 b8 5f bc 36 74 5e bc
       -0.013782816 -0.013131843 -0.013654934 -0.0135775115
000100 c8 ac 61 bc ac 6a 58 bc b6 6e 56 bc a6 bd 5a bc
       -0.013774104 -0.013209026 -0.013087919 -0.01335088
000110 a4 a5 5e bc a6 e5 67 bc e9 90 6d bc d6 f1 75 bc
       -0.0135892965 -0.014153874 -0.014499881 -0.015011271
000120 a3 bf 66 bc c6 e2 68 bc 41 c5 6f bc ba e2 72 bc
       -0.014083776 -0.014214223 -0.014634431 -0.014824564
000130 43 45 74 bc 77 fa 73 bc d5 f6 6d bc 8c d6 6e bc
       -0.014909091 -0.014891258 -0.014524181 -0.014577519
000140 97 e5 66 bc 83 78 73 bc b0 43 80 bc 7f 3a 7e bc
       -0.014092824 -0.014860275 -0.015657276 -0.015516876
000150 c8 5f 78 bc bf 2f 83 bc 58 a2 88 bc 44 df 86 bc
       -0.015159555 -0.016013978 -0.016678974 -0.016463883
000160 22 af 87 bc c8 47 89 bc c9 84 8d bc 55 75 8a bc
       -0.016563002 -0.01675786 -0.017275231 -0.016901651
000170 b0 f5 87 bc 73 12 87 bc dd e0 87 bc e6 83 89 bc
       -0.016596645 -0.01648829 -0.016586715 -0.016786527
