weights/linear_freq_weights/RLinear_horizon96_lookback512_cycle_56/checkpoint.pth (torch, 198570 bytes, 2 tensors)

Linear.weight f4 [96, 512]
000000 55 60 2c bc 51 30 a0 bb a0 8f 10 bc f8 5f a8 3a
       -0.010521014 -0.0048885723 -0.008823305 0.0012845984
000010 69 18 31 bc 48 31 cb bb 41 5a 8a bc 30 77 b9 bc
       -0.0108090425 -0.006200943 -0.01688874 -0.02263984
000020 c2 b5 92 3c 09 c5 2e bc 76 b3 11 ba 49 75 e5 bc
       0.017908935 -0.010667094 -0.0005558053 -0.028010027
000030 1a 6c 84 bb e7 94 ad bb e3 ee c2 bc 26 1c 73 bb
       -0.004041207 -0.0052972916 -0.02379555 -0.0037095635
000040 d5 72 ab bb e7 dc a0 bb 68 64 27 bc 34 54 f9 bb
       -0.005232195 -0.004909146 -0.01021681 -0.0076089147
000050 af c0 9c bb 3d 95 14 bc 48 af 0e bc 57 9a 53 bc
       -0.004783712 -0.009068784 -0.0087087825 -0.012915215
000060 ab 4a 73 bb bb 93 00 bc d2 b4 62 bc f4 5f 71 bb
       -0.0037123363 -0.007847722 -0.013837056 -0.0036830874
000070 dd 3e 55 bc aa a6 43 bc 43 fa 10 bc 8e e6 28 bc
       -0.013015476 -0.011941591 -0.00884873 -0.010308875
000080 df 07 ba ba c5 1b c7 bb 39 bd 5b bc 1a 82 c4 ba
       -0.001419302 -0.0060763084 -0.013411813 -0.0014992387
000090 b1 4e 04 bc d2 08 4b bc b6 1d 95 bc b9 0c 2e bb
       -0.008075402 -0.01239224 -0.018202644 -0.0026557876
0000a0 34 f9 fc bb 9b bf 58 bc ae 3a a6 bb 2a 25 09 bc
       -0.007720137 -0.013229276 -0.005072913 -0.008370677
0000b0 03 d4 7d bc 81 c9 ed ba f3 b2 75 bc 34 07 fa bb
       -0.015492442 -0.0018141718 -0.014996278 -0.007630253
0000c0 94 58 5c bc af ce a2 bb c9 c6 4c bb 0c 27 39 bc
       -0.013448853 -0.0049684863 -0.0031246415 -0.011300813
0000d0 f0 eb 41 bc 1b f9 00 bc ee 3a d6 bb 7b a2 c6 bb
       -0.011836037 -0.007871891 -0.0065377867 -0.0060618496
0000e0 73 68 0c bc dc 62 64 bb e3 24 04 bc 99 55 13 bc
       -0.0085698245 -0.0034848964 -0.008065435 -0.008992576
0000f0 bd 71 b8 bc 59 02 e9 ba f4 50 65 bc 6c f5 30 bd
       -0.022515172 -0.0017777189 -0.0139963515 -0.043202803
000100 31 94 09 3d 0d 6a b6 3b a0 a4 a5 bb e3 16 15 bb
       0.033588592 0.0055668415 -0.005055025 -0.0022749237
000110 46 10 d9 bb 03 b9 56 bc 61 34 11 bc 41 95 00 bc
       -0.0066242544 -0.013105634 -0.008862586 -0.007848085
000120 93 2f 77 bc 74 2a df bb fa 4b 82 bb 02 6f 46 bc
       -0.015087026 -0.0068104807 -0.0039763423 -0.012111427
000130 64 47 e4 bb 08 52 fa bb 91 e5 0e bc 39 e0 a5 bb
       -0.0069665182 -0.0076391734 -0.008721725 -0.00506213
000140 a9 22 10 bc 68 57 1c bc d5 b4 26 bc 67 c9 16 bc
       -0.008797326 -0.009542324 -0.01017495 -0.0092032915
000150 aa 5e 4e bc c6 87 37 bb 7e 87 ab bb ee 8b 35 bc
       -0.012595812 -0.0028004511 -0.005234658 -0.011080725
000160 62 2d 85 bb ca 96 41 bc 8c 0f 3d bc b8 1a 84 bb
       -0.004064248 -0.011815736 -0.011539351 -0.0040315054
000170 f7 cb 55 bc 27 97 1b bc 68 f0 01 bc 44 73 5e bc
       -0.013049117 -0.009496487 -0.0079308525 -0.013577286
000180 96 63 d0 bb 30 bf e0 bb 10 cf 05 bc 39 f1 f4 3a
       -0.006359528 -0.006858729 -0.008167043 0.0018687613
000190 8b 58 3a bc 14 53 66 bb 38 7f a3 bb a8 d6 08 bc
       -0.011373649 -0.0035144733 -0.004989531 -0.008351959
0001a0 85 0e 6b bc b5 30 3a bc 60 9b cd bb e4 1d fb bb
       -0.014346723 -0.011364152 -0.0062746257 -0.0076634753
0001b0 22 ff ce bb e2 bc fd bb a3 e3 53 bc fc aa 05 bc
       -0.0063170353 -0.007743464 -0.012932691 -0.008158442
0001c0 25 14 32 bc eb 66 a2 bb 47 dd f5 bc ce 1d 19 bc
       -0.010869061 -0.0049561164 -0.03001274 -0.009345485
0001d0 d7 55 db bc 8e 01 2b bd b7 8d c5 bc 62 0e fe bc
       -0.02677433 -0.04174953 -0.024115426 -0.031012718
0001e0 7f 78 7c 3d ee 8f ca 3c c2 8f b9 3c d5 3e b7 3b
       0.06163835 0.024726834 0.022651557 0.005592207
0001f0 2b 5c c5 bc ac e5 dd 3a c5 83 85 bc c3 15 bc 3a
       -0.0240918 0.001692941 -0.016298184 0.0014349747
000200 2d 15 bd bb 89 db 58 bc 7d a4 ce bb 0e d6 ed bb
       -0.0057703466 -0.013235935 -0.0063062296 -0.0072581833
000210 b8 bc 0f bc 0a 58 3a bc 45 b9 42 bc 9c fa db bb
       -0.008773021 -0.011373529 -0.011884992 -0.0067132246
000220 30 58 42 bc cf 70 70 bc b2 66 3e bc bf 27 f6 bb
       -0.011861846 -0.014675333 -0.011621164 -0.0075120623
000230 6e 20 0f bc 75 62 b4 bb 18 89 1e bc 54 85 85 bc
       -0.008735759 -0.005504901 -0.00967624 -0.016298927
000240 32 86 28 bb 93 94 6a bc e9 bc bf ba d0 e9 1d bc
       -0.0025714752 -0.014317649 -0.0014628443 -0.009638265
000250 8c ff 9d bb 4a 51 ee bb 37 27 68 bc 48 45 2c bc
       -0.0048217233 -0.007272874 -0.014169506 -0.010514565
000260 b7 f8 a6 bb 29 43 99 bb 5a a5 70 bc 42 8c 79 bb
       -0.005095567 -0.0046771956 -0.01468786 -0.0038077985
000270 72 0f ea bb 98 ca 1d bc 92 59 82 bc 80 34 91 bb
       -0.0071429545 -0.009630822 -0.015911851 -0.0044313073
000280 d2 d6 d6 bb 3a 75 40 bc 57 ef 03 bc 6b 0f 75 bb
       -0.0065563703 -0.011746699 -0.0080526685 -0.0037393223
000290 1a c0 49 bc 28 14 64 bb a8 a0 42 bc d3 e8 21 bc
       -0.012313867 -0.0034802053 -0.011879124 -0.00988217
0002a0 ea c4 e1 bb fe a6 c4 bb 17 e9 51 bc b1 7a 32 bc
       -0.006889929 -0.0060013523 -0.012811921 -0.01089351
0002b0 c6 18 83 bc cd 68 26 bc 53 51 2e bd b7 00 b5 bc
       -0.016003024 -0.010156822 -0.042558026 -0.022095067
0002c0 96 4d 38 3d c6 5a a0 bb 5b e8 be 3b 69 01 5c 3b
       0.044995867 -0.0048936335 0.005826039 0.0033570176
0002d0 58 c4 82 bc 8a d0 45 bb d9 34 2a bc 47 d6 2c bc
       -0.015962765 -0.0030184113 -0.010388576 -0.010549135
0002e0 f4 c5 09 bc ee b1 6e 3a 94 87 6b bc 43 3c 94 bb
       -0.008409012 0.0009105493 -0.014375586 -0.0045237853
0002f0 7a 01 42 ba 50 e1 54 bc ad 76 03 bc 81 60 3d bc
       -0.0007400733 -0.012993172 -0.0080239 -0.011558653
000300 61 52 fb bb 45 a1 e0 bb 28 12 9a bb 29 5f 3d bc
       -0.0076697324 -0.0068551623 -0.0047018714 -0.0115583325
000310 7b b6 41 bc 1c c8 86 bb 6f 67 b2 bb cc 5c 6c bc
       -0.011823292 -0.0041132104 -0.005444459 -0.014426421
000320 ae b6 56 bb 8e 26 99 bb 3b f4 97 bc 29 ac 0f bc
       -0.0032762694 -0.0046737855 -0.018549075 -0.0087690735
000330 5d bc d6 bb 8b 5d f2 bb 3c d9 89 bb a3 d9 46 bc
       -0.0065532164 -0.007396405 -0.0042068046 -0.01213685
000340 63 77 ff bb ea bd 43 bc 81 e6 05 bc b3 e0 0b bc
       -0.0077962144 -0.0119471345 -0.008172632 -0.008537459
000350 cf f6 28 bc 24 62 b0 bb d7 21 35 bc ae 0b 2b bc
       -0.01031275 -0.005382793 -0.011055431 -0.010439796
000360 55 3e 0e bc ff 7d 21 bc 81 fb 3b b9 c2 f3 0d bc
       -0.008681853 -0.0098567 -0.00017927402 -0.008664073
000370 1b f5 ee bb 17 6d ec bb 0e 68 3c bc da d4 3d bc
       -0.0072924024 -0.007215153 -0.011499418 -0.011586392
000380 83 29 84 bc 53 17 94 3b ab 45 cb bb 1d e1 f7 bb
       -0.016133076 0.004519382 -0.0062033734 -0.0075646774
000390 cf a2 09 bc cb c9 90 bc 13 10 82 bc 73 9a 3c bd
       -0.008400633 -0.017674347 -0.015876805 -0.04604573
0003a0 32 ea 1b 3d 51 8d de 3a 5a f9 b9 ba 6c ad db bc
       0.038065143 0.0016979371 -0.0014188692 -0.026816092
0003b0 04 d1 0d bc 5f 0f 10 bb a9 6a 28 bc bf e6 35 bc
       -0.00865579 -0.0021981818 -0.010279336 -0.011102377
0003c0 9a cb e9 3a a9 3f 6c bc 38 05 12 bc aa 96 b2 bb
       0.0017837167 -0.014419475 -0.008912377 -0.0054500895
0003d0 62 2c 41 bc 57 9c 0b bc 9d 4d 60 bb 3f 67 27 bc
       -0.011790367 -0.008521161 -0.0034225949 -0.010217487
0003e0 66 76 44 bc ef 0f aa bb 9b 8e 00 bc 7c a0 a0 bb
       -0.011991119 -0.0051898877 -0.0078465 -0.0049019437
0003f0 d4 42 03 bc 04 14 14 bc 63 f1 4f bb c1 2a 11 bc
       -0.008011539 -0.009037975 -0.003172957 -0.008860291

Linear.bias f4 [96]
000000 b8 34 3c ba df 28 d8 ba 7e 9e aa ba 89 31 f9 ba
       -0.00071794866 -0.0016491673 -0.0013017205 -0.0019011955
000010 f7 e7 16 bb 38 7d 55 bb 0b fc 89 bb c9 6d 92 bb
       -0.0023026445 -0.0032575857 -0.004210954 -0.004468654
000020 65 fb d2 bb f9 d2 cc bb 8a 3f ed bb 3c e4 ed bb
       -0.00643866 -0.006250736 -0.0072402405 -0.0072598737
000030 04 2a 00 bc a3 13 09 bc 4e 9c 07 bc bb de 11 bc
       -0.007822517 -0.008366498 -0.008277012 -0.008903201
000040 4c 06 10 bc a8 e7 08 bc 6d c9 fc bb 9c a7 07 bc
       -0.008790564 -0.008356012 -0.0077144415 -0.008279707
000050 04 20 10 bc 28 bc fa bb c0 74 f9 bb d3 f1 0e bc
       -0.008796696 -0.0076518245 -0.0076127946 -0.008724648
000060 0f ab 0e bc c2 22 15 bc 06 f1 09 bc 4e 22 06 bc
       -0.008707776 -0.009102525 -0.008419281 -0.00818689
000070 7d 22 04 bc fd ba 15 bc b3 df 24 bc 0b 8b 2e bc
       -0.008064863 -0.00913882 -0.0100631 -0.010653268
000080 d5 1e 39 bc 7b b5 29 bc 61 01 1b bc c7 dc 22 bc
       -0.011298855 -0.01035821 -0.009460778 -0.009940333
000090 a2 79 1d bc fa 2c 32 bc 81 ec 20 bc 32 63 29 bc
       -0.009611519 -0.010874981 -0.009822012 -0.010338591
0000a0 ca 2e 2e bc 52 83 42 bc 5a ae 3a bc 9b b5 3a bc
       -0.010631273 -0.0118721295 -0.011394108 -0.011395837
0000b0 2c a8 41 bc c9 73 4f bc d3 dc 55 bc 39 62 5e bc
       -0.01181988 -0.012661883 -0.013053137 -0.013573223
0000c0 12 ae 67 bc 1c cd 6c bc 83 fc 62 bc 35 62 7c bc
       -0.014140623 -0.014453199 -0.013854149 -0.015404274
0000d0 bf 1e 7b bc 4e 38 73 bc 75 11 65 bc 5d de 83 bc
       -0.015327155 -0.014844967 -0.013981213 -0.016097242
0000e0 11 be 85 bc 0a 70 7d bc 3d e4 6d bc e1 5c 7b bc
       -0.016325982 -0.015468607 -0.014519748 -0.015341968
0000f0 7d 55 80 bc 54 97 83 bc 71 1f 73 bc 7f 64 67 bc
       -0.015665764 -0.01606337 -0.014839039 -0.014123081
000100 a1 e2 71 bc 87 7d 6e bc 04 57 80 bc 87 e9 76 bc
       -0.014763505 -0.014556295 -0.015666492 -0.015070326
000110 ee 60 7c bc 69 50 75 bc f2 7c 7b bc 9d 9a 84 bc
       -0.015403969 -0.014972785 -0.0153496135 -0.016187007
000120 c8 f0 88 bc 28 87 88 bc 83 5b 87 bc 36 a3 8a bc
       -0.016716376 -0.01666601 -0.016523128 -0.016923528
000130 49 18 88 bc 65 ce 7f bc c4 13 87 bc 1d d0 81 bc
       -0.016613143 -0.015613173 -0.016488917 -0.015846306
000140 b5 22 81 bc 44 06 82 bc c9 81 7e bc 9d 7d 75 bc
       -0.01576362 -0.015872128 -0.015533873 -0.014983562
000150 af 96 87 bc f3 68 76 bc 72 eb 81 bc 41 ee 81 bc
       -0.016551344 -0.01503967 -0.01585934 -0.015860679
000160 04 0b 87 bc aa 2f 89 bc 83 1d 6d bc 47 74 7d bc
       -0.016484745 -0.01674636 -0.014472368 -0.015469617
000170 7d 49 83 bc 14 0f 82 bc 1c f5 88 bc 88 81 87 bc
       -0.016026253 -0.01587633 -0.01671844 -0.016541258
