weights/linear_freq_weights/RLinear_horizon96_lookback512_cycle_180/checkpoint.pth (torch, 198570 bytes, 2 tensors)

Linear.weight f4 [96, 512]
000000 84 04 00 bc b7 52 30 bb b7 98 68 bb 39 a0 a9 bb
       -0.007813577 -0.002690477 -0.0035491416 -0.0051765707
000010 4b c8 2e bc f9 ba 13 bc de 8b d2 ba 75 7a 46 bc
       -0.010667871 -0.009016746 -0.0016063412 -0.012114157
000020 eb 96 59 bc d8 90 8d 3b f8 09 d9 39 ee 9e 66 bc
       -0.013280611 0.0043202452 0.00041396893 -0.014075978
000030 40 32 e7 bb 6a 09 39 bc 5e ba 4a bc de af fb ba
       -0.007055551 -0.011293748 -0.012373535 -0.0019202193
000040 0c 64 1c bc 64 55 8c bb 30 cb 09 bb b7 94 33 bc
       -0.009545337 -0.0042826403 -0.002102565 -0.010960749
000050 2b b3 1e bc 84 1b bc bb b6 6d 91 bc a1 ae d8 bb
       -0.009686272 -0.005740585 -0.01775251 -0.0066126143
000060 3e 45 04 ba 66 80 85 bb 07 50 56 bb c6 79 4a bc
       -0.0005045718 -0.004074144 -0.0032701509 -0.012358135
000070 71 71 35 bc 62 b4 01 bc 9b 24 0d bc 15 57 de bb
       -0.01107441 -0.007916542 -0.008614684 -0.0067852833
000080 3b 0b d5 ba f0 18 f6 bb 38 d1 2d bc 53 b6 09 bc
       -0.0016253957 -0.007510297 -0.010608964 -0.008405286
000090 75 0b bf bb 0c 1e d7 bb 1f 1f 2b bc 3c 13 de bb
       -0.005830223 -0.006564861 -0.010444432 -0.0067771953
0000a0 2f bd ba bb b7 02 35 bc 91 f5 af bb ba 79 c4 bb
       -0.005698822 -0.011048011 -0.00536985 -0.0059959562
0000b0 6b c4 fe bb d0 3f 18 bc 11 b0 03 bc 4f 06 1a bc
       -0.0077748797 -0.009292558 -0.008037583 -0.009400918
0000c0 26 f6 7d bb 2c ab d4 bb 3a 19 39 bc e8 c8 a5 bb
       -0.0038751452 -0.006490132 -0.011297518 -0.0050593503
0000d0 08 21 b7 bb 60 37 48 bc b9 ee c2 bb 0a 83 d6 bb
       -0.0055886544 -0.012220234 -0.005948868 -0.006546383
0000e0 34 8b dc bb c0 68 1b bc b6 c6 97 bb 49 61 36 bc
       -0.0067304615 -0.009485424 -0.0046318425 -0.011131593
0000f0 d8 d9 22 bc ce ab c4 bb 44 c8 71 bb ae c2 a2 bb
       -0.009939633 -0.006001926 -0.003689305 -0.0049670553
000100 e7 cb 16 bc bf 6c 8e bb 21 70 28 bc 81 fa da bb
       -0.009203888 -0.0043464596 -0.01028064 -0.0066826944
000110 21 80 21 bc 0d b8 bd bb 9c e3 eb bb e8 b8 b4 bb
       -0.0098572085 -0.005789763 -0.007198764 -0.0055152066
000120 a6 9a e2 bb 22 bd a2 bb 4f 72 33 bc d7 9d a0 bb
       -0.006915408 -0.004966394 -0.010952546 -0.0049016285
000130 92 c9 11 bc c5 49 e0 bb 1c 0e bd bb 7d 2a 48 bc
       -0.008898156 -0.0068447315 -0.0057695042 -0.012217161
000140 a2 5f 50 bc 03 02 8f b9 29 7e 1e bc ac 7e 35 bc
       -0.012718113 -0.00027276584 -0.009673634 -0.011077564
000150 6e 57 c7 bb e1 99 81 ba 14 f3 00 bc 11 84 c2 bb
       -0.0060834205 -0.0009887778 -0.007870454 -0.0059361537
000160 ac 0c 20 bc 2d cd 10 bc 26 9f e1 bb 84 91 36 bc
       -0.009768646 -0.00883798 -0.006885427 -0.011143092
000170 11 d7 75 bb 59 88 d6 bb 58 f3 1e bc 72 f2 13 bc
       -0.0037512223 -0.0065470156 -0.009701572 -0.009029971
000180 8b db a7 bb 7c 0b fa bb 7b b8 3a bc 96 3c a7 bb
       -0.005122607 -0.0076307636 -0.011396523 -0.005103658
000190 9b f5 e1 bb d3 9b dd bb 81 f6 12 bc 79 99 06 bc
       -0.0068957335 -0.0067629605 -0.008969904 -0.008215302
0001a0 ae 85 9b ba 8b c7 60 bc 63 e3 07 bc 75 b0 ca bb
       -0.0011865401 -0.01371945 -0.008293959 -0.006185586
0001b0 be 3b 84 bb 7f a7 18 bc b9 3b d9 bb d2 20 04 bc
       -0.004035442 -0.009317278 -0.006629434 -0.008064466
0001c0 8b 81 0b bc eb ea 3d bc 85 3e 9b bb db 22 d6 bb
       -0.008514772 -0.011591653 -0.0047376775 -0.006534917
0001d0 e3 63 17 bc a4 ed dd bb 11 8f dd bb 74 69 f9 bb
       -0.009240123 -0.0067727137 -0.0067614396 -0.007611448
0001e0 b8 45 8a bb ac a8 3b bc 55 39 06 bc a1 16 ae bb
       -0.004219737 -0.011453789 -0.00819238 -0.005312756
0001f0 0e 5e a0 ba b7 75 41 bc b0 56 a0 bb a9 4f 02 bc
       -0.0012235062 -0.011807851 -0.0048931465 -0.007953563
000200 58 61 57 bc bf 47 9c bb 0e d3 2d bb 6c 8e 2e bb
       -0.013145767 -0.004769295 -0.0026523503 -0.0026635183
000210 7e a8 24 bc d9 05 cf bb 0d a1 41 bc 25 96 21 bc
       -0.010049937 -0.0063178358 -0.011818183 -0.009862457
000220 c9 0c 43 bc 35 2c 91 ba 3a 1d 42 bc 30 d4 9a ba
       -0.011904904 -0.0011075797 -0.0118477885 -0.0011812504
000230 80 0d 2c bc b3 98 32 bc cb a8 6b bc 63 b4 9f bc
       -0.0105012655 -0.010900664 -0.014383505 -0.019495195
000240 e1 f0 13 bb 92 9a 3f 3c 03 8d a0 bb fa 5b 9f bc
       -0.0022573995 0.011694567 -0.0048996224 -0.019453038
000250 19 f2 76 bc 24 65 0c bc aa 28 64 bc 8e 36 83 bc
       -0.015072369 -0.008569036 -0.013925711 -0.016017225
000260 8f e6 af 3a b1 a5 a8 3b 48 4c f1 ba 0e 5a 17 bc
       0.0013420152 0.005146705 -0.0018409574 -0.009237779
000270 44 30 02 ba 5f c4 20 bc 1f 3e 89 bc 86 2f ad 3b
       -0.00049662986 -0.0098124435 -0.016753254 0.0052852063
000280 04 6e f2 3b c1 d6 1f bb 00 03 2a bc 39 32 1a bc
       0.007398369 -0.0024389478 -0.010376692 -0.009411388
000290 ef 58 1b bc 47 97 30 bc b0 45 fa bb 9c 53 0d bc
       -0.009481653 -0.010778255 -0.007637702 -0.008625891
0002a0 93 00 ef 3a 61 6d 36 bc 84 b6 0b bc af d7 c7 bb
       0.0018234424 -0.011134476 -0.008527402 -0.0060987095
0002b0 d3 92 3b bc 08 28 c1 bb a4 60 aa bb 36 4b d6 bb
       -0.01144858 -0.0058946647 -0.0051995087 -0.0065397276
0002c0 e6 13 fc bb 59 09 20 bc 90 91 fb bb 3e e1 d8 bb
       -0.0076928018 -0.009767854 -0.0076772645 -0.006618648
0002d0 6b ca d6 bb 77 bc 20 bc f0 37 ca bb 55 f4 cb bb
       -0.006554892 -0.0098105585 -0.006171219 -0.006224195
0002e0 9d 3d e5 bb fb a9 1e bc ad 17 0e bc 53 74 03 bc
       -0.0069958703 -0.009684081 -0.008672637 -0.008023339
0002f0 2c 99 81 bc 32 34 b8 3a de 07 c4 bb db 1e ed bb
       -0.015820108 0.0014053641 -0.005982383 -0.0072363443
000300 ee 2f 36 bc e7 bb 55 bb e7 7e 3f bc 61 b8 21 bc
       -0.011119826 -0.003261322 -0.011687971 -0.0098706195
000310 b7 da 33 bb b9 13 54 bb 25 ed 09 bc 6d 0f bd bb
       -0.0027443597 -0.0032360388 -0.008418356 -0.005769661
000320 35 af 09 bc 36 d3 b0 bb c3 2d 08 bc c0 9b 42 bc
       -0.008403589 -0.005396272 -0.008311692 -0.011877954
000330 29 28 bd bb 61 9f dc bb 35 9b 09 bc 86 51 09 bc
       -0.0057726097 -0.0067328666 -0.008398821 -0.008381253
000340 48 ff dc bb 2e dd f1 bb 13 fd f3 bb 72 e4 04 bc
       -0.006744299 -0.007381103 -0.0074459403 -0.008111106
000350 4b 3f 4f bb d5 49 e7 bb 6d 32 34 bc dd 5e da bb
       -0.003162342 -0.007058362 -0.010998351 -0.0066641406
000360 4f a6 b9 bb cf 11 30 bc f7 90 b3 bb f6 e2 e0 bb
       -0.0056655775 -0.010746433 -0.0054799276 -0.0068629934
000370 0a dd 0d bc 5d 94 1f bc 42 0f 10 bb fa a8 fe bb
       -0.008658657 -0.009739962 -0.002198175 -0.0077716084
000380 60 64 3a bc 49 97 e1 bb d2 da 0c bc 84 48 01 bc
       -0.01137647 -0.0068844897 -0.008597093 -0.007890824
000390 f2 38 89 bb d9 d9 c5 bb 2b fc fc bb 96 4c 09 bc
       -0.0041876966 -0.0060379324 -0.0077204905 -0.008380076
0003a0 e9 cc 13 bc 10 82 f2 bb ff 25 3f bc d1 11 93 bb
       -0.009021022 -0.0074007586 -0.011666774 -0.004488208
0003b0 6d b2 2f bb 94 85 42 bc 8d 9f 7b bb 86 ac 25 bc
       -0.002680923 -0.011872668 -0.003839466 -0.010111934
0003c0 0f fd 00 bc cd d8 ec bb e8 fd 70 bb 41 ae fd bb
       -0.007872834 -0.007227993 -0.0036772434 -0.00774172
0003d0 9a 39 2f bc 10 4b 2c bc 30 6b f0 bb be 55 87 bb
       -0.010694886 -0.010515943 -0.0073369965 -0.0041300943
0003e0 8b 5b a7 bb bb 1f 37 bc 90 80 70 bb c6 7a d1 bb
       -0.0051073483 -0.011176999 -0.0036697723 -0.0063928096
0003f0 d0 3c 1f bc 8f 26 c0 bb 3f 42 c8 bb 20 09 1b bc
       -0.009719089 -0.0058639715 -0.006111413 -0.009462625

Linear.bias f4 [96]
000000 90 ed 4c ba 50 25 08 bb cd 74 35 bb b9 de 4f bb
       -0.0007817382 -0.0020774193 -0.0027688027 -0.0031718446
000010 ae 05 65 bb 75 85 6e bb a1 7f 7a bb a7 7b 84 bb
       -0.0034946012 -0.0036395465 -0.0038223045 -0.004043061
000020 b3 2f a2 bb 77 30 a9 bb 07 3e c3 bb 0b 7d c8 bb
       -0.004949534 -0.005163248 -0.005958322 -0.006118422
000030 6f 67 d2 bb e3 23 d8 bb 5d 6c f0 bb b7 15 f7 bb
       -0.0064210217 -0.006596075 -0.0073371367 -0.0075404304
000040 55 66 02 bc 07 61 09 bc fc 6c 10 bc 8c 3a 12 bc
       -0.007958968 -0.0083849495 -0.008815046 -0.0089250915
000050 6b 7b 15 bc 00 13 16 bc 8c b9 18 bc 84 4b 27 bc
       -0.009123663 -0.009159803 -0.009321582 -0.010210875
000060 28 35 2a bc c2 07 30 bc eb 3f 3a bc 86 a4 44 bc
       -0.01038865 -0.010744037 -0.011367778 -0.012002116
000070 36 8c 49 bc a2 ee 4b bc 9c 63 4e bc 45 50 4e bc
       -0.012301495 -0.012447031 -0.012596991 -0.01259238
000080 9d a6 4e bc 8f f6 57 bc b0 3f 54 bc 64 d7 50 bc
       -0.012612966 -0.013181343 -0.012954637 -0.012746666
000090 8a 84 59 bc fb 12 5c bc ca 94 65 bc 85 7b 6a bc
       -0.013276229 -0.01343226 -0.014012525 -0.014311676
0000a0 5d b6 69 bc f5 0a 6a bc 5e b2 63 bc f4 30 61 bc
       -0.01426467 -0.014284839 -0.0138975065 -0.0137445815
0000b0 61 d5 5f bc 23 bc 60 bc ca ed 63 bc 08 57 65 bc
       -0.013661713 -0.01371673 -0.013911674 -0.013997801
0000c0 36 59 72 bc 32 34 6e bc a0 fb 70 bc c8 20 75 bc
       -0.014791777 -0.0145388115 -0.01470843 -0.014961429
0000d0 36 dc 7f bc cf cd 80 bc c6 73 84 bc 47 23 86 bc
       -0.015616467 -0.015723137 -0.016168486 -0.016374243
0000e0 4a 4d 89 bc 0c 3e 8a bc cb 1e 8d bc a2 6e 8c bc
       -0.016760487 -0.01687529 -0.017226597 -0.017142598
0000f0 d4 b6 8e bc 20 2b 90 bc 7a 48 8e bc 6e d6 90 bc
       -0.017421164 -0.017598689 -0.017368544 -0.017680373
000100 83 f1 90 bc 9c 56 93 bc cb 9f 98 bc 17 8a 9d bc
       -0.017693287 -0.017985635 -0.018630883 -0.019230885
000110 0d 8a 9d bc c5 d2 9e bc c6 c6 a1 bc 3e c5 a4 bc
       -0.019230867 -0.019387612 -0.019748103 -0.020113584
000120 ac 7b a4 bc 8e 8c a5 bc 12 1f a7 bc 96 f3 aa bc
       -0.020078503 -0.020208623 -0.020400558 -0.020868104
000130 47 e0 ab bc 18 55 aa bc 1a 4b ab bc 8b cc a8 bc
       -0.020980967 -0.020792529 -0.020909835 -0.020605346
000140 8e 3d a9 bc ff 30 ab bc f0 04 ae bc b3 cd af bc
       -0.020659234 -0.020897387 -0.021242589 -0.02146039
000150 75 a4 b0 bc 69 02 b3 bc 92 2d b6 bc 3d 29 b3 bc
       -0.021562794 -0.021851735 -0.022238526 -0.02187025
000160 be ea b0 bc 95 62 b1 bc 17 be b4 bc 66 c8 b9 bc
       -0.021596309 -0.021653453 -0.022063298 -0.022678565
000170 e5 23 ba bc 95 41 bd bc 41 79 bb bc 02 c3 bc bc
       -0.022722194 -0.023102561 -0.022884967 -0.023042206
