weights/linear_freq_weights/RLinear_horizon96_lookback512_cycle_288/checkpoint.pth (torch, 198570 bytes, 2 tensors)

Linear.weight f4 [96, 512]
00000000: 4f78 efbb ca6c c7bb dcdc c4bb 27f4 aebb
00000010: 6733 4bbc 8dc2 f1bb d51c 97bb 896a 9fbb
00000020: 1cee d4bb b6e3 03bc d6b3 f9bb 7939 d6bb
00000030: 6f25 0bbc c9e1 18bc ef8f a3bb d312 c7bb
00000040: 559b cbbb fb53 4cbc a250 c2bb bba8 2abc
00000050: c42b e3ba 6dcb f7bb 88b7 d4bb 1569 c2bb
00000060: 9174 4ebc b6b7 fbbb ac2d 85bb 5334 c9bb
00000070: 9c41 fabb 14d7 00bc 9a13 37bc fcf9 babb
00000080: 65f8 43bb 0306 ddbb 07e8 00bc 5130 f6bb
00000090: 0287 eebb f66f f0bb dc14 0fbc 8b91 d8bb
000000a0: 62be b5bb 2c04 5fbc 1039 93bb fa37 76bb
000000b0: 2511 1ebc defd 7fbb d6a3 15bc 9a37 28bc
000000c0: 01b1 14bb 062a 37bc 0c00 7bbb f41f 11bc
000000d0: a043 39bc 47d7 90bb d59e 4abc 6424 99bb
000000e0: 8753 95bb fa10 02bc 4522 96bb 0e4a edbb
000000f0: 1604 d9bb 4007 06bc c8ad d7bb 85a6 20bc
00000100: b8d9 d2bb 28b3 0ebc c53a eebb 5bba 1ebc
00000110: a92f 25bc 0168 38bb 8ee0 36bb a2e1 20bc
00000120: 66d4 d2bb 519c 1fbc cef1 c1bb ca49 edbb
00000130: b2a2 41bc e106 74bb 3122 dbbb 582a 35bc
00000140: 724b acbb 7ff8 9fbb bbf5 b6bb 4d39 20bc
00000150: aa23 0bbc 62ac 1fbc d14d f3bb fb4c 90bb
00000160: 733a 08bc bcd0 c1bb 9717 70bb ecc5 38bc
00000170: 6f11 8ebb 25bd 0dbc d757 99bb 9fc1 35bc
00000180: 1756 9abb eb18 24bc 9f3a bebb eda1 abbb
00000190: 39b1 e8bb fdf9 e6bb 9f28 5cbc 297c 11bc
000001a0: a840 eabb 73c1 51bb ea14 0cbc ae7d cabb
000001b0: f85f 0abc 3a79 ebbb f6ca 10bc 51b9 ecbb
000001c0: 2ba2 c5bb 2631 07bc 7934 c3bb 2c37 49bc
000001d0: 7d12 9bbb 6751 5dbb 226c 3bbc 457b b7b9
000001e0: 4bd9 56bc b1c1 f1bb dded 95bb 491e 08bc
000001f0: ab7b d1bb fabd 1dbc 056b c8bb 245f 00bc
00000200: 1b67 32bc 7df9 d5ba 366b 0cbc 0b54 96bb
00000210: cd46 6abb f8a7 34bc 7cd1 0abc 41b9 e1bb
00000220: 9395 d5ba 8f51 4bbc 821e c1bb 97aa 48bc
00000230: f316 7ebb 6f39 04bc cb06 80bb 3273 27bc
00000240: 5203 2abc a0ac b7bb 3aed f2bb c7c0 57bb
00000250: edce cabb a098 26bc 2cc6 3ebc 6b10 24bc
00000260: ff42 50bb 8cd0 08bc 9ff6 08bc 506e b7bb
00000270: 3a30 eabb 9f98 fdbb e8b9 b4bb 3c46 f2bb
00000280: cbd7 04bc f94b 38bc 93a1 80bb 7f5b 3abc
00000290: b215 e5bb 94a5 83bb f882 90bb 6dd7 18bc
000002a0: 1683 b2bb c4fe e6bb b99b eabb 3922 c8bb
000002b0: 0d38 62bc 01f6 b1bb 39d0 12bc f59e 26bc
000002c0: 6de5 16bb 5bb1 62bb 9f5a c8bb 0277 20bc
000002d0: 9958 c7bb a074 c8bb a014 81bb e6b5 7bbc
000002e0: ace3 f4bb 3ad2 18bc 3dd1 0abc 7213 3dbc
000002f0: 569a bcba b928 99bb b40c e7bb c1f9 d2bb
00000300: 881d 42bc a939 a8bb 7c99 f1bb 5c02 44bc
00000310: f83c fbbb bdf0 3cbc 48d9 31bc 9dfd 0bbc
00000320: 9223 1abc c427 2bbb acc4 4dbb 612e dfbb
00000330: cb7a ebbb 414d 2ebc 7830 f4bb 7d7c b13a
00000340: f376 2ebc c1f5 61bc 9726 7ebc 65b7 80bc
00000350: 1f41 eabb db58 97bb c055 0dbc f7ff 83bb
00000360: 8176 96bc 09b5 30bc 2cec 523b 36c2 3cbc
00000370: a6a6 1dbc 2f9d 90bc 9906 b6bc 2921 a8bc
00000380: 2365 923c cee7 3c3b 15b4 7d3b 2cc2 8d3b
00000390: b1d1 aa39 b66e 1dbc 3bb8 35bb 624f febb
000003a0: dfa5 05bb a40e 11bc 42af 57bc 01d3 5abc
000003b0: 1fc1 b43b 245b ceb9 3fcb 2cbc f261 01bc
000003c0: b2ab 1cbc 3aa3 a1bb 6a05 ebba 42f1 333a
000003d0: 03df 08bc 644d 2dbc b5c2 26bc a520 1cbc
000003e0: d7be edbb 2ca1 a7bb 3b15 cd3a 2000 10bc
000003f0: 2e2c 01bc 9743 44bc 55ec 7fbb 1525 97bb
-0.007308043 -0.0060859667 -0.006007774 -0.005339164 -0.012402392 -0.0073779286 -0.0046115913 -0.004864995
-0.0064981114 -0.008049896 -0.007620315 -0.006537613 -0.008492812 -0.009331175 -0.0049915235 -0.006075242
-0.0062135854 -0.012471194 -0.0059300223 -0.010416205 -0.0017331769 -0.007562092 -0.006491605 -0.005932937
-0.012601034 -0.007681812 -0.0040642824 -0.0061402707 -0.007637216 -0.007863779 -0.011174107 -0.00570607
-0.0029902693 -0.0067451014 -0.00786782 -0.007513084 -0.007279278 -0.0073375655 -0.008733001 -0.006609147
-0.005546377 -0.0136118345 -0.0044928864 -0.0037569986 -0.009647642 -0.0039061229 -0.0091333 -0.010267163
-0.002268851 -0.011179453 -0.0038299588 -0.008857716 -0.011307627 -0.0044201943 -0.01236697 -0.0046735276
-0.0045570764 -0.007938618 -0.004581722 -0.007241494 -0.0066228015 -0.0081804395 -0.0065819956 -0.009805326
-0.0064346455 -0.008709706 -0.0072701895 -0.009687985 -0.010082164 -0.0028138163 -0.002790484 -0.00981942
-0.0064340113 -0.009741859 -0.005918718 -0.0072414624 -0.011818575 -0.0037235545 -0.0066874255 -0.011057459
-0.005258017 -0.004881918 -0.0055834926 -0.009779287 -0.00849239 -0.009745689 -0.007425048 -0.004403708
-0.008314717 -0.0059147757 -0.0036635154 -0.011277657 -0.0043355743 -0.008651053 -0.004679661 -0.011093526
-0.0047099697 -0.0100157065 -0.005805328 -0.005237809 -0.0071012047 -0.007048844 -0.013437419 -0.0088797
-0.007148821 -0.0032006174 -0.008549908 -0.006179533 -0.008445732 -0.007186082 -0.008837452 -0.00722424
-0.006031295 -0.008251464 -0.005957183 -0.01228122 -0.0047324286 -0.0033770443 -0.011439355 -0.00034996323
-0.01311333 -0.007377826 -0.0045754747 -0.008308002 -0.006392916 -0.0096278135 -0.0061162733 -0.007835183
-0.01088884 -0.0016324964 -0.008570483 -0.0045876554 -0.0035747767 -0.011026375 -0.0084727965 -0.006888539
-0.0016295187 -0.012409582 -0.0058935294 -0.012247703 -0.0038771003 -0.008070334 -0.00390706 -0.010220336
-0.010376768 -0.0056052953 -0.0074135335 -0.00329213 -0.0061892183 -0.010168225 -0.011643928 -0.01001368
-0.0031778214 -0.008350503 -0.00835958 -0.005597867 -0.0071468623 -0.007739141 -0.005515326 -0.0073936265
-0.00810809 -0.011248582 -0.003925511 -0.011374353 -0.0069911117 -0.004017541 -0.004410144 -0.009328705
-0.0054477556 -0.0070494134 -0.007159677 -0.0061075953 -0.013807309 -0.0054309373 -0.008960777 -0.010169734
-0.0023024932 -0.0034590575 -0.0061143185 -0.009793999 -0.0060835597 -0.0061174184 -0.0039392263 -0.015363192
-0.0074734297 -0.009327466 -0.008472738 -0.011540281 -0.0014389257 -0.004674044 -0.007051075 -0.0064384644
-0.011847861 -0.0051338268 -0.007373033 -0.011963453 -0.00766718 -0.011532006 -0.010855027 -0.008544353
-0.009407895 -0.0026116231 -0.0031397743 -0.0068109487 -0.007186269 -0.010638536 -0.007452067 0.0013541129
-0.010648477 -0.013791502 -0.01551213 -0.01571245 -0.0071488763 -0.0046187467 -0.008626401 -0.004028316
-0.018367054 -0.01078535 0.0032184226 -0.011520913 -0.009622252 -0.017653076 -0.022219943 -0.020523624
0.017870491 0.002882469 0.0038712074 0.0043261256 0.0003258116 -0.009608915 -0.0027728218 -0.007760928
-0.0020393056 -0.008853588 -0.013164343 -0.013355971 0.005516186 -0.00039359287 -0.0105465045 -0.007896887
-0.00956242 -0.004932788 -0.0017930691 0.00068642583 -0.008353951 -0.010577533 -0.010178258 -0.009529267
-0.007255416 -0.0051156487 0.0015646586 -0.008789092 -0.007884068 -0.011979005 -0.0039050777 -0.004612575

Linear.bias f4 [96]
00000000: 36b1 9dba 0fad a0ba 1095 26bb 64eb 6dbb
00000010: e87e 74bb 2801 98bb 74ff 9ebb 6f7e b7bb
00000020: eed5 b2bb baf4 c5bb a915 dbbb eb0a dcbb
00000030: 1428 e1bb 8ab8 ecbb f14e fdbb 2024 f8bb
00000040: 4446 0abc d1bc 0cbc 772b 15bc c93d 17bc
00000050: 04f8 1dbc 64bc 21bc a895 27bc f818 2dbc
00000060: a848 2fbc b0ac 36bc 2d49 38bc 6531 3fbc
00000070: 93d4 45bc e5fe 44bc 25cf 53bc 2505 55bc
00000080: fe14 5bbc 3ee3 66bc 8dd5 67bc 0eb2 6dbc
00000090: 446d 73bc 4aef 75bc b3fd 7abc 7f21 81bc
000000a0: 2bba 80bc 714a 82bc b1cb 7fbc d670 7ebc
000000b0: 2ffc 82bc ce4c 83bc 8f4c 85bc ba46 87bc
000000c0: 86bd 85bc 92d8 87bc b0ab 89bc 48bf 8dbc
000000d0: 53cf 91bc 3a74 92bc 9ace 95bc 5f27 98bc
000000e0: d61f 9bbc 1b41 99bc 334a 9ebc 10e7 a1bc
000000f0: 416c a4bc f705 a6bc 0272 a8bc 07a5 a7bc
00000100: fbfb a8bc c17e acbc 77ae b0bc ae69 afbc
00000110: 39dd b2bc 7280 b0bc f47b b2bc f21f b5bc
00000120: ac01 b6bc ef71 b7bc 158b babc 0f96 b9bc
00000130: 1f05 b8bc 6c74 bbbc ed2b bbbc eda0 bebc
00000140: 370a bfbc e6e5 c1bc f263 c4bc 7505 c8bc
00000150: b83b c7bc 2ed4 ccbc cb7e cdbc afde cbbc
00000160: 9b30 ccbc a1c8 cebc fa3f d4bc e890 d1bc
00000170: 427e d0bc 2485 d2bc 418b cfbc 3b5b d2bc
-0.0012030962 -0.0012258607 -0.0025418438 -0.0036303634 -0.0037307087 -0.0046388097 -0.0048522297 -0.005599789
-0.0054576313 -0.0060411366 -0.0066859317 -0.0067151687 -0.0068712328 -0.007224147 -0.007730358 -0.007572666
-0.008439604 -0.008589939 -0.009104601 -0.009231039 -0.009641651 -0.009871576 -0.010228552 -0.010565035
-0.010698475 -0.01114957 -0.011247915 -0.011669491 -0.012074607 -0.012023662 -0.012927805 -0.013001715
-0.013371704 -0.014092265 -0.014150036 -0.014507784 -0.014857594 -0.015010664 -0.015319276 -0.015763042
-0.015713772 -0.015904637 -0.015612529 -0.015529832 -0.015989391 -0.016027834 -0.016271858 -0.016513217
-0.016325723 -0.016582761 -0.0168055 -0.017303124 -0.017799055 -0.017877687 -0.018286992 -0.018573461
-0.018936079 -0.018707803 -0.01932249 -0.0197635 -0.02007115 -0.020266516 -0.020562176 -0.020464433
-0.020627966 -0.021056535 -0.021567566 -0.021412697 -0.021834003 -0.021545622 -0.021787621 -0.02210996
-0.022217594 -0.022393195 -0.022771398 -0.022654561 -0.02246338 -0.022882663 -0.022848094 -0.023270095
-0.0233203 -0.023669194 -0.023973439 -0.024416665 -0.024320468 -0.025003519 -0.025084874 -0.024886457
-0.02492552 -0.025242152 -0.025909413 -0.025581792 -0.02545083 -0.025698252 -0.025334956 -0.025678268
