weights/linear_freq_weights/RLinear_horizon96_lookback512_cycle_365/checkpoint.pth (torch, 198570 bytes, 2 tensors)

Linear.weight f4 [96, 512]
-0.0062012356 -0.0019088328 -0.011811676 -0.0059881206 -0.005559486 -0.0048363935 -0.0073414557 -0.008648519
-0.002711431 -0.013333026 -8.068876e-05 -0.010984654 -0.00045078382 -0.013135929 0.0018639968 -0.010466686
-0.007840972 -0.0060045063 -0.0057310155 -0.008122465 -0.0035715674 -0.009587339 -0.006050676 -0.009013985
-0.0016538012 -0.00816857 -0.0057110717 -0.008066578 -0.0027902045 -0.008035774 -0.005039085 -0.008782451
-0.0023851122 -0.013452845 -0.003775971 -0.0068253577 -0.005497012 -0.0038411953 -0.010638465 -0.004231456
-0.008210031 -0.007539706 -0.0011499241 -0.011710219 -0.0045433873 -0.009284924 -0.00031703283 -0.019072643
0.007746306 -0.00935053 -0.003979461 -0.009762538 -0.0058279005 -0.010296177 -0.0035461714 -0.011006074
0.0028931114 -0.013648816 -0.004833136 -0.008415819 -0.0036912065 -0.0049667917 -0.0099392235 -0.0033408978
-0.0062836763 -0.008398644 -0.0061312714 -0.0071512815 -0.010207791 -0.0026647255 -0.008232006 -0.0027232866
-0.008422247 -0.0060621654 -0.0034423957 -0.012446288 0.00042096994 -0.009580362 -0.00917902 0.0027496796
-0.016392685 -0.0021277512 -0.009858535 -0.005672864 -0.0035878643 -0.011091711 -0.0050246636 -0.0031701995
-0.007363247 -0.002379998 -0.010203547 -0.0035394533 -0.008188615 -0.0035458938 -0.009135134 -0.004328998
-0.010728011 -0.0074250046 -0.0025572425 -0.007788413 -0.0134001495 -0.0030526593 -0.00473415 -0.0044844425
-0.010038805 -0.001831383 -0.00947739 -0.0061811158 -0.010004221 -0.0029567403 -0.011261996 -0.0051350314
-0.0034455068 -0.012107085 -0.0040136874 -0.011470998 -0.0049880985 -0.0048528076 -0.009574031 0.0025788343
-0.012062293 -0.0031793376 -0.0065746717 -0.012049455 -0.005973074 -0.0021040312 -0.00832507 -0.0016412595
-0.013265275 -0.003949559 -0.009945874 -0.018384341 -0.00020613057 -0.011761034 -0.004065466 -0.00460974
-0.0051216036 -0.009806974 -0.00966104 -0.011192162 -0.0014150409 -0.0018035026 -0.014279152 -0.007550587
-0.013603076 -0.01055646 -0.01849188 0.011396813 -0.002282321 -0.0019965917 -0.0037695044 -0.0025199754
0.0059518665 -0.011162876 -0.00591449 -0.0061975503 -0.005561307 -0.005822161 -0.0006232908 -0.0072997836
-0.008919957 -0.012877339 0.0004898212 0.00017802058 -0.0006759633 -0.011322168 -0.004937575 -0.010168778
-0.0061307163 -0.0054847053 0.0012280117 -0.004068613 -0.005198645 -0.007162455 -0.014060901 0.0023716593
-0.011057261 -0.008865861 -0.006634904 0.0022689889 -0.014436585 -0.0024804708 -0.005910559 -0.009825587
-0.00040436094 -0.011215438 -0.0028149658 -0.013302436 0.00015764018 -0.004133035 -0.012372227 -0.006075894
-0.0084214145 -0.0030490372 -0.005265184 -0.004270026 -0.007440239 -0.005021501 -0.0016024157 -0.014272608
-0.0049083624 -0.009349736 -0.0046187895 -0.008895958 -0.0015358198 -0.013715472 -0.0038479245 -0.008020165
-0.0018530965 -0.0073151514 -0.0021705914 -0.008029026 -0.008935746 -0.0029809289 -0.0069896 -0.007576754
-0.004846745 -0.010045102 -0.007517907 -0.0059328345 -0.00705509 -0.0030859502 -0.006678059 -0.0045999414
-0.0066756774 -0.004848474 -0.0043187886 -0.009243345 -0.005041383 -0.010840099 -0.004894381 -0.0056956345
-0.0063951 -0.0047549056 -0.006716782 -0.0069417073 -0.009568716 -0.010924978 0.0010254086 -0.0071188626
-0.007176774 -0.0029662212 -0.014223101 -0.00068644184 -0.004686056 -0.008941712 -0.008492105 -0.0028051487
-0.007926465 -0.0057754284 -0.009323111 -0.0015713309 -0.012097037 -0.0032063327 -0.0042838 -0.006604104
00000000: bc33 cbbb cd31 faba c385 41bc ff37 c4bb
00000010: 592c b6bb 9c7a 9ebb 9890 f0bb 85b2 0dbc
00000020: 43b2 31bb c472 5abc 7337 a9b8 faf8 33bc
00000030: 2e57 ecb9 1438 57bc 5b51 f43a 777c 2bbc
00000040: 6c77 00bc 73c1 c4bb 3ecb bbbb 1614 05bc
00000050: f510 6abb 3714 1dbc c044 c6bb 65af 13bc
00000060: 5cc4 d8ba 77d5 05bc f123 bbbb ae29 04bc
00000070: dddb 36bb 7ba8 03bc e91e a5bb 45e4 0fbc
00000080: 8b4f 1cbb 5269 5cbc 4876 77bb 40a7 dfbb
00000090: 4720 b4bb 90bc 7bbb f54c 2ebc 07a8 8abb
000000a0: 5e83 06bc a30f f7bb 0db9 96ba 38dc 3fbc
000000b0: b2e0 94bb cb1f 18bc 6d37 a6b9 3b3e 9cbc
000000c0: b9d4 fd3b f732 19bc 2366 82bb 0df3 1fbc
000000d0: f9f7 bebb 4cb1 28bc e266 68bb d252 34bc
000000e0: 5b9a 3d3b 499f 5fbc 495f 9ebb 81e2 09bc
000000f0: 2be8 71bb 78c0 a2bb 20d8 22bc f7f2 5abb
00000100: 4ce7 cdbb 779a 09bc d5e8 c8bb 4c55 eabb
00000110: 943e 27bc ada2 2ebb 89df 06bc 2b79 32bb
00000120: 77fd 09bc 21a5 c6bb d199 61bb 84eb 4bbc
00000130: a1b5 dc39 f3f6 1cbc 9a63 16bc f833 343b
00000140: f449 86bc be71 0bbb b185 21bc 6fe3 b9bb
00000150: 6022 6bbb 02ba 35bc efa5 a4bb 1fc3 4fbb
00000160: 6547 f1bb bef9 1bbb c72c 27bc 2cf6 67bb
00000170: 8a29 06bc 3a62 68bb 87ab 15bc 44da 8dbb
00000180: 8ac4 2fbc 744d f3bb 6997 27bb f235 ffbb
00000190: 4d8c 5bbc 200f 48bb ee20 9bbb 3bf2 92bb
000001a0: cd79 24bc 040b f0ba 0e47 1bbc f58a cabb
000001b0: bfe8 23bc dfc5 41bb 3c84 38bc c443 a8bb
000001c0: 03ce 61bb cc5c 46bc 4085 83bb daf0 3bbc
000001d0: 3473 a3bb 4d04 9fbb 66dc 1cbc a901 293b
000001e0: eca0 45bc 6f5c 50bb 5870 d7bb 146b 45bc
000001f0: c7b9 c3bb c9e3 09bb e065 08bc 881f d7ba
00000200: 9956 59bc 4d6b 81bb 05f4 22bc c29a 96bc
00000210: c124 58b9 5ab1 40bc 9a37 85bb 4d0d 97bb
00000220: 20d3 a7bb 6ead 20bc 5749 1ebc 545f 37bc
00000230: e578 b9ba 8163 ecba 1bf3 69bc ea6a f7bb
00000240: 70df 5ebc 01f5 2cbc 487c 97bc b3b9 3a3c
00000250: fe92 15bb 40d9 02bb ca09 77bb 2c26 25bb
00000260: e007 c33b 7fe4 36bc 57ce c1bb d214 cbbb
00000270: a03b b6bb d4c7 bebb 5664 23ba 0633 efbb
00000280: 0325 12bc 79fb 52bc 5867 003a 09ab 3a39
00000290: 2133 31ba 9d80 39bc 62cb a1bb f29a 26bc
000002a0: 2de4 c8bb 0bb9 b3bb 3cf5 a03a 0052 85bb
000002b0: 6559 aabb 07b3 eabb b15f 66bc d76d 1b3b
000002c0: 8429 35bc 1e42 11bc 9c69 d9bb 51b3 143b
000002d0: 6d87 6cbc 658f 22bb 5dad c1bb 80fb 20bc
000002e0: 6800 d4b9 f5c0 37bc 4a7b 38bb 76f2 59bc
000002f0: 374c 2539 696e 87bb e2b4 4abc 4b18 c7bb
00000300: f9f9 09bc 5bd2 47bb 9187 acbb 93eb 8bbb
00000310: 40cd f3bb 678b a4bb 2608 d2ba a8d7 69bc
00000320: 54d6 a0bb a32f 19bc 3759 97bb 5ac0 11bc
00000330: 904d c9ba dcb6 60bc 762d 7cbb 0367 03bc
00000340: 9ae3 f2ba f0b3 efbb 7b40 0ebb 2d8c 03bc
00000350: 3c67 12bc b05b 43bb 0409 e5bb 6b46 f8bb
00000360: 72d1 9ebb 3694 24bc c658 f6bb 3968 c2bb
00000370: 622e e7bb a73d 4abb 9fd3 dabb 1bbb 96bb
00000380: a4bf dabb f3df 9ebb a084 8dbb 6671 17bc
00000390: 3032 a5bb ac9a 31bc 0b61 a0bb 72a2 babb
000003a0: fd8d d1bb 0acf 9bbb 7418 dcbb 4377 e3bb
000003b0: 1bc6 1cbc aefe 32bc 0167 863a 5945 e9bb
000003c0: 252b ebbb ef64 42bb 0208 69bc 55f2 33ba
000003d0: 7d8d 99bb 4280 12bc 7822 0bbc 96d6 37bb
000003e0: 01de 01bc ce3f bdbb f6bf 18bc 1ef5 cdba
000003f0: a732 46bc 5621 52bb 1e5f 8cbb 3d67 d8bb

Linear.bias f4 [96]
-0.00092069886 -0.0021427618 -0.0029279175 -0.003686525 -0.004487313 -0.0052101323 -0.005814059 -0.0066732196
-0.0071319602 -0.007916725 -0.008689285 -0.009233422 -0.009516196 -0.009751662 -0.009852133 -0.010032727
-0.010197815 -0.010660152 -0.010805114 -0.011044564 -0.011196464 -0.01191584 -0.011959468 -0.012431496
-0.012945619 -0.013401113 -0.013640024 -0.014012091 -0.014207713 -0.014484758 -0.0148232225 -0.014846412
-0.01550379 -0.016219364 -0.016594304 -0.016689342 -0.016768048 -0.016974466 -0.01691646 -0.016964676
-0.017253676 -0.017105885 -0.01685042 -0.016783217 -0.017059334 -0.017594853 -0.017655207 -0.017921941
-0.018011969 -0.01787513 -0.01806153 -0.018212428 -0.018498851 -0.01894427 -0.018822923 -0.019212097
-0.019494744 -0.019912828 -0.020265518 -0.020944498 -0.021119408 -0.021527635 -0.021771988 -0.022103794
-0.02271425 -0.022858674 -0.023153326 -0.023512889 -0.023537187 -0.023981974 -0.023826517 -0.024041632
-0.024344252 -0.024591828 -0.024485908 -0.024588877 -0.024599709 -0.024682237 -0.024166116 -0.024437698
-0.024554508 -0.024429237 -0.023993967 -0.02448987 -0.024964554 -0.02505713 -0.024923367 -0.025357828
-0.025480108 -0.025344506 -0.025118504 -0.02517426 -0.025425462 -0.025567103 -0.025604941 -0.025642311
00000000: 0e5b 71ba 946d 0cbb 4ee2 3fbb a099 71bb
00000010: 4f0a 93bb c2b9 aabb dd83 bebb 06ab dabb
00000020: 38b3 e9bb 27b5 01bc 815d 0ebc c747 17bc
00000030: d2e9 1bbc 6fc5 1fbc d76a 21bc 4f60 24bc
00000040: bc14 27bc eba7 2ebc ef07 31bc 42f4 34bc
00000050: 6071 37bc a83a 43bc a5f1 43bc 79ad 4bbc
00000060: dd19 54bc 5890 5bbc 687a 5fbc f892 65bc
00000070: 78c7 68bc 7a51 6dbc 1add 72bc 5e3e 73bc
00000080: 9c03 7ebc 79de 84bc c7f0 87bc 16b8 88bc
00000090: 255d 89bc 090e 8bbc 6394 8abc 81f9 8abc
000000a0: 9557 8dbc a421 8cbc e409 8abc f57c 89bc
000000b0: 04c0 8bbc 1523 90bc a7a1 90bc 09d1 92bc
000000c0: d68d 93bc dd6e 92bc c6f5 93bc 3b32 95bc
000000d0: e78a 97bc 0431 9bbc 8832 9abc b062 9dbc
000000e0: 71b3 9fbc 3a20 a3bc df03 a6bc cc93 abbc
000000f0: 9c02 adbc b95a b0bc 2b5b b2bc 0413 b5bc
00000100: 3c13 babc 1d42 bbbc 0bac bdbc 1a9e c0bc
00000110: 0fd1 c0bc d875 c4bc d42f c3bc f5f2 c4bc
00000120: 996d c7bc cd74 c9bc ac96 c8bc 9d6e c9bc
00000130: 5485 c9bc 6732 cabc 05f8 c5bc 9131 c8bc
00000140: 8926 c9bc d31f c8bc ff8e c4bc fb9e c8bc
00000150: 7782 ccbc 9c44 cdbc 172c ccbc 38bb cfbc
00000160: a9bb d0bc 489f cfbc 52c5 cdbc 403a cebc
00000170: 0f49 d0bc 1a72 d1bc 74c1 d1bc d30f d2bc
