weights/linear_freq_weights/RLinear_horizon96_lookback512_cycle_512/checkpoint.pth (torch, 198570 bytes, 2 tensors)

Linear.weight f4 [96, 512]
0	0xbc77b782	-0.015119435
1	0xb943e64d	-0.00018682443
2	0x3a8866fa	0.0010406666
3	0xbc39ba46	-0.011335915
4	0xbbb85086	-0.0056248335
5	0x38aeecc1	8.3410654e-05
6	0xbc312a72	-0.010813342
7	0x3ba97db8	0.0051724575
8	0xbc510447	-0.012757367
9	0xbc297eb9	-0.010345154
10	0x3c6c1031	0.014408157
11	0xbce9abab	-0.02852424
12	0x3c9631e1	0.018334331
13	0xbcc55b8c	-0.024091505
14	0x3bc66093	0.006053993
15	0xbc459dc2	-0.012061538
16	0x3a95cb35	0.0011428358
17	0xbc51f4c8	-0.012814708
18	0xbb273a36	-0.0025516874
19	0xbc0bb9f4	-0.008528221
20	0x3aa790ac	0.0012784204
21	0xbccc3dc5	-0.024931798
22	0x3ca157ff	0.01969528
23	0xbc49351a	-0.012280727
24	0xbab9badb	-0.0014170067
25	0xbc808e43	-0.015692836
26	0x3c64e9ff	0.013971805
27	0xbcb7a7df	-0.022418914
28	0xbb3c0c38	-0.0028693806
29	0xbc0b4652	-0.008500652
30	0x3aca871a	0.001545164
31	0xbc103ad2	-0.008803086
32	0x3b1462bd	0.002264186
33	0xbc6541e8	-0.013992764
34	0xba4ab600	-0.00077328086
35	0x3bdaa166	0.006672072
36	0xbc985615	-0.018595735
37	0xbb850333	-0.0040592193
38	0xba7a3405	-0.00095444947
39	0xbc065c31	-0.008200691
40	0xbb936dbf	-0.0044991667
41	0xbc2e7c4e	-0.010649754
42	0x3b777bd2	0.0037763012
43	0xbc81a1d1	-0.01582423
44	0x3ae75bf8	0.001765131
45	0xbc0af61b	-0.008481528
46	0x3c394637	0.011308244
47	0xbcde17c8	-0.02711095
48	0x3c211c63	0.009833428
49	0xbc926f1a	-0.017875243
50	0x3a7f66d1	0.0009742799
51	0xbb8cf567	-0.004301715
52	0xbbc4a73e	-0.006001382
53	0xbc2d9cd7	-0.010596476
54	0x3aea561d	0.0017878447
55	0xbc38e9d9	-0.011286222
56	0x3aa48ff5	0.001255511
57	0xbc6674f0	-0.014065966
58	0x3b2aac42	0.0026042615
59	0xbb9bc190	-0.004753299
60	0xbc71d320	-0.014759809
61	0xba4f7cce	-0.00079150207
62	0xbb80200d	-0.0039100708
63	0xbc49b882	-0.0123120565
64	0x3b86970c	0.0041073617
65	0xbc90885b	-0.017643144
66	0x3be63437	0.0070252675
67	0xbbb2ffdf	-0.005462631
68	0xbbf38206	-0.0074312715
69	0x3975a165	0.00023425145
70	0xbc699f07	-0.0142591065
71	0x3bf4fd62	0.0074764946
72	0xbc942571	-0.01808426
73	0xba04a41e	-0.0005059856
74	0xbb3aa587	-0.002848001
75	0xbc64b30b	-0.013958703
76	0x3c21f291	0.0098844925
77	0xbc6487a1	-0.013948352
78	0xbc99432d	-0.01870879
79	0x3c801ec8	0.015639678
80	0xbc6a6ffc	-0.014308926
81	0xbc0a0641	-0.008424343
82	0xbbc39ccf	-0.005969621
83	0xbbb89cde	-0.0056339344
84	0xbaf3109a	-0.0018544376
85	0xbc174240	-0.009232104
86	0xbad764e3	-0.0016433265
87	0xbbbdeae9	-0.0057958257
88	0xbb9f51d9	-0.004862052
89	0x3a3a1ae8	0.0007099346
90	0xbc8e4a80	-0.017369509
91	0x3a0b5882	0.0005315618
92	0xbb8b1bb3	-0.0042452454
93	0xbbbc9382	-0.005754889
94	0xbc072a56	-0.00824984
95	0xba52716b	-0.0008027765
96	0xbc29498f	-0.010332479
97	0xbb20dd36	-0.0024545914
98	0xbb9a0f2e	-0.0047015166
99	0xbc77f826	-0.015134847
100	0x3a8c4854	0.0010702708
101	0x3ad4cfcc	0.0016236245
102	0xbc976c55	-0.018484274
103	0xb9a90234	-0.00032235833
104	0xbb16d7ee	-0.0023016888
105	0xbbbd1e0f	-0.0057714055
106	0xbafdb7a0	-0.0019357093
107	0xbc1d0fcf	-0.009586289
108	0xbb04866f	-0.002022173
109	0xbba62c78	-0.005071219
110	0xbbb50e72	-0.0055254037
111	0xbbbcdfe8	-0.0057639964
112	0xbb51a0df	-0.0031986756
113	0xbc4744de	-0.012162415
114	0x3bd30bf8	0.006440636
115	0xbcd2bfa8	-0.025726154
116	0x3c312143	0.010811153
117	0xbbb70bb0	-0.00558611
118	0xbc414064	-0.011795137
119	0xba75ecd0	-0.0009381296
120	0xbc1176b6	-0.008878401
121	0x3b82e21a	0.0039942386
122	0xbc9410a1	-0.018074336
123	0x3bce02e8	0.0062869675
124	0xbc9da929	-0.0192457
125	0x3bc9e1ea	0.0061609643
126	0xbc9bbfb9	-0.019012319
127	0x3b889a9c	0.0041688215
128	0xbba110c5	-0.004915329
129	0xbbe592c7	-0.0070060226
130	0xbbddf2c1	-0.0067733233
131	0x3b394e84	0.0028275559
132	0xbc4eb2c1	-0.01261586
133	0xbc141084	-0.009037141
134	0x3bbb8a35	0.0057232627
135	0xbc8b42b9	-0.01699959
136	0x3a40dc07	0.00073570054
137	0xbbdc933f	-0.0067314203
138	0xbc0c5dc8	-0.008567281
139	0xbb079cc2	-0.00206928
140	0xbb90049c	-0.0043950807
141	0xbc0796c6	-0.008275693
142	0xbb344a93	-0.002751027
143	0xbc0bc90a	-0.008531818
144	0xbb8ba05d	-0.00426106
145	0xbb460a2c	-0.0030218465
146	0xbc311dd1	-0.010810331
147	0xbb8c506c	-0.004282048
148	0xbba5f1a8	-0.005064208
149	0xbba00836	-0.0048837913
150	0xbba94bb8	-0.005166497
151	0xbc057a58	-0.008146845
152	0x3b4562a4	0.003011861
153	0xbc140004	-0.009033207
154	0xbbaa1ba9	-0.0051912856
155	0xbc09610d	-0.008384955
156	0x3b686277	0.003545908
157	0xbc52bfd5	-0.012863119
158	0xbbb0ab7e	-0.005391537
159	0xbbbcf7f7	-0.0057668644
160	0xbb814239	-0.003944662
161	0xbbd8d253	-0.0066168695
162	0x3b8dd069	0.004327823
163	0xbc88e65e	-0.01671141
164	0xbb1fae0e	-0.002436522
165	0xbba2f19a	-0.004972649
166	0xbb3ed53e	-0.0029118801
167	0xbc400520	-0.011719972
168	0x39da6a6f	0.000416595
169	0xbbd636c6	-0.006537291
170	0xbc5046aa	-0.01271216
171	0x3ae1cb0a	0.0017226648
172	0xbb8fcb86	-0.0043882756
173	0xbbb78d3d	-0.0056015537
174	0xbbee37ae	-0.007269821
175	0xb9559834	-0.00020369963
176	0xbc62c3cf	-0.01384063
177	0x3b9c5ba4	0.0047716666
178	0xbc674e1d	-0.014117745
179	0x3a265318	0.00063447794
180	0xbc0690c3	-0.008213225
181	0xba678dbf	-0.00088330725
182	0xbbd75f15	-0.006572614
183	0xbc359aae	-0.011084242
184	0x3bc0d0bd	0.0058842585
185	0xbc637e23	-0.013885054
186	0x3b05c5e0	0.0020412132
187	0xbc5d70c5	-0.013515656
188	0xbab12f6c	-0.0013518161
189	0xbc1f45bb	-0.009721215
190	0xbc4203c5	-0.011841719
191	0x3abd7bb3	0.0014456421
192	0xbc047b84	-0.008086089
193	0x3a9e68a8	0.0012085633
194	0xbc51281d	-0.012765911
195	0x39abbd2f	0.00032756614
196	0xbb117580	-0.002219528
197	0xbc959be1	-0.018262805
198	0x3c27018a	0.010193238
199	0xbc9aaccb	-0.018881222
200	0x3bc63022	0.0060482183
201	0xbc6b0088	-0.014343388
202	0x3ab941ad	0.0014133953
203	0xbc667e03	-0.0140681295
204	0x3c1ba30c	0.009499323
205	0xbc84f315	-0.016229192
206	0xbb7cbaf2	-0.0038563577
207	0xbb3c6e16	-0.002875214
208	0x3b1596e2	0.002282553
209	0xbccbfdd3	-0.024901306
210	0x3ba5fc6b	0.005065491
211	0xbb3efb84	-0.0029141614
212	0xbc67bed4	-0.014144618
213	0xbabf9983	-0.0014617894
214	0xbaa0844e	-0.0012246461
215	0xbba81637	-0.0051296013
216	0xbbfebfe8	-0.007774342
217	0xbc4b91b4	-0.012424875
218	0x3c1ca911	0.009561793
219	0xbcad7245	-0.021172652
220	0x3c21f3b3	0.009884763
221	0xbc82ccd2	-0.015966807
222	0xbc150113	-0.009094494
223	0x3bb7b4bd	0.0056062625
224	0xbc06b6cf	-0.008222296
225	0xbc3ba26b	-0.011452298
226	0x3b7b786a	0.0038371333
227	0xbc663577	-0.014050833
228	0x3b8d1c76	0.0043063713
229	0xbc5d9596	-0.013524434
230	0xb9983fe2	-0.00029039296
231	0xbbff1e81	-0.007785619
232	0xbbac3bf0	-0.0052561685
233	0xbc01587e	-0.007894633
234	0x3ab53328	0.001382445
235	0xbc1d2b33	-0.009592819
236	0xbb15c123	-0.0022850714
237	0xbc11fd37	-0.008910469
238	0x3af7a572	0.0018893911
239	0xbc5e4ef5	-0.0135686295
240	0xbb9bca7b	-0.004754362
241	0x3adcc4f3	0.0016843363
242	0xbc377b8c	-0.011198889
243	0xbbf0c1ab	-0.007347306
244	0xbb901838	-0.0043974183
245	0x3aa8bb9a	0.0012873292
246	0xbc4ca05a	-0.012489403
247	0xb9b44fbf	-0.0003439169
248	0xbc049bbb	-0.00809377
249	0xba4d4f4f	-0.00078319473
250	0xbc4bb4e7	-0.012433267
251	0x3b18d2a4	0.002331891
252	0xbc81ce4a	-0.015845437
253	0x38c73ba3	9.500168e-05
254	0xb99a0aeb	-0.00029381303
255	0xbc815ed2	-0.015792284

Linear.bias f4 [96]
0	0xb88272ea	-6.2202875e-05
1	0xba7cc074	-0.0009641715
2	0xbafa9773	-0.0019118622
3	0xbb24561f	-0.0025075746
4	0xbb3f467c	-0.00291863
5	0xbb4bb99f	-0.003108598
6	0xbb6646e0	-0.003513746
7	0xbb80a338	-0.003925707
8	0xbb8ed167	-0.004358459
9	0xbba39ea9	-0.004993279
10	0xbba86aa3	-0.005139665
11	0xbbae05e5	-0.0053107613
12	0xbbc3bc83	-0.0059734
13	0xbbcea249	-0.006305967
14	0xbbc3a26c	-0.00597029
15	0xbbce8a06	-0.006303075
16	0xbbdf4a9a	-0.006814313
17	0xbbde3b16	-0.006781946
18	0xbbe00032	-0.006835961
19	0xbbe7950f	-0.0070673297
20	0xbbf580f7	-0.0074921804
21	0xbc029439	-0.007969909
22	0xbc04fcdf	-0.00811693
23	0xbc068dbf	-0.008212506
24	0xbc0bd0f2	-0.008533703
25	0xbc0ec44a	-0.008713791
26	0xbc129b1a	-0.008948112
27	0xbc1983a3	-0.009369764
28	0xbc22fc14	-0.009947795
29	0xbc276ba2	-0.010218533
30	0xbc27595c	-0.010214176
31	0xbc2d4c83	-0.010577324
32	0xbc32bd89	-0.0109094465
33	0xbc30e6b6	-0.010797193
34	0xbc2fac27	-0.010722197
35	0xbc348c2e	-0.01101975
36	0xbc34a081	-0.011024595
37	0xbc3520da	-0.011055196
38	0xbc3a43f8	-0.011368744
39	0xbc3cec8c	-0.011531007
40	0xbc41c40e	-0.011826528
41	0xbc481798	-0.012212656
42	0xbc4656bc	-0.01210564
43	0xbc463543	-0.0120976595
44	0xbc479675	-0.012181868
45	0xbc472dae	-0.012156887
46	0xbc45705b	-0.012050713
47	0xbc47b73d	-0.0121896835
48	0xbc4bc0b7	-0.0124360835
49	0xbc4fa3f8	-0.012673371
50	0xbc50e8c8	-0.012750812
51	0xbc5579cc	-0.013029527
52	0xbc5af004	-0.013362888
53	0xbc5c7d49	-0.013457605
54	0xbc5d0876	-0.013490787
55	0xbc5d0542	-0.013490023
56	0xbc61ed9f	-0.013789563
57	0xbc688299	-0.014191293
58	0xbc70144b	-0.014653276
59	0xbc726c21	-0.014796288
60	0xbc726dd7	-0.014796696
61	0xbc748d31	-0.014926241
62	0xbc78ff65	-0.01519761
63	0xbc7c5d7c	-0.015403148
64	0xbc7d9a88	-0.015478738
65	0xbc7d62a4	-0.015465412
66	0xbc7e7c83	-0.015532616
67	0xbc7f7229	-0.015591183
68	0xbc811afd	-0.01575994
69	0xbc82b9a2	-0.015957657
70	0xbc82ae4f	-0.015952257
71	0xbc83512c	-0.016029917
72	0xbc8171b0	-0.01580128
73	0xbc7e23b7	-0.015511445
74	0xbc82e159	-0.015976595
75	0xbc86320e	-0.01638129
76	0xbc883c79	-0.016630398
77	0xbc8a380f	-0.016872434
78	0xbc8aa4cc	-0.016924284
79	0xbc8abbd6	-0.01693527
80	0xbc8af8ae	-0.016964283
81	0xbc8b75ff	-0.017024038
82	0xbc8c4ecd	-0.017127419
83	0xbc8bd94b	-0.017071387
84	0xbc8d22e2	-0.017228547
85	0xbc8ea63b	-0.01741325
86	0xbc91e170	-0.017807692
87	0xbc95b9a6	-0.018277
88	0xbc97ae30	-0.018515676
89	0xbc991cc7	-0.01869048
90	0xbc9a084d	-0.018802786
91	0xbc9b55f1	-0.018961878
92	0xbc9ad778	-0.018901572
93	0xbc9a2951	-0.01881853
94	0xbc9aafac	-0.018882595
95	0xbc9b1375	-0.018930176
