weights/linear_freq_weights/RLinear_horizon96_lookback512_cycle_104/checkpoint.pth (torch, 198570 bytes, 2 tensors)

Linear.weight f4 [96, 512]
00000000: 92df 77bb 120f a03b 9f84 6dbc 0ccd 90bb
00000010: 9936 1ab9 14f1 89bc e66b 4a39 5178 2cb9
00000020: 0baa 5abc 9497 c0bb 3b50 34bc b77b 8abb
00000030: b797 83bb 321e 04bc 7615 8abb a602 4fbc
00000040: d472 4dbb 3833 dbbb e48f c2ba 7257 44bc
00000050: 6acf cdbb b21d ddbb 37c8 87bb 8535 31bc
00000060: a6eb b8bb 7e87 e5bb 7f61 16bc adb1 03bc
00000070: 55cc 67bb 05b4 c0bb ab65 24bc 345d a5bb
00000080: 16e2 30bc 3a5b 6abb 08e4 8cbb 1175 e4bb
00000090: 6f32 e5bb a6d4 ecbb 8c44 fdbb 7659 8abc
000000a0: edc5 e13a dff2 cfbb f09d d5bb 43df 0dbc
000000b0: c24d cdba 4024 47bc f8a3 09bc 5c71 90bb
000000c0: b3ae c2bb e9bd cdbb e755 14bc 31e0 c3bb
000000d0: fbcb 38bc cc05 c0bb 38c8 a4bb 7e0f 2bbb
000000e0: c690 42bc 632d 64bb b332 bcbb 71d2 f7bb
000000f0: 238b 1cbc 73a5 00bc d186 cfbb 4fd0 04bb
00000100: dd7a 38bc 1696 10bc a4f9 31bb b914 02bc
00000110: d2fc 94bb 086d f5bb 7121 64bb f7ac 12bc
00000120: 9013 25bc 14e1 25bc e198 05bc a057 59bb
00000130: 6a3e 31bb 72d5 95bc cad3 6738 bdd1 5bbb
00000140: 7328 eaba 2205 2ebc f95b 60bc 0e4e 3cba
00000150: df97 f5bb fc83 e3ba c59d 1cbc d778 49bc
00000160: e508 8cbb 0fc2 29bc 891d 1bbc 5ea9 c8bc
00000170: e1ac f83b 9678 35bc b5bf a9bc 670b ebbc
00000180: afc7 8d3c de75 9f3c 45f2 c23b e403 5cbb
00000190: f240 5cbc d117 61bb 1a85 17bc 5b86 c3bb
000001a0: e97f 39bc 152a 1cbb fcc5 96bb ca70 03bc
000001b0: 1bf3 95bc 9893 acba a836 2bbc 0d98 033b
000001c0: 5aa0 86bc ab1c aebb 10a2 23ba de43 37bc
000001d0: 3460 dabb 02d6 10bc 35eb 99bb 01a6 d8bb
000001e0: 50bd 32bb ff24 7cbc 09d8 f539 40a4 cebb
000001f0: 3a9d 2abb 9b21 71bc 31bf 24bc fbaa e7bb
00000200: 2e72 9dbb da37 7bbb 364d 0cbc f836 fabb
00000210: 8f56 0bbb 7103 18bc eab7 11bc 0560 9abb
00000220: 4052 19bc dd28 cabb 549a 8cbb 86f3 ebbb
00000230: d18a 4bbb 0942 e4bb 34d4 42bc faf9 0bbb
00000240: 695a ddbb d739 babb 08bf 3ebc a241 6dbb
00000250: b908 debb 295d 37bc 480a e5b9 a56f d3bb
00000260: 43c4 f5bb 2c8a 2abc 44dd 9cbb 6c68 afbb
00000270: 22b4 0fbc 6b70 8ebb aea0 34bc 51b9 0dba
00000280: 0675 febb c3c4 a5bb 67be 35bc b0e8 babb
00000290: 8ca3 d2bb f23b 15bc 1dbd 59bb ae17 27bb
000002a0: af07 dbbb d7f5 e9bb bb42 d1bb b45d ebbb
000002b0: c175 0bbc 19de 26bc fbdb 38ba cc0d 28bc
000002c0: 5eeb d5ba 7bc8 35bc b8f8 44bb d177 b8bb
000002d0: 6999 e7bb 4ead 3cbc a471 87bb abac 04bb
000002e0: aa8d 4dbc f220 ffbb 5250 22bc 9b61 033c
000002f0: 416b 4abc fdf5 1bbc 9fe0 14bc f5b1 3bbb
00000300: 0e68 9bbb 7851 5bbc 3421 80bc db3b 3e3b
00000310: 2470 9dbb 9115 8abc fbad c5bc b124 fcbc
00000320: 6676 203d aca4 2bbb 1807 37bb 45e0 6abc
00000330: 7b7d 75ba ed6a 6e3b b5dd c0bb 4d16 febb
00000340: d5ed 33bc 7f39 c83b 9efe 9bbc 7a96 20bb
00000350: 57da 91bc 8613 a63b 3780 7ebc b2d2 0fbc
00000360: a178 42bc f4ab b33b 10eb 11bc 4fed 0ebc
00000370: 7fdd 3fbc 8b12 a8b9 8c8e 763b e78f 97bc
00000380: a7a9 16bc 70fa 02bb 0134 0639 6125 15bc
00000390: c6f2 1dbc 06fc 55bc 5926 153b 156d cdba
000003a0: 82c9 4cbc 375a 10bc 96a7 9aba cb1c 55bb
000003b0: b657 53bc 3c5c 33ba 70ad 01bc 4a31 c2bb
000003c0: 1737 07bc d92c 9bbb 3e6b 42bc 8d28 03bc
000003d0: a337 a3bb 29dd bfbb 82be cebb 1498 37bc
000003e0: 9fe9 aabb 343d 9abb 8a6f 0ebc 2211 fdbb
000003f0: 632f a23a 3cb8 21bc 4184 ffbb f93f 59bc
-0.0037822467 0.004884609 -0.014496951 -0.0044189747 -0.00014706924 -0.016838588 0.00019304416 -0.0001644802
-0.013346205 -0.0058774445 -0.011005457 -0.0042261737 -0.0040158886 -0.00806384 -0.004213984 -0.012634909
-0.003134896 -0.0066894554 -0.0014843908 -0.011983739 -0.006280829 -0.0067479247 -0.0041437405 -0.010815983
-0.005643326 -0.0070046773 -0.009178518 -0.008037967 -0.0035369594 -0.005880835 -0.010034005 -0.005046511
-0.010796091 -0.0035759942 -0.0042996444 -0.006971963 -0.0069945375 -0.007227498 -0.0077291187 -0.016888361
0.0017225124 -0.006346091 -0.0065190718 -0.008659187 -0.0015663432 -0.012154639 -0.00840091 -0.0044080447
-0.005941236 -0.0062787426 -0.009053684 -0.0059776534 -0.0112791015 -0.005860066 -0.0050287507 -0.0026101763
-0.011875337 -0.0034817092 -0.0057433485 -0.0075629284 -0.009554657 -0.007851946 -0.00633321 -0.0020265763
-0.011259762 -0.008824846 -0.0027156854 -0.007939511 -0.00454674 -0.007489804 -0.0034809972 -0.008952371
-0.010075465 -0.010124464 -0.008154125 -0.00331638 -0.0027045258 -0.018290255 5.5271936e-05 -0.0033541762
-0.0017864838 -0.010621341 -0.013693803 -0.0007183262 -0.007494911 -0.001735806 -0.0095591 -0.012296877
-0.0042735212 -0.010361209 -0.009467491 -0.024494823 0.007588968 -0.011076113 -0.020721296 -0.02869196
0.01730713 0.019465383 0.005949291 -0.0033571655 -0.013443219 -0.003434647 -0.0092480425 -0.005966944
-0.011322 -0.0023828794 -0.0046012383 -0.0080224965 -0.018304398 -0.0013166545 -0.010450043 0.0020079643
-0.016433883 -0.005313476 -0.0006242106 -0.011185614 -0.0066643003 -0.008840086 -0.0046972283 -0.006611586
-0.0027273484 -0.01538968 0.00046891 -0.006306201 -0.0026033656 -0.014717485 -0.010055349 -0.007069943
-0.004804871 -0.003833285 -0.00856333 -0.0076359473 -0.002126131 -0.009278164 -0.008893946 -0.0047111535
-0.009357989 -0.006169422 -0.0042908583 -0.007200661 -0.0031058083 -0.00696588 -0.0118914135 -0.0021358714
-0.0067551625 -0.0056831646 -0.011642225 -0.003620245 -0.006775942 -0.011191645 -0.00043685944 -0.006452518
-0.007500203 -0.010408919 -0.004787119 -0.005353024 -0.008770974 -0.0043468974 -0.011024637 -0.00054063374
-0.007765415 -0.005058856 -0.011092759 -0.005704008 -0.0064281877 -0.00910853 -0.0033224293 -0.0025496292
-0.0066842656 -0.007139902 -0.0063861287 -0.007182801 -0.008511961 -0.010184788 -0.00070518226 -0.010257196
-0.0016320755 -0.011095162 -0.0030055474 -0.0056295176 -0.0070678485 -0.011515928 -0.00413342 -0.002024452
-0.012545982 -0.00778591 -0.009906845 0.008018876 -0.012354673 -0.009519097 -0.009086757 -0.0028640006
-0.004742629 -0.013386123 -0.015640832 0.0029027376 -0.004804628 -0.016855987 -0.024130812 -0.030779215
0.039175414 -0.0026190681 -0.0027927812 -0.014335697 -0.00093647063 0.003637965 -0.0058858045 -0.0077541233
-0.010981997 0.0061103697 -0.01904231 -0.0024503754 -0.017804308 0.0050682453 -0.0155334985 -0.008778261
-0.0118695805 0.005483145 -0.008906141 -0.008723571 -0.011710524 -0.00032057273 0.0037621586 -0.018501235
-0.009195722 -0.0019985698 0.00012798609 -0.00910315 -0.009640401 -0.013060575 0.0022758453 -0.0015672768
-0.012499215 -0.008810571 -0.0011799212 -0.0032518383 -0.01289933 -0.0006842052 -0.007914886 -0.005926286
-0.008252881 -0.004735571 -0.011866389 -0.0080052735 -0.0049809976 -0.0058552218 -0.0063093314 -0.011205692
-0.005215838 -0.004707003 -0.008693585 -0.0077229897 0.0012373741 -0.009870585 -0.0077977483 -0.013259881

Linear.bias f4 [96]
00000000: ea26 80ba 7e3f 04bb 7396 54bb 271f 81bb
00000010: 92ea a3bb f5bc babb fc53 cdbb 7822 d3bb
00000020: 7edc d5bb ebd9 01bc 0021 0abc 0367 07bc
00000030: 0da5 0bbc f43c 15bc c644 21bc e9ae 2fbc
00000040: a231 32bc 157d 39bc 2140 48bc c463 4dbc
00000050: 2ad5 5cbc 2b13 5bbc 2f19 5ebc d8bc 65bc
00000060: 3035 6bbc 2c8c 71bc 09d5 68bc 6692 67bc
00000070: 1678 69bc 1a64 6fbc 2cf3 74bc c44b 78bc
00000080: 58b5 75bc 7a4c 7dbc f9fc 79bc 9b4a 7fbc
00000090: 0773 83bc 9ed4 81bc cb02 83bc 78bc 87bc
000000a0: 64ab 87bc e24f 89bc c8b5 8abc 772c 8cbc
000000b0: 2a6c 8bbc c795 8cbc 5987 8ebc ecd3 8fbc
000000c0: 57c2 8fbc 2c7d 93bc c866 8fbc 7975 8dbc
000000d0: 171a 8abc cf4d 87bc 32af 86bc 41e1 84bc
000000e0: f42d 83bc 2eb7 88bc 1d81 87bc cda6 8dbc
000000f0: 8103 8cbc c07c 8abc 88e9 8ebc 65c5 90bc
00000100: b212 91bc dcad 91bc 92fb 8ebc 3015 91bc
00000110: 02bc 92bc 9447 8fbc 2138 95bc 14da 96bc
00000120: 5bbf 93bc e90c 93bc 69f6 91bc 704a 92bc
00000130: 6b4c 94bc 4fd0 99bc d2a6 97bc 729d 9abc
00000140: 4cf0 9cbc 6623 95bc cbc2 94bc 343c 93bc
00000150: ec19 92bc 9689 91bc 4d3e 91bc 43e5 96bc
00000160: 94fb 8fbc 66fe 8ebc e146 8cbc 7834 8abc
00000170: 0961 8dbc 0206 89bc 8776 8cbc edc9 8bbc
-0.0009777222 -0.0020179446 -0.0032438308 -0.003940481 -0.005002328 -0.005698795 -0.0062661152 -0.006443318
-0.006526529 -0.007925491 -0.008430719 -0.008264306 -0.008523238 -0.009108771 -0.009843057 -0.010722854
-0.010876091 -0.011321326 -0.012222321 -0.012535993 -0.013478557 -0.013371269 -0.013555809 -0.014022075
-0.014355943 -0.014742892 -0.014210948 -0.014134025 -0.014249822 -0.014611268 -0.014950555 -0.015154783
-0.014996849 -0.015460128 -0.015258067 -0.015581752 -0.01604606 -0.015848454 -0.015992543 -0.016569361
-0.016561218 -0.016761724 -0.016932383 -0.017111046 -0.01701935 -0.017161263 -0.017398523 -0.017557107
-0.017548723 -0.018004023 -0.017505065 -0.01726793 -0.016858144 -0.016516594 -0.016440962 -0.01622069
-0.016013123 -0.01668891 -0.016541058 -0.01729145 -0.017091515 -0.016905189 -0.01744534 -0.01767225
-0.01770911 -0.017783098 -0.017453942 -0.017710298 -0.017911915 -0.017490186 -0.01821524 -0.018414535
-0.018035581 -0.017950492 -0.017817693 -0.01785776 -0.018102845 -0.018776087 -0.018512163 -0.018873904
-0.019157551 -0.018205356 -0.01815929 -0.017973043 -0.017834626 -0.017765801 -0.017729903 -0.018419867
-0.017576016 -0.017455291 -0.017123641 -0.016870722 -0.017258184 -0.016726498 -0.017146362 -0.01706406
