weights/linear_freq_weights/RLinear_horizon96_lookback512_cycle_96/checkpoint.pth (torch, 198570 bytes, 2 tensors)

Linear.weight f4 [96, 512]
-0.006926998 -0.010037532 -0.007923596 -0.012181755 -0.0071295705 -0.010713293 -0.006565905 -0.009452599
-0.0064875386 -0.0051376 -0.011206812 -0.0067800027 -0.0062407707 -0.010486866 -0.0007545301 -0.017324174
-0.0023464407 -0.0113697685 -0.013162944 -0.01366897 -0.001093398 -0.008650755 -0.0069909124 -0.0034752863
-0.012627332 -0.008461991 -0.01335513 -0.018833164 -0.011985174 -0.006447325 -0.024580594 -0.036357306
0.039429355 -0.004924541 -0.004684179 -0.0003836603 -0.0032404112 -0.0111340545 -0.0057402253 -0.012046507
0.0014038053 -0.013750631 -0.00735211 -0.005957344 -0.020439079 0.0030146847 -0.0034736341 -0.015758628
-0.005496246 -0.011251136 -0.008078219 -0.0069854124 -0.0095582325 -0.0141766565 -0.008108228 -0.006840371
-0.0005882188 -0.012031195 -0.011231296 -0.007611245 -0.008145818 -0.009687927 -0.005307234 -0.013138757
-0.009215715 -0.0052365847 -0.009312475 -0.009899569 -0.00895904 -0.009504801 -0.008158385 -0.0075326436
-0.00756476 -0.009874034 -0.0074191135 -0.016147833 -0.0032541126 -0.0067935386 -0.008405656 -0.013310062
-0.0066706487 -0.012090237 -0.0063498784 -0.0065169274 -0.006785547 -0.011213217 -0.0072340723 -0.010684373
-0.008410587 -0.012256102 -0.0011581926 -0.012684494 -0.00555245 -0.008950133 -0.0072446237 -0.011351708
-0.00943411 -0.012225101 -0.0031499115 -0.016112702 -0.0048778984 -0.007206499 -0.007784067 -0.0064933114
-0.009514922 -0.013796703 -0.009180986 -0.010019767 -0.010886334 -0.0047758697 -0.008897322 -0.014526171
-0.0003526922 -0.0019916615 -0.011726562 -0.013891968 -0.0031674148 -0.0050546722 -0.005642941 -0.015187258
-0.0062512057 -0.010798493 -0.010587224 -0.022949439 -0.0065334644 0.0052447966 -0.023106748 -0.03173809
0.012629791 0.011232995 0.0024354204 -0.009610926 -0.013756356 -0.0059532765 -0.0021145714 -0.02122927
-0.0049702963 -0.0016617703 -0.012735396 -0.012699258 -0.0058797062 -0.006105155 -0.008020229 -0.018858915
0.0020280494 -0.007951264 -0.008318603 -0.011044142 -0.00427561 -0.010076304 -0.0026596715 -0.014560448
-0.005411794 -0.008280296 -0.008050282 -0.009527389 -0.010186591 -0.0076717944 -0.007384295 -0.011405248
-0.009608435 -0.006451383 -0.007228334 -0.013301167 -0.006001337 -0.010183713 -0.008262789 -0.0070976997
-0.007487041 -0.009673129 -0.011583507 -0.012247947 -0.0044676545 -0.007145361 -0.011709165 -0.0025854623
-0.012901243 -0.012467961 -0.008614456 -0.008570852 -0.007077896 -0.010102966 -0.0067199697 -0.0074575557
-0.010193147 -0.014681475 -0.00523645 -0.009817726 -0.008132224 -0.0075526177 -0.009995007 -0.008987979
-0.005870296 -0.008193119 -0.0053924816 -0.008094896 -0.014392618 -0.007417629 -0.013024895 -0.009752179
-0.007830775 -0.009060036 -0.006639522 -0.015359751 -0.00037016504 -0.010142936 -0.0115685435 -0.009807418
-0.006125774 -0.010333786 -0.010932995 -0.009794498 0.0028326374 -0.011843815 -0.008842215 -0.016842708
-0.0007886617 -0.01768496 -0.009839666 -0.014322409 -0.0017341678 -0.01682131 -0.02143926 -0.032356605
0.03293497 -0.002539917 -0.008367327 -0.016782584 0.001842904 -0.0024307505 -0.0046568154 -0.016902607
0.003153806 -0.018071873 -0.003111989 -0.02036693 0.004124405 -0.014211559 -0.012265551 -0.0065688393
-0.0043979585 -0.012605736 -0.0085589085 -0.01006212 0.0030006852 -0.016220039 -0.012168275 -0.006802536
-0.0032334395 -0.007837107 -0.01607295 -0.00878753 -0.00266015 -0.012311991 -0.01080687 -0.00734527
00000000: dffb e2bb 7674 24bc f8d1 01bc fc95 47bc
00000010: 2c9f e9bb cf86 2fbc ce26 d7bb 13df 1abc
00000020: 6b95 d4bb 5059 a8bb c79c 37bc c92a debb
00000030: 617f ccbb 1bd1 2bbc a8cb 45ba 6deb 8dbc
00000040: bec6 19bb 4448 3abc 63a9 57bc d1f3 5fbc
00000050: 5950 8fba e5bb 0dbc 0614 e5bb a1c1 63bb
00000060: dee2 4ebc 2aa4 0abc 7acf 5abc 0248 9abc
00000070: 775d 44bc 1544 d3bb 3e5d c9bc 66eb 14bd
00000080: ad80 213d 0b5e a1bb be7d 99bb 0426 c9b9
00000090: 145d 54bb 9c6b 36bc 8018 bcbb b65e 45bc
000000a0: e4ff b73a 544a 61bc f8e9 f0bb d335 c3bb
000000b0: db6f a7bc 0492 453b e9a5 63bb 3d18 81bc
000000c0: da19 b4bb af56 38bc 825a 04bc e3e5 e4bb
000000d0: 229a 1cbc 3545 68bc 60d8 04bc 3125 e0bb
000000e0: b232 1aba 7d1e 45bc 7803 38bc c067 f9bb
000000f0: 0976 05bc 1cba 1ebc 4ee8 adbb f143 57bc
00000100: 83fd 16bc a897 abbb 5a93 18bc cd31 22bc
00000110: f0c8 12bc 06ba 1bbc bfaa 05bc 65d4 f6bb
00000120: cee1 f7bb b3c6 21bc 091c f3bb 7648 84bc
00000130: f342 55bb 559c debb e0b7 09bc 7212 5abc
00000140: 7595 dabb 2116 46bc a412 d0bb f38b d5bb
00000150: 4b59 debb a4b7 37bc cc0b edbb 820d 2fbc
00000160: 8fcc 09bc d1cd 48bc 7fce 97ba a0d2 4fbc
00000170: 54f1 b5bb 94a3 12bc 4f64 edbb 84fc 39bc
00000180: 8691 1abc ca4b 48bc bf6e 4ebb c9fe 83bc
00000190: c7d6 9fbb 7f24 ecbb 7d11 ffbb d8c5 d4bb
000001a0: 7ae4 1bbc 910b 62bc d96b 16bc f329 24bc
000001b0: 985c 32bc e67e 9cbb 13c6 11bc 2dff 6dbc
000001c0: 8ce9 b8b9 8986 02bb c420 40bc 239b 63bc
000001d0: 6794 4fbb aaa1 a5bb 6ce8 b8bb fad3 78bc
000001e0: ead6 ccbb 2aec 30bc 0976 2dbc 7600 bcbc
000001f0: ac16 d6bb 8bdc ab3b 5d4a bdbc cdff 01bd
00000200: 2fed 4e3c 990a 383c 939b 1f3b 2577 1dbc
00000210: 5762 61bc b413 c3bb 9f94 0abb 02e9 adbc
00000220: dedd a2bb c2cf d9ba 1fa8 50bc 8c10 50bc
00000230: 8daa c0bb c10d c8bb 4767 03bc 037e 9abc
00000240: 06e9 043b 0546 02bc c04a 08bc 7df2 34bc
00000250: 6b1a 8cbb 1517 25bc e24d 2ebb f28e 6ebc
00000260: 6b55 b1bb 14aa 07bc 54e5 03bc c418 1cbc
00000270: a9e5 26bc ad63 fbbb f5f7 f1bb 14dd 3abc
00000280: b36c 1dbc 1f66 d3bb a9db ecbb 23ed 59bc
00000290: dda6 c4bb 97d9 26bc a660 07bc d293 e8bb
000002a0: da55 f5bb 0b7c 1ebc c0c8 3dbc 9dab 48bc
000002b0: 6765 92bb a223 eabb ccd7 3fbc dc70 29bb
000002c0: bc5f 53bc 6b46 4cbc a623 0dbc c26c 0cbc
000002d0: b2ed e7bb e986 25bc 3133 dcbb 835e f4bb
000002e0: 2801 27bc 928a 70bc 8796 abbb 87da 20bc
000002f0: 053d 05bc f37b f7bb 19c2 23bc 5142 13bc
00000300: 9d5b c0bb 6f3c 06bc 6ab3 b0bb 74a0 04bc
00000310: 04cf 6bbc 950f f3bb 5f66 55bc 9ac7 1fbc
00000320: a74c 00bc 8c70 14bc 5990 d9bb 77a7 7bbc
00000330: b612 c2b9 8f2e 26bc fd89 3dbc 4baf 20bc
00000340: b7ba c8bb 0a4f 29bc 4e20 33bc 1a79 20bc
00000350: c5a3 393b 900c 42bc f0de 10bc b8f9 89bc
00000360: 31be 4eba 0de0 90bc 8d36 21bc 8aa8 6abc
00000370: 044d e3ba d8cc 89bc 63a1 afbc 5c88 04bd
00000380: d2e6 063d bc74 26bb 1d17 09bc a17b 89bc
00000390: 998d f13a 3a4d 1fbb 3398 98bb 5677 8abc
000003a0: 16b0 4e3b 770b 94bc 83f2 4bbb 8cd8 a6bc
000003b0: 0426 873b 99d7 68bc 73f5 48bc 6b3f d7bb
000003c0: c01c 90bb 4a88 4ebc aa3a 0cbc 97db 24bc
000003d0: 25a7 443b e3df 84bc 725d 47bc cfe7 debb
000003e0: 1de8 53bb 3667 00bc 6bab 83bc 92f9 0fbc
000003f0: e955 2ebb 3cb8 49bc 4c0f 31bc 97b0 f0bb

Linear.bias f4 [96]
-0.0013575965 -0.00194414 -0.0036854448 -0.0046246774 -0.005371519 -0.0055916295 -0.0059036426 -0.007164327
-0.0076903314 -0.007734243 -0.008153762 -0.0084727965 -0.008696097 -0.00895175 -0.008937007 -0.009143386
-0.009397314 -0.009937635 -0.010127829 -0.010477203 -0.011680364 -0.0117900465 -0.011892183 -0.011487562
-0.0122073945 -0.011661503 -0.012084249 -0.012005246 -0.01201616 -0.012102969 -0.012716395 -0.012974355
-0.013204448 -0.013728151 -0.014463977 -0.014341097 -0.014252152 -0.014342975 -0.014573893 -0.014806802
-0.014717017 -0.014232726 -0.014420175 -0.014064776 -0.014244128 -0.013849233 -0.013811416 -0.013904972
-0.015070402 -0.014285333 -0.014363822 -0.014619422 -0.014469129 -0.014237788 -0.014173222 -0.013511457
-0.013474816 -0.01351837 -0.014232561 -0.014331913 -0.014820912 -0.0150071 -0.014975791 -0.015258775
-0.014936065 -0.014877928 -0.015476795 -0.015807826 -0.01612579 -0.015795657 -0.015621925 -0.015724028
-0.016049733 -0.01642052 -0.016145643 -0.016336633 -0.01686529 -0.01648735 -0.01649776 -0.01628172
-0.016641568 -0.016301498 -0.015786896 -0.015385756 -0.015623428 -0.015794901 -0.016312027 -0.016168717
-0.015563789 -0.016369058 -0.017180143 -0.017254025 -0.017286459 -0.017135965 -0.017093917 -0.017527428
00000000: 61f1 b1ba 83d2 feba 8187 71bb 9b8a 97bb
00000010: 9103 b0bb fd39 b7bb 5873 c1bb bbc2 eabb
00000020: 2dff fbbb 886f fdbb 5b97 05bc 7cd1 0abc
00000030: 137a 0ebc 5caa 12bc 866c 12bc 24ce 15bc
00000040: 31f7 19bc 76d1 22bc 32ef 25bc 93a8 2bbc
00000050: ff5e 3fbc 0a2b 41bc 6ed7 42bc 5436 3cbc
00000060: 8601 48bc e40f 3fbc 04fd 45bc a7b1 44bc
00000070: 6edf 44bc 884b 46bc 6d58 50bc 6492 54bc
00000080: 7857 58bc 0aec 60bc 51fa 6cbc ecf6 6abc
00000090: dc81 69bc ccfe 6abc 56c7 6ebc 3b98 72bc
000000a0: a51f 71bc 6130 69bc 9942 6cbc f26f 66bc
000000b0: 3460 69bc e5e7 62bc 4749 62bc aed1 63bc
000000c0: d9e9 76bc 080d 6abc 3c56 6bbc 4d86 6fbc
000000d0: ed0f 6dbc 9c45 69bc cd36 68bc 285f 5dbc
000000e0: 7ac5 5cbc 277c 5dbc b02f 69bc 66d0 6abc
000000f0: 69d3 72bc 57e0 75bc 055d 75bc f1ff 79bc
00000100: 66b6 74bc 8ec2 73bc 6292 7dbc 6a7f 81bc
00000110: 3c1a 84bc e565 81bc 1af3 7fbc adcf 80bc
00000120: bb7a 83bc 5484 86bc de43 84bc 67d4 85bc
00000130: 1429 8abc 7b10 87bc 4f26 87bc 3e61 85bc
00000140: e653 88bc b88a 85bc 8553 81bc 8a14 7cbc
00000150: 68f9 7fbc 4f64 81bc cda0 85bc 4274 84bc
00000160: 43ff 7ebc 6718 86bc 5fbd 8cbc 5058 8dbc
00000170: 559c 8dbc b960 8cbc 8b08 8cbc ae95 8fbc
