weights/linear_freq_weights/RLinear_horizon96_lookback512_cycle_1008/checkpoint.pth (torch, 198570 bytes, 2 tensors)

Linear.weight f4 [96, 512]
-0.015070519 -0.003554255 -0.0024656048 -0.0022637716 -0.0021633273 -0.016452933 -0.025600195 0.034135967
-0.017336717 -0.028443385 0.026021685 -0.035938114 0.024013832 -0.035932805 0.011087844 -0.013391341
0.002307571 -0.021561533 0.004183223 -0.008539129 0.0017945551 -0.032540273 0.018238535 -0.0096221175
-0.008200556 -0.030519556 0.033988092 -0.023949612 -0.0097217215 -0.010736834 0.001857315 -0.009974037
0.0014651376 -0.021917902 -0.0050419895 0.014041689 -0.023801025 0.0014873294 -0.010402142 -0.01598454
-0.00046611347 0.004675075 -0.0033618885 -0.03708133 0.0030501315 -0.002321144 0.018013764 -0.0316683
0.0041272496 -0.024287155 0.011730095 -0.0077488627 -0.015461859 -0.011739782 0.014752626 -0.021300439
0.00422522 -0.026268296 0.0038360888 0.009645709 -0.027729634 -0.004871421 -0.005109517 -0.008303608
0.015672466 -0.03241411 0.0011467148 0.0014192809 -0.009682292 -0.015687503 -0.015474467 0.022634434
-0.022688137 -0.00023970738 -0.0114224665 -0.022625407 0.024398342 -0.01480249 -0.027480908 0.017612932
-0.021036359 -0.007076748 0.001862283 -0.009059347 -0.0070775296 -0.0066805864 0.0036618053 -0.021868475
-0.0120932525 0.011940959 -0.016833968 0.001068054 -0.015831394 -0.015031303 0.010083192 0.006430986
-0.03529147 0.007996605 0.001637873 -0.024399674 0.009107217 -0.0034728786 -0.035373382 0.014760595
0.0016048548 -0.020527042 -0.010560666 -0.00028151326 -0.0024009375 -0.010712784 -0.007467336 -0.009997029
0.006657418 -0.019933436 0.0058895294 -0.031087697 0.023088083 -0.017824825 -0.022143608 0.01665181
-0.013650226 -0.015183244 -0.010251075 0.021613916 -0.039501615 0.010650873 -0.01762411 0.014818408
-0.014109728 -0.021906696 -0.00671603 0.013142859 -0.016428422 -0.020891963 0.015789516 -0.016361851
-0.0075164572 -0.00016987184 -0.002634001 -0.018387444 -0.0066432734 0.003482976 -0.0044438434 -0.026178725
0.006475585 0.008890682 -0.030943422 -0.007555792 0.010893338 -0.008350302 -0.014723157 -0.015310386
0.013511787 -0.009720414 -0.01668712 -0.015725343 0.015087372 -0.014989846 -0.01507873 0.0025929518
0.00031879032 -0.019727053 -0.004900054 -0.0059411507 0.005814927 -0.020558376 -0.0036361914 -0.00398189
-0.0029643148 -0.016793985 -0.007814676 0.006178209 -0.0071923425 -0.016091973 -0.0070296354 0.000605513
-0.015702954 0.008773991 -0.02451944 -0.001255409 -0.001946 0.00093353586 -0.014710395 -0.015033462
0.013665683 -0.018479936 -0.0053867963 -0.023019183 0.018335793 -0.009891359 -0.022641908 0.0164772
-0.031082805 0.003262105 -0.0021474941 -0.003584376 -0.009486779 -0.022730311 0.014031191 -0.017811539
0.0007710051 -0.017108642 0.006007885 -0.024662089 0.020254118 -0.015831461 -0.023108298 0.004045884
0.012617624 -0.039733715 0.010129956 -0.0019593865 -0.015588165 -0.004570583 -0.0027254093 -0.010182849
-0.016993873 -0.00046151577 0.011941688 -0.03167246 0.014352974 -0.015911816 -0.015234013 0.013082464
-0.015892014 -0.019950671 0.006924286 -0.009539231 -0.00018982944 -0.014653725 0.00025485965 -0.007856103
-0.008895731 -0.009775088 0.008750948 -0.022288356 -0.00039363126 -0.008757359 0.0027133226 -0.023351839
-0.010907825 0.012821924 -0.0019076848 -0.023202319 -0.010021702 0.009726109 -0.0136493705 -0.014665878
-0.004106128 0.0072289784 -0.016052047 -0.002968495 -0.017274873 0.0066694855 -0.0048736786 -0.023864252
00000000: 57ea 76bc 81ee 68bb fc95 21bb c95b 14bb
00000010: 9cc6 0dbb 4dc8 86bc 80b7 d1bc 28d2 0b3d
00000020: bb05 8ebc 1a02 e9bc 6e2b d53c d833 13bd
00000030: a8b8 c43c 472e 13bd caa9 353c 5b67 5bbc
00000040: 9e3a 173b d0a1 b0bc 6b13 893b b4e7 0bbc
00000050: 4737 eb3a f348 05bd fb68 953c 16a6 1dbc
00000060: a05b 06bc 2604 fabc 1937 0b3d fa31 c4bc
00000070: db47 1fbc 8ce9 2fbc 2671 f33a 256a 23bc
00000080: dc09 c03a 2c8d b3bc 4637 a5bb 1d0f 663c
00000090: 5efa c2bc 7ef2 c23a bf6d 2abc 03f2 82bc
000000a0: b160 f4b9 5f31 993b 2153 5cbb 98e2 17bd
000000b0: b7e4 473b 561e 18bb 9a91 933c 9fb6 01bd
000000c0: e13d 873b dbf5 c6bc 962f 403c 2cea fdbb
000000d0: bd53 7dbc 3758 40bc 00b5 713c 427e aebc
000000e0: b773 8a3b 9c30 d7bc e466 7b3b 0909 1e3c
000000f0: 4229 e3bc 71a0 9fbb bc6d a7bb db0b 08bc
00000100: 8b63 803c a8c4 04bd 5d4d 963a 2a07 ba3a
00000110: 7aa2 1ebc 1483 80bc 9e88 7dbc d96b b93c
00000120: 79dc b9bc f659 7bb9 4c25 3bbc eb58 b9bc
00000130: 08df c73c 2586 72bc a41f e1bc ff48 903c
00000140: 7154 acbc 11e4 e7bb d917 f43a a86d 14bc
00000150: 9fea e7bb d2e8 dabb e6fa 6f3b 8425 b3bc
00000160: c722 46bc 03a4 433c 64e7 89bc f2fd 8b3a
00000170: d7b0 81bc db45 76bc f933 253c 05bb d23b
00000180: ca8d 10bd 3104 033c e6ad d63a d3e1 c7bc
00000190: 7036 153c 3c99 63bb aee3 10bd 6cd6 713c
000001a0: fe59 d23a 5428 a8bc a506 2dbc 1298 93b9
000001b0: 0c59 1dbb ac84 2fbc 8eb0 f4bb 94ca 23bc
000001c0: 7826 da3b 724b a3bc f4fc c03b a0ab febc
000001d0: 3823 bd3c 5e05 92bc 8366 b5bc 6069 883c
000001e0: 33a5 5fbc 24c3 78bc 20f4 27bc ab0f b13c
000001f0: 72cc 21bd 0081 2e3c 7060 90bc e8c8 723c
00000200: 7d2c 67bc ac75 b3bc 2512 dcbb 2555 573c
00000210: e694 86bc 9f25 abbc 0459 813c 4a09 86bc
00000220: 9d4c f6bb a01f 32b9 349f 2cbb 44a1 96bc
00000230: d1af d9bb a442 643b a99d 91bb c474 d6bc
00000240: 2531 d43b 39aa 113c 0f7d fdbc 9496 f7bb
00000250: f979 323c b5cf 08bc 6539 71bc 6ad8 7abc
00000260: 8b60 5d3c 5f42 1fbc 6db3 88bc 6fd2 80bc
00000270: 0631 773c f997 75bc c70c 77bc 83ee 293b
00000280: 5023 a739 a19a a1bc a290 a0bb fcad c2bb
00000290: 258b be3b 0a6a a8bc 2b4d 6ebb 847a 82bb
000002a0: f344 42bb 8a93 89bc 2009 00bc 9372 ca3b
000002b0: bead ebbb 50d3 83bc db58 e6bb 4abb 1e3a
000002c0: 7ba3 80bc c9c0 0f3c fedc c8bc 898c a4ba
000002d0: ed10 ffba 88b8 743a de03 71bc e94e 76bc
000002e0: 07e6 5f3c 3c63 97bc b983 b0bb ba92 bcbc
000002f0: f234 963c 5e0f 22bc 867b b9bc 31fb 863c
00000300: 5ea1 febc 0ac9 553b f9bc 0cbb dae7 6abb
00000310: 6f6e 1bbc eb34 babc 15e3 653c 81e9 91bc
00000320: 471d 4a3a 6c27 8cbc cbdd c43b 2608 cabc
00000330: f7eb a53c fbb0 81bc 9d4d bdbc 5693 843b
00000340: 27ba 4e3c d2bf 22bd 1df8 253c 0d69 00bb
00000350: 8165 7fbc d4c4 95bb c89c 32bb f7d5 26bc
00000360: bc36 8bbc 99f7 f1b9 12a7 433c fbba 01bd
00000370: bc28 6b3c 7f59 82bc 1598 79bc d557 563c
00000380: f82f 82bc 976f a3bc 1fe5 e23b 6f4a 1cbc
00000390: f40c 47b9 2d16 70bc af9e 8539 e2b6 00bc
000003a0: 66bf 11bc b127 20bc 2360 0f3c 1296 b6bc
000003b0: 4b60 ceb9 077b 0fbc 00d2 313b 5b4c bfbc
000003c0: bcb6 32bc 0c13 523c 480b faba ca12 bebc
000003d0: 1132 24bc 425a 1f3c 9ca1 5fbc 2749 70bc
000003e0: b38c 86bb 11e1 ec3b 957f 83bc 158b 42bb
000003f0: 0984 8dbc b38b da3b 61b3 9fbb f77e c3bc

Linear.bias f4 [96]
-0.0008158546 -0.0015581565 -0.0018373233 -0.0020710388 -0.0021264383 -0.0022717132 -0.0025303848 -0.0027347556
-0.0028510338 -0.003240795 -0.0034466852 -0.0038728856 -0.004082401 -0.0041194 -0.004219894 -0.00416002
-0.003945841 -0.0038225886 -0.0037669674 -0.0036578625 -0.0034637873 -0.0030775578 -0.0029473573 -0.0030986767
-0.0032490955 -0.0035025883 -0.0032969217 -0.0029430366 -0.0025072517 -0.0022564228 -0.0024271312 -0.0026340012
-0.0027244966 -0.0025955 -0.0022495114 -0.0020356325 -0.0017854996 -0.0014952754 -0.0011328727 -0.00082087546
-0.00078543765 -0.00068754016 -0.0005842144 -0.00048238575 -0.00027374877 6.559693e-05 0.00022096523 0.0004950633
0.0006268481 0.0009422913 0.0011499284 0.0012825528 0.0015594588 0.0018804898 0.0023876745 0.0028924462
0.003311808 0.0037280028 0.004172957 0.0049387407 0.0056149075 0.0059843096 0.0060459976 0.0062035215
0.0062386007 0.0070403726 0.0076541393 0.008189409 0.008505697 0.008625019 0.00898969 0.009245342
0.009404599 0.009371509 0.009505226 0.009887167 0.010740977 0.011604325 0.012423796 0.012914382
0.013267088 0.013775385 0.014349459 0.014780173 0.015190294 0.01563173 0.015851237 0.016296662
0.016607212 0.016952883 0.017382015 0.017817736 0.018408764 0.017954685 0.017482642 0.016907731
00000000: 13df 55ba 0e3b ccba 57d2 f0ba 44ba 07bb
00000010: b75b 0bbb 06e1 14bb d0d4 25bb 9639 33bb
00000020: 69d8 3abb 8563 54bb c8e1 61bb 3dd0 7dbb
00000030: a9c5 85bb 08fc 86bb 0947 8abb c750 88bb
00000040: 1d4c 81bb 6584 7abb 3adf 76bb c0b8 6fbb
00000050: b500 63bb dab0 49bb 7328 41bb 2b13 4bbb
00000060: c7ee 54bb ae8b 65bb 2b11 58bb f6df 40bb
00000070: b450 24bb 7ee0 13bb 8110 1fbb 359f 2cbb
00000080: 788d 32bb 4419 2abb 8a6c 13bb 3f68 05bb
00000090: 6d07 eaba 1efd c3ba e67c 94ba 0530 57ba
000000a0: d4e5 4dba 0a3c 34ba f725 19ba b8e8 fcb9
000000b0: f085 8fb9 1591 8938 e7b2 6739 23c7 013a
000000c0: 1053 243a 1904 773a 32b9 963a 551b a83a
000000d0: c166 cc3a c47a f63a 887a 1c3b 328f 3d3b
000000e0: eb0a 593b 8251 743b 4dbd 883b 29d5 a13b
000000f0: 42fd b73b 0718 c43b 811d c63b e946 cb3b
00000100: 2d6d cc3b edb2 e63b 93cf fa3b df2c 063c
00000110: 7b5b 0b3c f44f 0d3c 7e49 133c c679 173c
00000120: bf15 1a3c f58a 193c cfbb 1b3c c9fd 213c
00000130: ecfa 2f3c 1120 3e3c 2d8d 4b3c d896 533c
00000140: 335e 593c 27b2 613c fe19 6b3c 8a28 723c
00000150: b6e0 783c 1d0e 803c 74da 813c 9480 853c
00000160: d90b 883c c6e0 8a3c ba64 8e3c 80f6 913c
00000170: facd 963c b415 933c c237 8f3c 1582 8a3c
