weights/linear_freq_weights/RLinear_horizon96_lookback512_cycle_336/checkpoint.pth (torch, 198570 bytes, 2 tensors)

Linear.weight f4 [96, 512]
000000 a9 12 d1 bb 02 62 68 bb 11 cc 40 bb 4b 97 ca bb
       -0.0063803983 -0.0035458808 -0.0029418508 -0.0061825863
000010 e1 91 25 bc d9 b7 85 bb ff 17 29 bc 89 86 d0 b9
       -0.010105581 -0.0040807542 -0.0103206625 -0.00039773088
000020 64 d0 ae bb ed 2c 06 bc 05 f1 bc 3b 15 38 a4 bc
       -0.0053349007 -0.008189422 0.0057660365 -0.020046273
000030 37 48 97 3a 36 c8 1b bc 97 d8 0d bc 3f f2 9f bb
       0.0011541907 -0.009508183 -0.008657596 -0.004881173
000040 9f 36 b0 bb 66 94 8f bb 25 29 07 3b f2 b4 46 bc
       -0.005377605 -0.004381704 0.002062389 -0.012128102
000050 c3 2c de ba f6 87 ff bb b2 10 ab bb d1 8c 00 bc
       -0.0016950596 -0.00779819 -0.005220496 -0.007846073
000060 5b 26 b5 3a dc 53 5f bc 88 89 33 bb d0 fa dc bb
       0.0013820635 -0.0136308335 -0.0027395207 -0.0067437664
000070 d6 15 80 bb 51 16 d4 bb 9d 02 ac bb a4 69 c6 bb
       -0.003908853 -0.006472387 -0.005249335 -0.006055074
000080 43 75 cf bb 5d 41 b0 bb 18 7e ef bb 02 9a e6 bb
       -0.0063311174 -0.0053788857 -0.0073087327 -0.007037402
000090 3c 36 a4 bb 4c 81 8d bb e7 4c 6e ba 83 3a 4b bc
       -0.005011348 -0.004318392 -0.0009090439 -0.012404087
0000a0 14 62 a0 ba 57 65 3c bc 3b 69 38 bb 0d a5 06 bc
       -0.0012236261 -0.011498771 -0.0028138894 -0.008218062
0000b0 32 d6 cf 39 41 2c 6b bc f1 c6 5b 3b d3 a8 85 bc
       0.00039641705 -0.014353813 0.0033535326 -0.016315853
0000c0 1c 43 5a 3b 16 1c 48 bc cb d1 b0 bb 72 ce 9c ba
       0.003330416 -0.012213727 -0.005396103 -0.0011963381
0000d0 50 60 b9 bb 8a 6b e2 bb 34 fa 72 bb c4 bb ec bb
       -0.0056572333 -0.0069097923 -0.0037075402 -0.007224532
0000e0 ae d7 ee bb 2b 25 00 bc ac c1 d4 ba 33 b1 b0 bb
       -0.0072888946 -0.0078213615 -0.0016232035 -0.0053922175
0000f0 a1 8e 10 bc e3 08 88 bb f0 44 dd bb 9a e1 13 bc
       -0.008823068 -0.00415145 -0.0067526028 -0.009025956
000100 5f b3 6a bb 60 8a 05 bc 66 23 0b bb 95 71 77 bb
       -0.003581248 -0.008150667 -0.0021230816 -0.003775691
000110 54 40 00 bb fa bc 3f bc 47 79 d7 ba b7 01 55 bc
       -0.0019569593 -0.01170277 -0.0016439342 -0.013000897
000120 2c f6 c6 bb 00 18 f9 ba 6f b4 68 ba 17 3e 23 bc
       -0.0060718264 -0.0019004345 -0.00088769844 -0.009963534
000130 bf 1e 80 bb c0 0f 14 bc 7c 0a a7 bb 3e 75 80 ba
       -0.003909915 -0.009036958 -0.0050976854 -0.0009800566
000140 ef e4 19 bc a7 27 d5 bb d3 99 ba bb e7 e6 a4 bb
       -0.009392961 -0.006504971 -0.005694607 -0.0050324085
000150 54 5d 46 bc 9d eb 16 3b 71 05 ee ba 44 fb 11 bc
       -0.012107212 0.002302862 -0.0018159581 -0.008910004
000160 88 93 2d bc 19 07 96 bb ae cb f8 bb ef 6d 9b bb
       -0.010594256 -0.004578483 -0.00759264 -0.0047433297
000170 71 6e 90 b9 fa 7a fc bb 34 37 30 bc 3d 5d 9c 39
       -0.00027548106 -0.0077050896 -0.010755349 0.00029824107
000180 f6 6f 26 bc d4 a4 60 ba 38 2d 0b bc 8c 2c 0e 3b
       -0.0101585295 -0.0008569483 -0.008494668 0.0021694032
000190 9b 6e 64 bc e9 bf 01 3b 86 5e 89 bc 86 10 40 bb
       -0.013942386 0.0019798225 -0.016768705 -0.0029306724
0001a0 4a 1a 97 bb 38 b3 16 bc a9 4d bd bb f8 71 87 3a
       -0.004611288 -0.0091980025 -0.00577708 0.0010333648
0001b0 57 3b 0a bc f0 c3 df bb 22 3c 65 bb c9 c9 dd bb
       -0.008436999 -0.0068287775 -0.003497847 -0.0067684394
0001c0 4d a7 f6 bb d7 31 02 3b 52 7b 4c bc 3a 97 29 bc
       -0.007527268 0.0019866133 -0.012480574 -0.010350997
0001d0 19 d8 61 3b 2e e6 68 bc ad 38 0e bb 58 c5 14 bc
       0.003446108 -0.014215035 -0.0021701262 -0.009080254
0001e0 2e f4 bb bb 11 3c b9 3b 26 26 8a bc 21 a4 6b 3b
       -0.0057358956 0.0056529124 -0.016863894 0.0035955983
0001f0 94 ac 8b bc c7 ee 9e 3b fe 47 5a bc ca 50 1b 3a
       -0.017050065 0.004850242 -0.013322828 0.0005924819
000200 16 9d 10 bc be a1 26 bc 9a 40 e2 bb 99 30 19 bb
       -0.008826515 -0.010170398 -0.0069046738 -0.0023374914
000210 bc 6e de bb 95 37 09 bc 1b 92 11 ba fb 5a 0a bc
       -0.006788103 -0.008375068 -0.00055530824 -0.008444543
000220 c4 05 30 3b 23 2e 10 bc ca 56 ce bb 27 27 01 bc
       0.0026858905 -0.008800062 -0.006296967 -0.00788287
000230 30 d9 c7 bb 79 99 31 bb ec 95 63 bc c8 ee 71 bb
       -0.006098889 -0.0027099533 -0.013890725 -0.0036916006
000240 25 87 6f bb b5 b8 53 bc f8 f5 52 bb 45 0e 27 bc
       -0.0036549058 -0.012922456 -0.0032190066 -0.010196273
000250 1f 0a d1 ba 22 13 1b bc 5d c0 d8 3b 31 46 61 bc
       -0.0015948451 -0.009465011 0.0066147284 -0.013749645
000260 de 30 8e 3b ae 6c 4c bc 5f 29 0c bc af c7 ac bb
       0.0043393215 -0.012477083 -0.0085547855 -0.0052728276
000270 92 59 26 bb ac 55 84 ba 4b a7 3d bc 78 95 1f bc
       -0.0025382978 -0.0010096333 -0.01157553 -0.009740226
000280 b2 af 80 bb 51 9c ab bc 3e c9 d3 3a ae 30 05 bc
       -0.0039271945 -0.02094856 0.0016157997 -0.008129282
000290 8b 58 27 bb 3f 8b 1c bc 24 5b 14 bb 39 aa 46 bc
       -0.0025534953 -0.009554683 -0.0022637332 -0.012125545
0002a0 68 e4 48 bc e7 61 88 3a e3 b3 fa bb 9b a3 ac bb
       -0.012261488 0.0010405154 -0.0076508387 -0.0052685267
0002b0 61 67 69 bc 37 54 34 bc 79 66 8e bc be e3 25 bc
       -0.014245839 -0.0110064065 -0.017382847 -0.010125099
0002c0 fb 19 0b 3c c1 ed a3 3b 1d 66 e3 ba bc 5a 24 bb
       0.008490081 0.0050027077 -0.0017349158 -0.0025078496
0002d0 dc b4 d6 3b 95 90 57 bb e8 ae b4 bb 99 33 08 bc
       0.006552322 -0.0032892574 -0.0055140145 -0.008313083
0002e0 1a db c2 ba 70 88 07 bb 55 d2 22 ba d8 2c 26 bc
       -0.0014866323 -0.0020680688 -0.00062111515 -0.0101425275
0002f0 dd b8 7f bb 71 d3 50 bc ea f3 95 3b 8b 22 07 3c
       -0.00390201 -0.012745724 0.004576196 0.008247982
000300 80 d9 90 bc f1 c1 98 bb 47 b7 8b b9 d8 c9 58 bc
       -0.017681837 -0.0046617915 -0.00026648698 -0.013231717
000310 f0 7e 74 3b 33 2c 50 bb 86 c7 6b ba 59 4d e7 bb
       0.0037307106 -0.0031764626 -0.000899427 -0.007058781
000320 68 c4 92 3b e6 16 be bc 8d 16 8a 3a 00 21 14 bc
       0.00447898 -0.023204278 0.0010535285 -0.009041071
000330 de c5 16 3b db c9 37 bc cf 1a 0f 3b dc 4d 13 bc
       0.0023006122 -0.01121756 0.0021836048 -0.008990731
000340 88 cb 52 bb 7c 8d 27 bc 7c 90 88 b9 4f dd c5 bb
       -0.003216477 -0.010226604 -0.0002604759 -0.006038345
000350 24 d9 38 bc 12 63 6f bb 27 07 cb ba e7 16 19 bc
       -0.011282239 -0.0036527556 -0.0015489802 -0.009343839
000360 76 f1 16 bc ae 03 ed bb f6 24 1c bb 2b 8b ac ba
       -0.009212842 -0.0072331047 -0.0023825741 -0.0013164034
000370 33 9a 19 bb 12 09 22 bc f8 1f db 3a d1 b4 3b bc
       -0.0023437857 -0.009889858 0.0016717901 -0.011456684
000380 6f 9e 05 38 00 68 0d bc f3 d9 0e bc b7 67 3e bc
       3.1857224e-05 -0.008630753 -0.008718955 -0.011621407
000390 89 c3 75 3b 7d 07 7b bc 32 8b c5 ba fc 72 06 bc
       0.0037500581 -0.01532161 -0.0015071391 -0.008206125
0003a0 96 15 05 bc ba 92 83 38 75 6e 1c 3a d1 ad 6a bc
       -0.008122822 6.273897e-05 0.0005967387 -0.014323668
0003b0 a0 a9 89 3b f2 d4 2f bc ce a2 a8 bb 3f 18 7f bb
       0.004201129 -0.010731922 -0.005146361 -0.0038924364
0003c0 be 43 2d bc 29 b6 cc bb 8b 6d bb bb 10 6a 84 bb
       -0.010575233 -0.006247301 -0.0057198456 -0.004040964
0003d0 d8 9e b9 bb 2c 95 82 bb 0a 65 d1 bb 77 79 bd bb
       -0.0056646876 -0.003985068 -0.0063902186 -0.005782302
0003e0 c4 ff 5d bb a3 60 89 bb de de 4e bc 26 5f a6 bb
       -0.0033874372 -0.004192428 -0.012626378 -0.0050772605
0003f0 b6 fe ec bb 37 e4 a5 bb e5 d3 2a 3a 9f 2d fe bb
       -0.0072325123 -0.0050626057 0.000651656 -0.0077569033

Linear.bias f4 [96]
000000 90 75 bb ba 3e f5 29 bb 88 9c 5a bb bb b2 8a bb
       -0.0014302004 -0.002593353 -0.003335746 -0.004232732
000010 04 65 a5 bb 30 ea c4 bb 55 4d d9 bb c2 53 e6 bb
       -0.0050474424 -0.0060093626 -0.006631533 -0.0070290277
000020 af e6 f4 bb e4 28 02 bc 5c b0 0a bc 3e c6 15 bc
       -0.0074737887 -0.007944319 -0.008464899 -0.009141503
000030 98 a4 1e bc 18 4b 20 bc 92 28 22 bc fa bb 29 bc
       -0.009682797 -0.009783529 -0.009897368 -0.0103597585
000040 1f f7 2e bc 97 ce 31 bc 04 36 38 bc 0f 78 3a bc
       -0.010679035 -0.0108524775 -0.011243347 -0.011381163
000050 67 de 3c bc e1 d7 3e bc 12 03 41 bc fd 47 43 bc
       -0.011527634 -0.011648149 -0.011780517 -0.011919019
000060 b9 c6 47 bc c7 0e 4f bc 55 a9 54 bc 45 d6 5e bc
       -0.012193375 -0.012637801 -0.012979825 -0.0136008905
000070 65 48 5b bc fc 99 60 bc 30 ec 68 bc 52 2b 6f bc
       -0.013383959 -0.013708588 -0.014216468 -0.014597731
000080 2f 54 71 bc 11 2d 73 bc 04 48 78 bc 8c 9e 74 bc
       -0.014729544 -0.014842288 -0.015153889 -0.014930379
000090 d3 b0 77 bc 0e 83 77 bc 97 10 7d bc 11 e0 80 bc
       -0.015117842 -0.0151069295 -0.01544585 -0.015731843
0000a0 bf dd 82 bc 83 f6 82 bc db 37 87 bc 53 32 89 bc
       -0.015974877 -0.015986687 -0.016506126 -0.01674763
0000b0 32 ad 88 bc c2 a7 89 bc 2e 1c 8d bc 36 ab 90 bc
       -0.016684148 -0.016803626 -0.017225351 -0.017659765
0000c0 72 52 8e bc 26 ad 8d bc d1 ca 8c bc 8a 0a 8f bc
       -0.017373297 -0.017294478 -0.017186554 -0.01746108
0000d0 26 54 91 bc 62 bf 93 bc ad 2c 94 bc a0 01 93 bc
       -0.01774032 -0.018035594 -0.01808771 -0.01794511
0000e0 29 d6 96 bc 85 01 9a bc af 42 9c bc 33 d5 9a bc
       -0.018412666 -0.018799553 -0.019074766 -0.01890049
0000f0 6d 6b 9c bc 07 60 9e bc 9a 91 a4 bc a5 25 a8 bc
       -0.019094193 -0.019332899 -0.02008896 -0.020525763
000100 04 54 aa bc 6c 8d ad bc 64 14 b1 bc bd 11 b3 bc
       -0.020792015 -0.0211856 -0.021616168 -0.021859044
000110 f7 ab b3 bc b4 a3 b4 bc 93 4a b7 bc 92 af b6 bc
       -0.021932585 -0.022050716 -0.022374427 -0.022300515
000120 01 fd b7 bc 18 fa b7 bc f5 73 b6 bc 40 e8 b6 bc
       -0.022459509 -0.022458121 -0.02227209 -0.022327542
000130 dd e5 b9 bc e1 e0 ba bc 8b be bc bc 78 b9 bc bc
       -0.022692615 -0.022812309 -0.023040077 -0.023037657
000140 1b 22 be bc 49 63 bf bc ae d5 c0 bc 25 49 bf bc
       -0.023209622 -0.023362773 -0.02353939 -0.023350308
000150 9f 51 c0 bc 1e 85 c4 bc 3b e8 c5 bc 25 97 c7 bc
       -0.02347642 -0.023989256 -0.024158588 -0.024364064
000160 24 26 ca bc ad d1 cc bc f6 dc cc bc d6 74 cc bc
       -0.02467639 -0.025002325 -0.025007706 -0.024958055
000170 58 0f cd bc 39 13 d0 bc ef 58 d0 bc 52 66 d0 bc
       -0.02503173 -0.025399791 -0.025433032 -0.025439415
