weights/linear_freq_weights/RLinear_horizon96_lookback512_cycle_32/checkpoint.pth (torch, 198570 bytes, 2 tensors)

Linear.weight f4 [96, 512]
-0.0032944519 -0.012193191 -0.012642726 -0.0069771972 -0.0065640085 -0.005073649 -0.004790657 -0.0066296495
-0.010761131 -0.0074488167 -0.0028192822 -0.006076681 -0.0049454225 -0.0147173945 -0.0015087883 -0.007931676
-0.0037918317 -0.007315114 -0.011417702 -0.0049071214 -0.0056618126 -0.0072779437 -0.006258483 -0.0061169327
-0.0018148479 -0.0054497346 -0.012775725 -0.00221598 -0.0009358103 -0.011481438 -0.019148747 -0.02251684
0.031950586 -0.0004116502 -0.009976707 -0.017643964 -0.009062067 -0.0050150664 -0.009920989 -0.003649371
-0.0040122666 -0.010797674 -0.0052280095 -0.008546784 -0.0049284482 -0.010934358 -0.0074313474 -0.010334212
-0.003509977 -0.007821849 -0.0013477511 -0.00870985 -0.0029894903 -0.012078293 0.0016160738 -0.0056987237
-0.012267516 -0.017243365 0.0010371347 -0.010752124 -0.0111490255 -0.035539337 -0.029265042 -0.045115866
0.07306672 0.035524912 -0.003751094 -0.002624634 -0.0038018995 -0.0086445585 -0.007052454 -0.010353894
-0.0132008325 -0.0057661575 -0.01105907 -0.007626691 -0.00019808275 -0.006756224 -0.01145757 -0.005117127
-0.007022543 -0.006228515 -0.009628527 -0.006577333 -0.0130405035 -0.005815109 -0.0039391327 -0.009309828
-0.008168639 -0.008729764 -0.0034849471 -0.0056455503 -0.007368846 -0.0059052925 -0.026705666 -0.038632836
0.047387533 0.001869987 -0.00048889685 -0.012985238 0.00045045643 -0.006734591 -0.008295936 -0.0018023208
-0.009843284 0.0014012177 -0.0067428844 -0.014991467 -0.009781742 -0.00085023436 -0.0062241126 -0.0020457974
-0.006836337 -0.006986867 -0.0013751112 -0.01347661 -0.004740669 -8.041751e-06 -0.009429949 -0.00886501
-0.0092217885 -0.0025332207 -0.009283912 -0.0061540953 -0.0022819242 -0.01437531 0.013044606 -0.03331346
0.009133313 -0.022417549 0.0070197503 -0.014398101 -0.009629384 -0.0073168026 -0.0016823291 -0.005642585
-0.007244951 -0.0068629193 -0.006486867 -0.0054021254 -0.0077288533 -0.006551677 -0.004255725 -0.010160412
-0.006979691 -0.01106818 -0.004523083 -0.0054978924 -0.0077164336 -0.007587187 0.0042887474 -0.011496973
-0.007432938 -0.00888549 -0.004115521 -0.0065298984 0.0006442584 -0.010142162 -0.0114567885 -0.015305879
0.014191563 -0.013584878 -0.007672697 -0.0069021196 -0.0052665235 -0.0041315495 -0.009831568 -0.0059486735
-0.006092169 -0.0038532903 -0.005939052 -0.007860315 -0.0047447467 -0.007010576 -0.0032899699 -0.013238335
-0.0025230595 -0.010408938 -0.005317362 -0.002585142 -0.009377839 -0.0071881707 -0.008861244 -0.0015670896
-0.0076710694 -0.0042693084 -0.0077821417 -0.01041875 -0.0019463479 0.004019 -0.01583415 -0.03746477
0.03707708 -0.010688668 -0.017169138 -0.010754731 -0.003445752 -0.010254459 -0.0028888406 -0.012064138
-0.0051615746 -0.010728328 -0.013110394 -0.00032769467 -0.010309577 -0.0045636273 -0.009654129 -0.0053477613
-0.0092219785 -0.0032629012 -0.008192175 -0.0017030654 -0.011382107 -0.0070762006 -0.008401071 -0.0049279965
0.0012726262 -0.0135597745 -0.004071873 -0.0076014283 -0.0031947475 -9.944052e-05 -0.004235275 -0.026423566
0.008871526 -0.010793494 -0.011760573 -0.011137736 -0.0034306364 -0.007684696 -0.00066011056 -0.007693651
-0.010680426 0.001188835 -0.007369118 -0.014567285 -0.00720458 -0.002414352 -0.0010070573 -0.008253208
-0.008118766 -0.009578724 -0.009403112 -0.005647952 -0.009957056 -0.005852845 -0.009738725 -0.0104866605
-0.004405742 -0.010449083 -0.006087759 -0.0036269089 -0.004897557 -0.00428453 -0.014333516 -0.0339745
00000000: bbe7 57bb f3c5 47bc 7023 4fbc f9a0 e4bb
00000010: e516 d7bb da40 a6bb f2fa 9cbb 883d d9bb
00000020: 744f 30bc 3415 f4bb b5c3 38bb e51e c7bb
00000030: 360d a2bb 3a21 71bc 89c2 c5ba dcf3 01bc
00000040: 6180 78bb a0b3 efbb 5011 3bbc ebcb a0bb
00000050: ba86 b9bb d17b eebb f613 cdbb 8d70 c8bb
00000060: 31e0 edba b093 b2bb 4651 51bc fa39 11bb
00000070: 2b51 75ba a41c 3cbc d5dd 9cbc 3c75 b8bc
00000080: 9ede 023d c1d2 d7b9 5875 23bc 138a 90bc
00000090: 1079 14bc 6d55 a4bb a58b 22bc 492a 6fbb
000000a0: 5579 83bb bae8 30bc b94f abbb cf07 0cbc
000000b0: d27e a1bb 0626 33bc a982 f3bb d450 29bc
000000c0: a407 66bb 3627 00bc 06a7 b0ba c2b3 0ebc
000000d0: 53eb 43bb 08e4 45bc 70d2 d33a 5cbc babb
000000e0: b1fd 48bc f541 8dbc 77f0 873a ad29 30bc
000000f0: 67aa 36bc b291 11bd 3ebd efbc 6acb 38bd
00000100: 01a4 953d 9282 113d ead4 75bb 0d02 2cbb
00000110: 4a29 79bb e8a1 0dbc 4618 e7bb 61a3 29bc
00000120: 4e48 58bc 09f2 bcbb 1a31 35bc 52e9 f9bb
00000130: 6fb4 4fb9 5163 ddbb 88b8 3bbc 93ad a7bb
00000140: 5c1d e6bb 9218 ccbb f8c0 1dbc ab86 d7bb
00000150: d6a7 55bc ab8c bebb d713 81bb 4088 18bc
00000160: c1d5 05bc 4907 0fbc b663 64bb 4ffe b8bb
00000170: 5c76 f1bb 2f81 c1bb d7c5 dabc 773d 1ebd
00000180: 6e19 423d 5a1a f53a 5029 00ba 09c0 54bc
00000190: 3d2b ec39 d8ad dcbb adeb 07bc da3b ecba
000001a0: ba45 21bc 10a9 b73a 6af3 dcbb c59e 75bc
000001b0: 9943 20bc 43e2 5eba a4f3 cbbb c912 06bb
000001c0: 5a03 e0bb 17f2 e4bb 133d b4ba 00cd 5cbc
000001d0: 9d57 9bbb 0feb 06b7 1380 1abc 8c3e 11bc
000001e0: fc16 17bc 6404 26bb 8d1b 18bc 4ba8 c9bb
000001f0: 568c 15bb 6c86 6bbc 0bb9 553c b273 08bd
00000200: e4a3 153c 02a5 b7bc ef05 e63b 03e6 6bbc
00000210: 90c4 1dbc cac1 efbb 9981 dcba 6fe5 b8bb
00000220: 0e67 edbb 57e2 e0bb c98f d4bb 5004 b1bb
00000230: 5242 fdbb 73af d6bb 9c73 8bbb db77 26bc
00000240: e4b5 e4bb 5057 35bc 5f36 94bb aa27 b4bb
00000250: 23da fcbb f09d f8bb 9f88 8c3b cd5d 3cbc
00000260: 0190 f3bb 7294 11bc 7edb 86bb c2f8 d5bb
00000270: 73e3 283a 502b 26bc 41b5 3bbc 82c5 7abc
00000280: bb83 683c 1c93 5ebc 3f6b fbbb 2d2b e2bb
00000290: cd92 acbb f361 87bb 9614 21bc 17ed c2bb
000002a0: d1a0 c7bb 7c87 7cbb 619c c2bb 8dc8 00bc
000002b0: d279 9bbb f9b8 e5bb 899c 57bb 9ae5 58bc
000002c0: ea59 25bb 408a 2abc 443d aebb 7c6b 29bb
000002d0: 82a5 19bc bf8a ebbb c02e 11bc cd66 cdba
000002e0: 985d fbbb 8ee5 8bbb 5601 ffbb 68b3 2abc
000002f0: 991c ffba d1b1 833b 9fb6 81bc a974 19bd
00000300: 23de 173d 861f 2fbc 4ba6 8cbc 9c34 30bc
00000310: 20d2 61bb 5202 28bc b452 3dbb aaa8 45bc
00000320: 6d22 a9bb dec5 2fbc facc 56bc 6fce abb9
00000330: 80e9 28bc 7b8a 95bb 5a2c 1ebc 463c afbb
00000340: c817 17bc 66d6 55bb 7938 06bc 6439 dfba
00000350: 047c 3abc 79df e7bb a5a4 09bc 087b a1bb
00000360: 40ce a63a d129 5ebc 596d 85bb 6715 f9bb
00000370: f85e 51bb b98a d0b8 10c8 8abb 3c76 d8bc
00000380: e159 113c 32d7 30bc 6baf 40bc 0d7b 36bc
00000390: 87d4 60bb e7cf fbbb 450b 2dba 061b fcbb
000003a0: f4fc 2ebc afd2 9b3a a478 f1bb 9fab 6ebc
000003b0: 6614 ecbb 1b3a 1ebb 3cff 83ba 7738 07bc
000003c0: 9304 05bc 15f0 1cbc 830f 1abc 7512 b9bb
000003d0: eb22 23bc 39c9 bfbb 2c8f 1fbc 3ed0 2bbc
000003e0: 0b5e 90bb a132 2bbc d37b c7bb 6fb1 6dbb
000003f0: b07b a0bb 3e65 8cbb 20d7 6abc d828 0bbd

Linear.bias f4 [96]
-0.001959898 -0.0024951082 -0.004263789 -0.0045851893 -0.0041224808 -0.0042680926 -0.0054292367 -0.005287477
-0.0059786085 -0.0061340886 -0.0061867726 -0.0073388247 -0.006444556 -0.0050227987 -0.005087405 -0.005791894
-0.0062011257 -0.00718055 -0.0070680818 -0.007993814 -0.0077618714 -0.008466663 -0.0075363833 -0.0064854436
-0.006648771 -0.006769367 -0.007567789 -0.0064715 -0.0073111653 -0.006858896 -0.0069428 -0.008238688
-0.007863194 -0.009299288 -0.00955786 -0.009744363 -0.010700766 -0.010618623 -0.010539516 -0.010702647
-0.010319469 -0.010496852 -0.010546972 -0.010303419 -0.010143302 -0.009730485 -0.009192371 -0.01043594
-0.011609062 -0.010471205 -0.0102467155 -0.010482737 -0.010902968 -0.01048899 -0.011115187 -0.009667551
-0.009794304 -0.010303317 -0.010064705 -0.010488421 -0.011090463 -0.011501054 -0.010982943 -0.011938052
-0.012171215 -0.011684448 -0.0119378 -0.012252932 -0.013301139 -0.012276665 -0.011451624 -0.0123295905
-0.011263484 -0.011459196 -0.012199209 -0.011672994 -0.013108537 -0.012532521 -0.013321524 -0.012558208
-0.012790626 -0.012986526 -0.014138436 -0.013056251 -0.0129037 -0.013053972 -0.012222404 -0.011219877
-0.012098847 -0.011871933 -0.012580666 -0.012746566 -0.012929318 -0.012892662 -0.011746838 -0.0122006
00000000: a271 00bb f884 23bb 41b7 8bbb 5b3f 96bb
00000010: e015 87bb 5bdb 8bbb bde7 b1bb 9242 adbb
00000020: 34e8 c3bb 7700 c9bb 69ba cabb 867a f0bb
00000030: db2c d3bb 4a96 a4bb 3fb4 a6bb eec9 bdbb
00000040: d032 cbbb d24a ebbb 5e9b e7bb 7cf8 02bc
00000050: 4c57 febb c2b7 0abc c4f3 f6bb d883 d4bb
00000060: efdd d9bb 91d1 ddbb 37fb f7bb e00e d4bb
00000070: 8092 efbb 97c0 e0bb 6d80 e3bb 90fb 06bc
00000080: a0d4 00bc 0a5c 18bc 9298 1cbc d2a6 1fbc
00000090: 4452 2fbc bcf9 2dbc efad 2cbc 285a 2fbc
000000a0: fd12 29bc fdfa 2bbc 35cd 2cbc accf 28bc
000000b0: 1830 26bc 9d6c 1fbc 999b 16bc 81fb 2abc
000000c0: ef33 3ebc 6b8f 2bbc d7e1 27bc c9bf 2bbc
000000d0: 5da2 32bc 03da 2bbc 791c 36bc a664 1ebc
000000e0: 4a78 20bc 3ecf 28bc 6fe6 24bc a0d7 2bbc
000000f0: c6b4 35bc eb6e 3cbc cdf1 33bc d297 43bc
00000100: c769 47bc 2170 3fbc c396 43bc 86c0 48bc
00000110: 05ed 59bc 1124 49bc 989f 3bbc 0d02 4abc
00000120: 7a8a 38bc 5abf 3bbc 31df 47bc 1640 3fbc
00000130: 30c5 56bc 3455 4dbc 8542 5abc f1c0 4dbc
00000140: c68f 51bc 70c5 54bc e6a4 67bc e3e9 55bc
00000150: 0a6a 53bc 54e0 55bc 7a40 48bc 93d3 37bc
00000160: 3e3a 46bc 7f82 42bc 231f 4ebc f9d6 50bc
00000170: 7dd5 53bc be3b 53bc cf75 40bc 06e5 47bc
