weights/linear_freq_weights/RLinear_horizon96_lookback512_cycle_360/checkpoint.pth (torch, 198570 bytes, 2 tensors)

Linear.weight f4 [96, 512]
0	0xbbb835e3	-0.005621658
1	0xbc090a99	-0.008364343
2	0xba62070a	-0.0008622265
3	0xbbd65568	-0.006540943
4	0xbb6b4583	-0.0035899587
5	0xbc248a65	-0.010042761
6	0xbaeb391e	-0.0017946099
7	0xbb9ce928	-0.0047885366
8	0xbc230eef	-0.009952291
9	0xbbe5633b	-0.0070003546
10	0xbbccdbff	-0.0062518115
11	0xbbb2820f	-0.005447633
12	0x3a3c7020	0.0007188339
13	0xbc7af787	-0.015317804
14	0xbb1cd3f4	-0.0023930045
15	0xbc1d89f7	-0.009615413
16	0xbba101c6	-0.0049135415
17	0xbbf82484	-0.0075727124
18	0xbbba9684	-0.0056942124
19	0xbbd4ebbc	-0.0064978283
20	0xbb355db8	-0.002767427
21	0xbbc4f7ce	-0.006010986
22	0xbba58a6d	-0.005051902
23	0xbc327fb8	-0.010894708
24	0xbb637656	-0.0034707985
25	0xbbc64bcb	-0.0060515157
26	0xbbb8c2b5	-0.0056384453
27	0xbbf2c343	-0.007408531
28	0xbad62d2b	-0.0016340365
29	0xbc2092e7	-0.009800649
30	0xbbbe3d75	-0.005805666
31	0xbbff3946	-0.00778881
32	0xbb8c34a0	-0.0042787343
33	0xbc29697f	-0.010340094
34	0x3b10232e	0.0021993625
35	0xbc274cee	-0.010211213
36	0xbb3d24d0	-0.0028861053
37	0xbbbf3916	-0.0058356626
38	0xbb901a14	-0.00439764
39	0xbbc6151d	-0.0060449974
40	0xbc1d14d9	-0.00958749
41	0xbbe35b2e	-0.0069383597
42	0xba833728	-0.0010010945
43	0xbc5ad3b0	-0.013356134
44	0xbb565a79	-0.0032707734
45	0xbbe0dedd	-0.006862505
46	0xbbd8f12d	-0.0066205473
47	0xbc147d70	-0.00906311
48	0x3bdd5064	0.006753968
49	0xbc9901d0	-0.018677622
50	0xbb1f38d6	-0.0024295351
51	0xbc0333b2	-0.008007931
52	0xb96409ff	-0.00021747498
53	0xbc9c25fc	-0.019061081
54	0x3ba50bc1	0.0050368016
55	0xbbbb03d8	-0.0057072453
56	0xbbeba908	-0.007191781
57	0xbaa473c0	-0.0012546703
58	0xbc3ea55e	-0.011636106
59	0xbba2bae3	-0.0049661263
60	0xbbf9d682	-0.0076244483
61	0xbc0b8fef	-0.008518203
62	0xba2c8f3c	-0.0006582623
63	0xbc6edeb7	-0.014579467
64	0x3a467603	0.00075706857
65	0xbbf88739	-0.007584479
66	0xbb93b819	-0.00450803
67	0xbbacd1a1	-0.005274013
68	0xbc1e9314	-0.009678621
69	0xb9f92749	-0.0004752225
70	0xbc3513b5	-0.011052062
71	0xbae538d6	-0.0017488252
72	0xbc2cc302	-0.01054454
73	0xbb16b20a	-0.0022994303
74	0xbc18e297	-0.009331367
75	0xbbcccca5	-0.0062499815
76	0xbbde5950	-0.006785549
77	0xb9c83c55	-0.00038191924
78	0xbc15d06a	-0.009143928
79	0xbb74a47f	-0.0037329493
80	0xbc16b5f9	-0.009198659
81	0xbb95e1d5	-0.0045740404
82	0xbbc969a4	-0.0061466265
83	0xbb54d033	-0.003247273
84	0xbc208130	-0.009796426
85	0xbaac345d	-0.0013138164
86	0xbc23ef2d	-0.010005754
87	0xbbf709c8	-0.007539008
88	0xbb38409c	-0.0028114682
89	0xbc222430	-0.009896323
90	0xbc23b368	-0.009991504
91	0xbb0c179b	-0.0021376375
92	0xbbc58ef3	-0.0060290038
93	0xbabe13ff	-0.0014501809
94	0xbbb413a0	-0.0054955035
95	0xbc122122	-0.008919032
96	0xbb1b130e	-0.002366248
97	0xbc094a83	-0.008379581
98	0xbc010004	-0.007873539
99	0xbb06957b	-0.0020535875
100	0xbb7f8e03	-0.0038994558
101	0xbc3f176d	-0.0116633
102	0xbbefcebb	-0.0073183454
103	0xbb9c59af	-0.0047714333
104	0xbba9e7b0	-0.00518509
105	0xbc19e73e	-0.009393511
106	0xbc0ffaf5	-0.00878786
107	0xbaf1a49e	-0.00184359
108	0xbb6b9d0c	-0.0035951762
109	0xbc20b3df	-0.00980851
110	0xbb637e2f	-0.0034712662
111	0xbbb3118f	-0.0054647396
112	0xbb7dc2cc	-0.0038720844
113	0xbc7dc726	-0.015489375
114	0x3b703c1b	0.003665692
115	0xbc84b082	-0.016197447
116	0xbbae6829	-0.0053224755
117	0x3b18447a	0.0023234175
118	0xbc822bda	-0.01589005
119	0xbb82b23d	-0.003988533
120	0xbc336435	-0.010949184
121	0xbbe5e162	-0.007015393
122	0xbc574a00	-0.013140202
123	0x3c3a8cdc	0.011386123
124	0xbc77134d	-0.015080285
125	0x3adc3d3b	0.0016802916
126	0xbbfc33b8	-0.007696595
127	0xbbb96b78	-0.005658563
128	0xbc60eb52	-0.01372798
129	0xbb5e3da5	-0.0033911255
130	0xbba76458	-0.0051083975
131	0xbb1748d6	-0.0023084185
132	0xba96b844	-0.0011499007
133	0xbc8a49a1	-0.016880812
134	0xbb209553	-0.0024503067
135	0xbc8f5fc9	-0.017501729
136	0xbbfdeb34	-0.0077489857
137	0xbc49d0ae	-0.0123178195
138	0x3b38a3a6	0.0028173714
139	0xbc2acb78	-0.010424487
140	0xbb3e6025	-0.0029049006
141	0xbc04f811	-0.008115784
142	0xbbda9ab8	-0.006671276
143	0xbc9bd5d1	-0.019022854
144	0x3aedaddd	0.001813348
145	0xbbd723a6	-0.006565529
146	0xbb5f1a98	-0.003404295
147	0xbc2539e8	-0.010084607
148	0xbbf9dcc9	-0.0076251966
149	0xbcb53285	-0.022118816
150	0xbc30bef8	-0.010787718
151	0xbc831e19	-0.016005563
152	0x3c245cf8	0.010031931
153	0x3b99eeb4	0.004697645
154	0x3a197f1e	0.0005855429
155	0xbb8b78e4	-0.0042563546
156	0x3b8912ee	0.004183165
157	0x38929b89	6.990793e-05
158	0xbbad70d8	-0.005292993
159	0xbb78218b	-0.003786179
160	0xbc16d99b	-0.009207155
161	0xbb409cd7	-0.0029390359
162	0xb9afc8d5	-0.00033528233
163	0xbbf22811	-0.00739003
164	0xbac4d1ca	-0.0015016135
165	0xbc778ea9	-0.015109696
166	0xbbeb5e1d	-0.00718285
167	0x3b7ed1c1	0.0038882347
168	0x3b748fcf	0.0037317162
169	0xbc177826	-0.009244954
170	0xbbea3e98	-0.007148575
171	0xbc2a41da	-0.010391677
172	0xbb4676b2	-0.003028315
173	0xbc0723c8	-0.008248277
174	0x3b52ddb6	0.0032175607
175	0xbb816af6	-0.0039495183
176	0xbb7167a6	-0.003683546
177	0xbb0f041f	-0.0021822525
178	0xbc54a31b	-0.0129783405
179	0xbafd89ee	-0.0019343474
180	0xbc1fb9d6	-0.009748897
181	0xbba987a3	-0.00517364
182	0xbbb32b46	-0.005467805
183	0xbbdbab26	-0.006703752
184	0x3a0c119f	0.0005343202
185	0xbc219a63	-0.009863469
186	0xbb3575fb	-0.002768873
187	0xbc3906f4	-0.011293162
188	0xbb7095e3	-0.0036710433
189	0xbc085076	-0.008319965
190	0xbb1d1bfb	-0.0023972976
191	0xbc38863b	-0.011262472
192	0xbb02c3d2	-0.0019953144
193	0xba80630e	-0.0009795146
194	0xbc539e03	-0.012916091
195	0xbbed56f8	-0.0072430335
196	0xbb6f8bb8	-0.0036551785
197	0xbc3626f4	-0.011117686
198	0x3b80f794	0.0039357636
199	0xbc454511	-0.0120403925
200	0x3b156526	0.0022795885
201	0xbc0a0521	-0.008424074
202	0x3b079149	0.0020685962
203	0xbc9a276e	-0.01881763
204	0x3bc94f2f	0.0061434726
205	0xbc96c7e4	-0.018405862
206	0xba693f33	-0.0008897662
207	0xbc2a6836	-0.010400822
208	0xba9aaf79	-0.0011801563
209	0xbc75f236	-0.015011361
210	0xbb62488a	-0.00345281
211	0xbb909cc5	-0.0044132196
212	0xbc07502e	-0.008258862
213	0xbaf9d3fd	-0.001906037
214	0xbaa39dfb	-0.0012482995
215	0xbbd2c86d	-0.006432584
216	0xbbc5d52d	-0.0060373754
217	0xbbdf124e	-0.006807602
218	0xbae79cf6	-0.0017670679
219	0xbc7ead0b	-0.015544186
220	0xbadec770	-0.0016996693
221	0xbc2d51bf	-0.010578572
222	0xbbfe65a0	-0.0077635795
223	0xba96d46a	-0.0011507396
224	0xbba99f1b	-0.0051764376
225	0xbbea8186	-0.0071565537
226	0xbb8d970e	-0.0043209856
227	0xbb8484a7	-0.0040441337
228	0xbba4073a	-0.0050057443
229	0xbc07dc77	-0.008292309
230	0xbc1be1f2	-0.009514319
231	0xbb936918	-0.004498612
232	0xbb8202c9	-0.003967617
233	0xbc53a31f	-0.012917309
234	0x3a94181b	0.0011298688
235	0xbb8faab0	-0.004384361
236	0xbb6d6a7f	-0.0036226807
237	0xbc6462f0	-0.013939604
238	0x3b83a40f	0.00401736
239	0xbc932e8c	-0.017966531
240	0xbbb46244	-0.0055048782
241	0xbbc01a11	-0.0058624824
242	0x3b4b2544	0.0030997554
243	0xbc00169b	-0.00781789
244	0xbbfd3974	-0.007727796
245	0xbb5e772f	-0.003394555
246	0xbc03c913	-0.008043545
247	0xbb67e1ef	-0.003538247
248	0xbc071829	-0.008245506
249	0xbbdc6b8a	-0.006726687
250	0xbb8da443	-0.00432256
251	0xbbb96220	-0.0056574494
252	0xbbfb3bbb	-0.0076670325
253	0xbc074fb7	-0.008258752
254	0xbbb0e3d2	-0.005398252
255	0xbb74f0b8	-0.0037374925

Linear.bias f4 [96]
0	0xba98e3e3	-0.0011664595
1	0xbb12c51c	-0.0022395318
2	0xbb5edfa3	-0.003400781
3	0xbb8e35ec	-0.004339924
4	0xbb94731e	-0.0045303246
5	0xbbbe2b07	-0.005803469
6	0xbbd41d47	-0.0064732167
7	0xbbe23060	-0.0069027394
8	0xbbeec524	-0.0072866846
9	0xbbff63d5	-0.0077938833
10	0xbc035356	-0.008015474
11	0xbc0e4625	-0.008683716
12	0xbc193afa	-0.00935244
13	0xbc1ef977	-0.009703032
14	0xbc1f713a	-0.009731585
15	0xbc26928f	-0.010166778
16	0xbc2cfe9f	-0.010558753
17	0xbc34e06e	-0.011039836
18	0xbc3b58c3	-0.011434737
19	0xbc455b55	-0.012045701
20	0xbc45f6e2	-0.012082787
21	0xbc4edfeb	-0.012626628
22	0xbc52fbd1	-0.0128774205
23	0xbc5492f1	-0.012974487
24	0xbc60bb26	-0.013716495
25	0xbc64c1cb	-0.0139622195
26	0xbc69e988	-0.01427687
27	0xbc6e7668	-0.014554597
28	0xbc6f37ad	-0.0146006765
29	0xbc7206af	-0.014772101
30	0xbc733736	-0.014844706
31	0xbc7c5c4a	-0.015402863
32	0xbc804051	-0.015655668
33	0xbc81b22a	-0.015832026
34	0xbc81df19	-0.015853452
35	0xbc856c71	-0.01628706
36	0xbc84f3ea	-0.016229589
37	0xbc8778a0	-0.01653701
38	0xbc8a1c58	-0.016859218
39	0xbc8b0926	-0.016972136
40	0xbc8af9d5	-0.016964832
41	0xbc8933f5	-0.016748408
42	0xbc8a6067	-0.016891671
43	0xbc8fae8a	-0.017539281
44	0xbc92bb17	-0.017911477
45	0xbc90a103	-0.017654901
46	0xbc931e7f	-0.017958878
47	0xbc941d85	-0.018080482
48	0xbc94538a	-0.01810624
49	0xbc96d6de	-0.018413004
50	0xbc98bcae	-0.018644657
51	0xbc984312	-0.01858667
52	0xbc9ac52d	-0.018892849
53	0xbc9f3e82	-0.019438986
54	0xbca2f449	-0.019891875
55	0xbca49d0f	-0.020094423
56	0xbca82fde	-0.020530637
57	0xbcaa8829	-0.02081688
58	0xbcac6504	-0.021044262
59	0xbcad5a12	-0.021161113
60	0xbcb1fe87	-0.021727813
61	0xbcb303a4	-0.021852322
62	0xbcb3942b	-0.021921238
63	0xbcb6520f	-0.022255925
64	0xbcb95473	-0.022623276
65	0xbcb5bf10	-0.022185832
66	0xbcb6c20c	-0.022309326
67	0xbcb77cb2	-0.022398327
68	0xbcb86422	-0.022508685
69	0xbcbae140	-0.022812486
70	0xbcbc3077	-0.022972329
71	0xbcbf695e	-0.023365673
72	0xbcc0b4fd	-0.023523802
73	0xbcbfb063	-0.023399537
74	0xbcc040b0	-0.023468345
75	0xbcc3c840	-0.023899198
76	0xbcc511c5	-0.024056325
77	0xbcc61d9a	-0.024184037
78	0xbcc8b193	-0.024498736
79	0xbccabee5	-0.024749229
80	0xbccc934a	-0.024972577
81	0xbccb739a	-0.024835397
82	0xbccb1aeb	-0.024793109
83	0xbccb24d4	-0.024797834
84	0xbccf7a5e	-0.025326904
85	0xbccf08e4	-0.025272794
86	0xbcce59a8	-0.025189236
87	0xbccc8eec	-0.024970494
88	0xbccc6425	-0.024950096
89	0xbccc7f32	-0.024962995
90	0xbccca85f	-0.02498263
91	0xbccd13d0	-0.025033861
92	0xbccf6eda	-0.025321413
93	0xbcd1193e	-0.025524732
94	0xbcd18e48	-0.02558054
95	0xbcd228ed	-0.02565428
