weights/linear_freq_weights/RLinear_horizon96_lookback512_cycle_3600/checkpoint.pth (torch, 198570 bytes, 2 tensors)

Linear.weight f4 [96, 512]
00000000: 770c c2bc 583e 12bb 73ba 203c fd8a 1d3b
00000010: 3bf2 96b7 683c bfbc 1e3b 12bd 3adc 193d
00000020: 2a69 9bbc 913e 0abd 151b c13c 8865 34bd
00000030: 94e8 d83c d221 f5bc 462b a73c 24be 25bc
00000040: 1ac5 4dbb 739c f5bc 09c1 603b 9818 9bbb
00000050: 7a66 273b 47bb 14bd ed4b cc3c d34c 39bc
00000060: 5cfd 53bc c496 0bbd 32e5 193d efae e5bc
00000070: e7c3 7abc 57d7 65bc 63d0 563b 22df a8bb
00000080: 6929 97ba bcde cabc 340c 203b e73d d73c
00000090: b2f0 dcbc 512b 48bc e58f 7cbc 614f c6bc
000000a0: 41cd 193c 43a0 843c 87e7 69bb 8e8a 2cbd
000000b0: e637 693b 5aa2 b43a fe3d b33c 8875 2ebd
000000c0: a366 8fbb 4e4b e8bc c707 733c 7d7c 3dbb
000000d0: 2a05 69bc 47e7 0abc c809 7b3c 082e 00bd
000000e0: c466 8e3b 1355 c4bc 6773 733c afc0 bd3b
000000f0: 0cd3 21bd e1b5 5ebc 14d0 8bbb ff4d f93a
00000100: c5f1 eb3c 2e36 1fbd db19 72bb bf2b 84b9
00000110: a5d5 35bc 31dd 86bc 347a 6bbc bac7 cd3c
00000120: bd42 e4bc 54e3 e6ba 9843 4abc e0d1 bbbc
00000130: f902 d73c 6f8f 91bc d916 dcbc a465 f63c
00000140: 1c49 d5bc decd 27bc 5db8 473b f093 6abc
00000150: 5764 30bc de7e 15bc 7ab2 403b 93ab b6bc
00000160: e3ea 1dbc 9d32 cf3c 8c2b 23bc 7bc6 f7ba
00000170: e433 f2bc d2dd c2bc 5869 913c f3cb 4b3c
00000180: a475 3ebd 699a 223b 8e14 cc3a a73e cdbc
00000190: 4a4b a33c 32a9 91b7 f830 20bd c6bd 933c
000001a0: af21 a63b 64c2 0cbd e443 a0bc 09e9 833b
000001b0: 0a0a 643b 3dbf dcbb da1f 1cbc 9ac4 3bbc
000001c0: 2e4a ae3b fac2 cfbc 8a1f 153c 8026 10bd
000001d0: b62b d23c 9929 96bc 39c7 9fbc 5e1d fc3c
000001e0: 0c7d 73bc 7055 a1bc da76 f1bc e136 8f3c
000001f0: 26ed 31bd b879 a33c 7249 ffbb 70af a93c
00000200: 75b9 afbc 0fdc f4bc 549b e9ba d527 003d
00000210: 31c6 82bc 49cc 30bd 9d3b d43b 3949 10bc
00000220: cafe 06bc c7c6 923b 82ac c3ba f1f7 93bc
00000230: f84a fcbb b7db 673a c4b2 13bc c487 dcbc
00000240: 9497 883c 6029 f63b cc88 2fbd 7509 91bc
00000250: fadc 933c a480 ce3b c030 5fbc cb8c b2bc
00000260: 5a6c 5d3c 14cf 66bc 95bc aabc 8a11 2cbc
00000270: c705 b43c 5550 90bc f014 85bc 2782 1bbb
00000280: 0206 163b 6cc2 bebc 7726 09bc d6c7 1739
00000290: 60e5 c03b fac1 c7bc 1d52 a43b 9949 a5bb
000002a0: 4cd7 31bc 5915 dcbc bce3 22bc 9f13 713c
000002b0: 7ea4 76ba 02c5 7ebc d7ee 1fbc 0757 013b
000002c0: d0b3 9dbc f0dc 773c a0ca 07bd a994 a3bb
000002d0: ce29 733a dcab a63b 7b9d 9abc f38a 9ebc
000002e0: 3372 cd3c 7eeb c4bc 495b 81bc 95ff c9bc
000002f0: 92ff 0a3d ff8a 8fbb 1bfc ffbc f649 203c
00000300: af11 25bd fcc1 113c 7387 1e3c 25c8 65ba
00000310: 5478 a0bc f4ee 0cbd af7d b23c 06dc bbbc
00000320: 40a2 e63a bb02 50bc d8aa 5a3c 3fae d4bc
00000330: 2448 983c 2924 a5bc 3ccf c6bc 7a05 533b
00000340: c716 7a3c b332 42bd 0dd0 3f3b 4f53 cd3b
00000350: d3cf 5ebc 9b93 21bc 70d2 11bb 82aa 84bb
00000360: 0832 25bc 9f44 463b 8813 1a3c 373d 31bd
00000370: eb47 393c 7ad3 aebc 5d07 07bc afdc c63c
00000380: 558a 89bc 40f8 bbbc c001 0b3c 2e02 9cbc
00000390: 05a5 39bc 9644 8ebc bc45 453c 1826 8d39
000003a0: a68b 73bc 6681 e4bb aaed 0bba a579 edbc
000003b0: 1200 c23b 41bc 433c c8ed 173c 24db 1cbd
000003c0: 558d 02bd 15fd 413c d010 5cba 350a 8dbc
000003d0: ed4d b8bb 53d4 573c e492 bfbc 51bb adbc
000003e0: 65d1 873a 9602 b03c cdb5 80bc 06ff 36bc
000003f0: 5b1e e7bc 8051 f13b 7f1f e239 02ed 99bc
-0.023687584 -0.0022314992 0.009810078 0.0024039142 -1.799419e-05 -0.023344234 -0.03570091 0.03756354
-0.018971045 -0.033751074 0.023572484 -0.04404214 0.02647809 -0.029923353 0.020406377 -0.010116134
-0.0031398 -0.029981827 0.0034294745 -0.0047331564 0.0025543259 -0.036311414 0.024938548 -0.01130982
-0.012938824 -0.03407933 0.037572093 -0.028037516 -0.015305496 -0.014028392 0.0032778017 -0.0051535526
-0.0011532727 -0.024764411 0.0024421336 0.026274635 -0.026970241 -0.012217359 -0.0154151665 -0.024207773
0.009387315 0.0161897 -0.003569098 -0.042124324 0.0035586297 0.0013781295 0.021880146 -0.042592555
-0.004376249 -0.02835622 0.014833397 -0.0028913312 -0.014222423 -0.008477992 0.015322156 -0.0312939
0.0043457467 -0.023966348 0.014859057 0.005790792 -0.03950791 -0.013593168 -0.004266748 0.0019020437
0.028801808 -0.03887003 -0.003694168 -0.00025209595 -0.0110983 -0.016462894 -0.014372397 0.025119651
-0.027863855 -0.0017615356 -0.012345217 -0.022927225 0.026246535 -0.01776859 -0.026866363 0.030077763
-0.026035838 -0.010241954 0.003047488 -0.014317498 -0.01076611 -0.009124486 0.0029403255 -0.02229861
-0.009638521 0.025292689 -0.009959113 -0.0018903756 -0.029565759 -0.023787413 0.017750427 0.012438762
-0.04649891 0.0024811274 0.0015570091 -0.025054289 0.019933362 -1.7364135e-05 -0.0391092 0.018034827
0.0050699334 -0.034365073 -0.019563623 0.0040255827 0.0034796023 -0.0067366646 -0.009529078 -0.011460448
0.0053189015 -0.025361527 0.009101758 -0.035192966 0.025655609 -0.018330382 -0.019504176 0.030775722
-0.0148613565 -0.01969406 -0.029475618 0.017482223 -0.043439053 0.019955501 -0.007790738 0.020713538
-0.021450737 -0.029890088 -0.0017822781 0.031287987 -0.015963646 -0.04316357 0.006476833 -0.00880652
-0.008239457 0.0044792625 -0.0014928731 -0.018062564 -0.0076993667 0.0008844691 -0.009014789 -0.026920207
0.01667384 0.0075122565 -0.04285507 -0.017704705 0.018049706 0.0063019563 -0.013622463 -0.021795651
0.013514603 -0.014087457 -0.020841876 -0.0105022285 0.021975411 -0.01761643 -0.016245335 -0.00237287
0.0022891765 -0.023286067 -0.008370987 0.00014474927 0.0058867186 -0.024384487 0.0050146715 -0.005044174
-0.010854553 -0.026865648 -0.009941991 0.014714151 -0.00094086665 -0.0155499 -0.009761534 0.001973571
-0.01925078 0.015128359 -0.033152223 -0.004992087 0.0009275944 0.005086405 -0.01887392 -0.019353366
0.025078868 -0.024038073 -0.015790598 -0.024658004 0.033935137 -0.0043805833 -0.031248143 0.009783259
-0.040300068 0.008896347 0.009675848 -0.00087654806 -0.019588627 -0.03440757 0.021788446 -0.022932064
0.0017595962 -0.0126959635 0.013346396 -0.025961993 0.018589087 -0.020158844 -0.024268739 0.003219931
0.01526422 -0.04741163 0.0029268295 0.0062660347 -0.013599354 -0.009861852 -0.0022250675 -0.0040486464
-0.010082729 0.0030253304 0.009404071 -0.04327127 0.0113086505 -0.021341074 -0.008241502 0.024275152
-0.016789595 -0.022945523 0.008484304 -0.019044008 -0.011330848 -0.017366689 0.012040552 0.00026921998
-0.014864838 -0.0069734333 -0.0005337844 -0.028988669 0.0059204185 0.011946739 0.009273 -0.038294926
-0.031873066 0.011840125 -0.0008394839 -0.017216781 -0.005624524 0.013173181 -0.023385473 -0.021207483
0.0010362087 0.021485608 -0.01571169 -0.011169201 -0.028212717 0.007364452 0.00043129546 -0.018789772

Linear.bias f4 [96]
00000000: 6bd5 aeba d329 09bb a17a 54bb 0626 9dbb
00000010: e558 babb dd8c e8bb 77d3 0dbc 26bc 1abc
00000020: c2f3 2ebc 0384 4ebc be7c 59bc 52ae 6ebc
00000030: fba4 83bc ffdc 8ebc 0791 98bc cef7 a2bc
00000040: eb59 acbc 4e7b b7bc fb1a c3bc 616a cbbc
00000050: 8665 d9bc 250a e2bc d99b edbc 004c f6bc
00000060: fb27 00bd 5589 04bd f240 0abd 05b3 0fbd
00000070: 7060 13bd 98d7 17bd 7def 1bbd 5ca2 1ebd
00000080: aa12 23bd 3c18 27bd 2799 2abd 40d9 2ebd
00000090: 3d50 32bd 97c3 36bd e913 3abd f28e 3dbd
000000a0: 5fed 41bd 00cd 45bd 6ae2 49bd fed0 4dbd
000000b0: d917 52bd af17 55bd 3e23 59bd 8f68 5dbd
000000c0: 10c3 61bd 6239 66bd e096 68bd 97cd 6bbd
000000d0: 9b48 6fbd 2a56 72bd 8350 76bd 4938 79bd
000000e0: 5b01 7dbd f30a 80bd 3c98 81bd a943 83bd
000000f0: bb74 85bd cf8b 87bd 59e4 89bd 7ec6 8bbd
00000100: 76a3 8dbd b9bb 8fbd 1e22 91bd 80e4 93bd
00000110: eb09 96bd 02fc 97bd 432b 99bd d320 9abd
00000120: ea0a 9cbd 27fe 9dbd 20ff 9ebd ff24 a1bd
00000130: 46f7 a2bd 7ad3 a3bd bda3 a5bd a629 a7bd
00000140: fbd1 a8bd 3915 abbd 5813 adbd e005 afbd
00000150: 9afb afbd 79f2 b0bd b108 b2bd 35e1 b2bd
00000160: 4b8f b3bd 5e56 b3bd 8033 b3bd 13fb b2bd
00000170: c15b b3bd e3a1 b3bd 871a b4bd 83ba b3bd
-0.001333875 -0.002092947 -0.0032421725 -0.0047957925 -0.0056868666 -0.0070968703 -0.008656374 -0.009444272
-0.010678234 -0.012604716 -0.01327437 -0.014567928 -0.01606988 -0.017439364 -0.018623842 -0.019893553
-0.02103897 -0.022397663 -0.023816576 -0.024830999 -0.026537668 -0.027592728 -0.029004978 -0.030065536
-0.03128813 -0.032357533 -0.033753343 -0.035082836 -0.03598064 -0.03707084 -0.03807019 -0.038729057
-0.03981272 -0.040794596 -0.041649964 -0.042687654 -0.043533552 -0.044620123 -0.045429144 -0.0462789
-0.047345515 -0.048291206 -0.04928819 -0.05024814 -0.051292274 -0.05202454 -0.053012125 -0.054054793
-0.055117667 -0.05620707 -0.05678451 -0.057569113 -0.05841885 -0.059164204 -0.060135376 -0.060844693
-0.06176887 -0.062520884 -0.063278645 -0.064093895 -0.06516405 -0.06618463 -0.06733007 -0.06824969
-0.06915943 -0.07018227 -0.070865855 -0.07221317 -0.073261105 -0.074211136 -0.07478955 -0.07525792
-0.07619269 -0.07714491 -0.07763505 -0.078683846 -0.0795732 -0.0799932 -0.08087871 -0.08162241
-0.082431756 -0.08353657 -0.08450955 -0.085460424 -0.08592911 -0.08639998 -0.08693064 -0.08734361
-0.08767565 -0.087567076 -0.08750057 -0.08739295 -0.08757735 -0.08771112 -0.08794122 -0.08775809
