weights/linear_freq_weights/RLinear_horizon96_lookback512_cycle_8/checkpoint.pth (torch, 198570 bytes, 2 tensors)

Linear.weight f4 [96, 512]
0	0xbb1dd4c5	-0.002408312
1	0xbc1eb03d	-0.009685573
2	0xbc41663b	-0.011804159
3	0xbc524129	-0.012832918
4	0xbb37cc14	-0.0028045224
5	0xbb8574dd	-0.004072769
6	0xbbba8a28	-0.005692739
7	0xbcafb47a	-0.021448363
8	0x3cb2a6c8	0.021808043
9	0x3bc6de3f	0.0060689743
10	0xbb8c634e	-0.004284299
11	0xbba5afc9	-0.0050563556
12	0xbbd1ad23	-0.0063988133
13	0xbb1fdf77	-0.002439467
14	0xbca4aeb4	-0.020102836
15	0xbcaa4995	-0.02078704
16	0x3bc595b9	0.006029811
17	0xbab6e7bc	-0.001395456
18	0x3a896fc6	0.0010485582
19	0x3b8d6d4f	0.004316009
20	0xbbeebceb	-0.0072857044
21	0xb98adfae	-0.00026488065
22	0xbc1ccfb8	-0.009571008
23	0x3af205b3	0.0018464833
24	0xbcb90b55	-0.022588411
25	0x3b9986da	0.004685265
26	0xbbf628e5	-0.007512199
27	0xbca3993c	-0.019970529
28	0xbc6fb474	-0.014630426
29	0xbc333147	-0.010937042
30	0xbc011c4d	-0.007880283
31	0xbbde10e2	-0.006776915
32	0xbc798cc5	-0.015231316
33	0xbb984a71	-0.004647546
34	0xbbbf44a3	-0.0058370396
35	0xbc278236	-0.010223916
36	0xbc855d4c	-0.016279839
37	0xbbfd39ae	-0.007727823
38	0xbc0a19e2	-0.0084290225
39	0xbb54819c	-0.0032425886
40	0xbc42a0bb	-0.011879141
41	0xbbccdeea	-0.0062521594
42	0xba08374b	-0.00051962276
43	0x3c1c5fd0	0.009544328
44	0x3ba24ed9	0.004953247
45	0xbc0b5968	-0.008505203
46	0xbb8adb8b	-0.0042375973
47	0xbb5f991d	-0.0034118362
48	0xbc9655c4	-0.018351443
49	0xbc8cb064	-0.017173953
50	0xb99ebb09	-0.0003027546
51	0xbbd18a80	-0.0063946843
52	0xbcb55f46	-0.022140156
53	0xbc842912	-0.016132865
54	0xba2fc881	-0.00067055976
55	0xbc09aee1	-0.008403511
56	0xbb09ccda	-0.0021026642
57	0x3b8d1758	0.0043057613
58	0xbb99d172	-0.0046941573
59	0xbc3af097	-0.0114099
60	0xbc758152	-0.014984446
61	0x3b2084a5	0.0024493125
62	0xbc82d244	-0.015969403
63	0xbc94ac3b	-0.018148532
64	0x3cc99614	0.024607696
65	0xbb2f3ac0	-0.0026737899
66	0x3ba56e34	0.0050485376
67	0xbb0e8993	-0.002174948
68	0xbc874362	-0.016511623
69	0xbc9ed897	-0.019390387
70	0xbb4d4900	-0.003132403
71	0xbc331aea	-0.01093171
72	0xbc7236ff	-0.01478362
73	0xbb0d755b	-0.0021584842
74	0xbc5def21	-0.013545782
75	0xbc30e926	-0.010797774
76	0xbafaa83d	-0.0019123625
77	0xbc88f852	-0.01671997
78	0xbaa7937f	-0.0012785046
79	0xbbbdc737	-0.0057915705
80	0xbb99d20e	-0.00469423
81	0xbc21867a	-0.009858722
82	0xbc801692	-0.015635762
83	0xbb34380f	-0.0027499234
84	0x3c7a11c4	0.015263025
85	0x3bb53d2c	0.005530974
86	0xbc52ed60	-0.012873977
87	0x3c864c5c	0.016393833
88	0xbc1e36a8	-0.009656586
89	0xbc1a6d8f	-0.009425535
90	0xba10dc60	-0.00055260025
91	0xbc9ab2e7	-0.018884135
92	0xbbb2ab80	-0.0054525733
93	0xbc878441	-0.016542556
94	0x3b837a0f	0.0040123533
95	0x3af15f90	0.0018415321
96	0xbc84598a	-0.016155977
97	0xbc0f12d3	-0.008732515
98	0xbae3bb89	-0.0017374615
99	0xbc055055	-0.008136828
100	0xbbefaa94	-0.0073140357
101	0xba2dce8d	-0.0006630205
102	0xbc939016	-0.018013041
103	0xbc36110d	-0.011112464
104	0xbc992c47	-0.01869787
105	0xbbb71b76	-0.0055879904
106	0x3af63f52	0.0018787181
107	0xbc384cfa	-0.011248821
108	0x3a83d0c0	0.0010056719
109	0xbb9d6444	-0.0048032124
110	0xbc6ee1a7	-0.014580167
111	0xbb09f092	-0.0021047932
112	0x3bb77ec1	0.005599827
113	0xbb6aa54c	-0.003580409
114	0xbc5b2880	-0.013376355
115	0xbba5873f	-0.005051523
116	0xbc288a45	-0.010286872
117	0x3b9ea611	0.004841574
118	0x3ab9c98b	0.0014174444
119	0xbc9dfab6	-0.019284587
120	0x3d0cd57c	0.034383282
121	0xbc3b80bf	-0.01144427
122	0xba952ad6	-0.0011380564
123	0xbc81c2b8	-0.01583992
124	0xbbc23c59	-0.005927604
125	0xbc2a15bf	-0.010381161
126	0xbc2207ed	-0.009889585
127	0xbc01d79f	-0.007924943
128	0x3c04dcb3	0.008109259
129	0xbb7c79a2	-0.0038524647
130	0xbb60fcb7	-0.0034330317
131	0xbc3a1e38	-0.011359744
132	0xbbe184ed	-0.006882301
133	0x39bf800b	0.00036525758
134	0xbc358709	-0.011079558
135	0xbb310e98	-0.0027016755
136	0xbcb31687	-0.021861328
137	0xbb1f2b41	-0.0024287256
138	0xbb803ac6	-0.0039132563
139	0x3b262692	0.002535258
140	0xbb990246	-0.0046694605
141	0x3b6f8a48	0.0036550928
142	0xbbb2f7fa	-0.00546169
143	0xbc2f829e	-0.010712294
144	0xbcb0380e	-0.021511104
145	0x3b96013e	0.004577785
146	0xbc2a82c0	-0.01040715
147	0xbc8a25f9	-0.01686381
148	0xbbe8c0cd	-0.007103062
149	0xbb4e7797	-0.0031504387
150	0x3bfbb215	0.007681141
151	0x3a0afcf8	0.00053019775
152	0xbc09ca96	-0.008410117
153	0xbc06b2f1	-0.008221374
154	0xbc847ac7	-0.016171826
155	0x3a9766c8	0.0011551017
156	0xba866fe6	-0.0010256737
157	0xbc71ecaf	-0.014765902
158	0xbc3bba5b	-0.011458005
159	0xbafff41a	-0.0019527704
160	0xbc2f5496	-0.010701319
161	0xbbb4b45e	-0.0055146655
162	0xbc383b78	-0.011244647
163	0xbbd16ff1	-0.0063915183
164	0x3b18882e	0.0023274529
165	0xbb5c6eb1	-0.0033635313
166	0xbb87fb5a	-0.0041498365
167	0xbc009595	-0.007848163
168	0x39c87195	0.00038231598
169	0xbb7abc98	-0.0038259383
170	0xbc7fc8c8	-0.015611835
171	0x3bddbb18	0.006766688
172	0xbbe25a8d	-0.006907767
173	0xbbc8096b	-0.0061046383
174	0xbc2ca047	-0.01053626
175	0xbcec18ec	-0.028820477
176	0x3d09317b	0.033494454
177	0xbca6a6bd	-0.020343179
178	0xbabc0c3c	-0.0014346908
179	0xbbbca91f	-0.0057574655
180	0xbc831af8	-0.01600407
181	0xbc340839	-0.010988289
182	0xbbcd6204	-0.006267788
183	0xbc7b3478	-0.015332334
184	0x3c363625	0.0111213075
185	0xb947f3da	-0.0001906896
186	0xbc08cea1	-0.008350045
187	0xbc50da1c	-0.012747314
188	0xbc5c5573	-0.013448107
189	0xbc1b299f	-0.009470372
190	0xba7f08f5	-0.0009728813
191	0xbb8a0309	-0.0042117876
192	0xb8b95f69	-8.839259e-05
193	0xbb41f9ac	-0.002959828
194	0x3a237e20	0.00062367506
195	0xbc051704	-0.008123163
196	0xbc85a418	-0.016313598
197	0xbb0eae43	-0.0021771349
198	0xbc613a51	-0.013746814
199	0xbb3d14d7	-0.0028851533
200	0xbb66371e	-0.0035128067
201	0x39d5991c	0.000407406
202	0xbc1de920	-0.009638101
203	0x3b87776a	0.0041341083
204	0xbc09a929	-0.008402147
205	0xbc96e57d	-0.018419975
206	0xbbaeef4d	-0.0053385855
207	0xbbb75f41	-0.005596072
208	0xbbe97210	-0.007124193
209	0xbcc51b12	-0.02406076
210	0xbc215898	-0.009847783
211	0x3ad68f07	0.001636953
212	0xbc380a4b	-0.011232923
213	0xbc859564	-0.016306587
214	0xbac7b845	-0.0015237412
215	0xbb9d2c38	-0.004796531
216	0xbb471aaa	-0.0030380883
217	0xbc68a70b	-0.014199982
218	0xbc333027	-0.010936773
219	0xbb1b8492	-0.002373014
220	0xbbfdc0c7	-0.007743928
221	0x3b4acc70	0.0030944608
222	0xbb04405e	-0.0020179967
223	0xbce7d0f3	-0.028297877
224	0x3c1b12ad	0.009464902
225	0xbcdbb31a	-0.0268188
226	0xbc6e9a6e	-0.014563186
227	0x3be742be	0.007057517
228	0xbc1a5b82	-0.009421231
229	0xbc2f25b1	-0.010690139
230	0xbc4a33e6	-0.012341475
231	0xbd0441a6	-0.03228917
232	0x3d1746b4	0.036932662
233	0xbc8847a6	-0.016635727
234	0xbbbc4812	-0.005745896
235	0xbb815dba	-0.0039479407
236	0xbc3accb8	-0.011401348
237	0xbbd7269e	-0.006565883
238	0x38ad191a	8.2539584e-05
239	0xbc834a87	-0.016026748
240	0x3c88416f	0.016632764
241	0xbb7ac271	-0.0038262869
242	0xbc08fc5e	-0.00836095
243	0xbbf2f808	-0.0074148215
244	0x3aecc418	0.0018063812
245	0xbc095a8a	-0.008383403
246	0xba86561e	-0.0010249054
247	0x3aea12de	0.0017858406
248	0xbc1be126	-0.009514129
249	0xbce1a936	-0.027546506
250	0xbbe06b80	-0.0068487525
251	0xbc80ebbc	-0.015737407
252	0xbbcfc5d9	-0.006340724
253	0xbc2d989e	-0.010595469
254	0x3ae23dd7	0.0017260861
255	0xbc69281a	-0.014230752

Linear.bias f4 [96]
0	0xbb895674	-0.004191214
1	0xbb9dbb3c	-0.00481358
2	0xbc102339	-0.00879746
3	0xbc1e1f03	-0.009650948
4	0xbc0a6642	-0.008447232
5	0xbc7228d5	-0.014780243
6	0xbc47f83e	-0.012205182
7	0xbc08f04f	-0.008358075
8	0xbc3a269c	-0.011361744
9	0xbc52fcc2	-0.012877645
10	0xbc4273bc	-0.011868414
11	0xbc91d8fd	-0.017803663
12	0xbc301cc9	-0.01074905
13	0xbc476205	-0.012169366
14	0xbc25ca34	-0.01011901
15	0xbc3c5185	-0.011494045
16	0xbc61fe27	-0.013793505
17	0xbc23216a	-0.009956697
18	0xbc2b4b82	-0.010455014
19	0xbc6ed696	-0.014577528
20	0xbc8297c6	-0.015941512
21	0xbc50be45	-0.012740676
22	0xbc5f306d	-0.013622385
23	0xbc539ced	-0.012915832
24	0xbc8efdf6	-0.017455082
25	0xbc8f45a3	-0.01748926
26	0xbcb657a2	-0.022258583
27	0xbc81ee28	-0.015860632
28	0xbc9cfd97	-0.01916389
29	0xbca502c6	-0.020142924
30	0xbc8f8333	-0.017518615
31	0xbc7acc9f	-0.0153075745
32	0xbca24172	-0.019806597
33	0xbca38449	-0.01996054
34	0xbcbd0f99	-0.023078727
35	0xbcae55d7	-0.021281166
36	0xbc9d8727	-0.019229485
37	0xbc983db0	-0.018584102
38	0xbcab8ac2	-0.020940188
39	0xbc8c569a	-0.017131139
40	0xbcaed697	-0.021342559
41	0xbc98d98f	-0.018658428
42	0xbc93ae82	-0.018027548
43	0xbc861b6d	-0.0163705
44	0xbcb11b51	-0.02161947
45	0xbc98f231	-0.018670173
46	0xbc800665	-0.01562805
47	0xbca0b77d	-0.019618744
48	0xbc9bd056	-0.01902024
49	0xbc8ffed8	-0.017577574
50	0xbc967c10	-0.018369704
51	0xbc8ff7d0	-0.01757422
52	0xbc967e8d	-0.018370891
53	0xbca3ffc1	-0.020019414
54	0xbc865932	-0.016399954
55	0xbca12322	-0.019670073
56	0xbcd81b2a	-0.02638014
57	0xbcc3eb24	-0.023915835
58	0xbccc0700	-0.024905682
59	0xbcd0d2d8	-0.025491163
60	0xbcaa02ae	-0.02075323
61	0xbcafe3df	-0.021470962
62	0xbca5be9b	-0.02023249
63	0xbca96b93	-0.020681178
64	0xbcc2b14a	-0.023766179
65	0xbce37d1c	-0.027769618
66	0xbccd8d2a	-0.025091726
67	0xbceef36a	-0.029168803
68	0xbce58891	-0.028019221
69	0xbcd8da0e	-0.026471164
70	0xbcd5dbec	-0.026105843
71	0xbcf830e5	-0.030296752
72	0xbceec866	-0.029148292
73	0xbceb4c63	-0.028722947
74	0xbce03168	-0.027367309
75	0xbceade3c	-0.028670423
76	0xbcd6a5da	-0.026202131
77	0xbd010ff7	-0.031509366
78	0xbce589c4	-0.028019793
79	0xbce4348d	-0.02785709
80	0xbcf0a233	-0.029374218
81	0xbcffa55a	-0.031206775
82	0xbcdb5ae7	-0.026776744
83	0xbce7fe7c	-0.02831959
84	0xbce4826d	-0.027894223
85	0xbd024914	-0.031807974
86	0xbceb84c2	-0.028749827
87	0xbcd1c572	-0.025606845
88	0xbcf45317	-0.029824777
89	0xbcdecd3c	-0.027197473
90	0xbd10648d	-0.035252143
91	0xbcfcfeed	-0.030883277
92	0xbd028d2c	-0.031872913
93	0xbd13f6f1	-0.036124174
94	0xbcf4c192	-0.029877458
95	0xbcf78d97	-0.030218882
