weights/linear_freq_weights/RLinear_horizon96_lookback512_cycle_384/checkpoint.pth (torch, 198570 bytes, 2 tensors)

Linear.weight f4 [96, 512]
00000000: 31a1 12bc 4a8e 75bb 6107 0dbc d512 36bb
00000010: d48f 07bc 877e 203a de37 88bc 7c2d 4d3a
00000020: 3a06 0cbc 0215 8dbc ec16 243c ef70 81bc
00000030: 8d8f 1e3a 15ae 7abc 4415 433b b6e3 6abc
00000040: fea8 69bb 50da a9ba 74b6 1ebc 33bd e7bb
00000050: d4b4 eabb 9a66 16bc c111 99ba 92db 55bc
00000060: 748c 403a f7a6 4cbc ed02 e23b d9bb 98bc
00000070: a636 82bb fac3 02bc 912c a9bb 4f87 97bb
00000080: 4f31 3ebc eed9 89bb 38b0 12bc e2f9 b4bb
00000090: ee90 90bb 031e 3ebb 0f6c 2fbc 9663 b4bb
000000a0: dba6 bfbb 7b46 f3bb 351c e4bb 8a48 0dbc
000000b0: c8a0 4737 c475 7abc 600c a03b aac2 8dbc
000000c0: eaf1 5dba 310b cdbb ea0c 49bb db42 07bc
000000d0: f23f 003a 0610 4abc 652a 5fba 00da 57bc
000000e0: 37c7 a63a 26ca 29bc 94e2 6dbb 9688 29bc
000000f0: 2321 6fbb 1170 0fbc 4020 debb c886 0fbc
00000100: 50ca 2abb 9ffc b4bb 3ec6 25bb 8d69 36bc
00000110: 6f86 b6bb db5c 3ebb ef01 2abc 296f adbb
00000120: 146c 9dbb 1afe 6fbb 5acd 36bc 35e0 2ebc
00000130: 9c05 c4bb 7639 7bbb 9204 06bc d939 20bc
00000140: 41e4 8ebb 70b9 4dbb 3363 debb a1fc ecbb
00000150: f3c4 84bb f10e 03bc c4a3 39bb fef0 6bbc
00000160: 060b a3bb 0855 ccba d4fc a6bc 7a7a 2f3b
00000170: 8bd8 2bbc 5bfe 14bc 64d5 d6bb eb1e f4bb
00000180: 9f4a 0abb bcb4 2abc f164 b53a daf9 68bc
00000190: f8c4 8cbb fe15 df3a c319 81bc 9d4d d4bb
000001a0: 78ac 83bb 7c7f 70bb 1878 85bb 3b67 9abb
000001b0: bed2 21bc 3d9e 28bc cb12 0bbc 4e00 61bc
000001c0: 12e1 733a 84d4 a0bc c3c9 423c 0f49 aebc
000001d0: d37b ac3b a836 16bc b0c1 6ebc 9e0d b8bb
000001e0: 4585 e4bb 0da3 fd3b a51e 8bbc 5e10 46bb
000001f0: b204 4ebc 8af9 24bc 6d89 8bbc 177b 40bc
00000200: 5ae4 ab3b d830 cf3b 3a7b d5bb 98fe 43ba
00000210: bc43 c9bb dfe5 23b9 792f b8b9 ecc3 2dbc
00000220: 48d4 49bb bf02 bfbb 4487 93bb 1383 e6bb
00000230: cede 87bb bd32 e7bb cfeb d9bb 1196 43bc
00000240: 6f70 49bb 09f7 9f3b e417 40bc 7c8f 06bc
00000250: 6236 9bbb 183e dbbb 641a c9bb 30f9 efbb
00000260: f30c e03a 5a19 c5bb fdca 9abb 839c 15bc
00000270: aaaf b4bb f1ed 7ebb 0102 34bc d88b 85bb
00000280: 9a75 d9bb 62ab 16bc 6e1f ee3a 1de0 20bc
00000290: 1179 2dbb d996 3bbc 92ff 79bb 338f 2abc
000002a0: f9bd 88bb 380a 673a 2438 a1bc 6565 443b
000002b0: 5eb0 f7bb e057 06bc 6f3b 11bc 1f96 99bb
000002c0: 8198 18bc f1ad 183b 58c3 3abc 3d90 dbba
000002d0: 761e 2ebc 7d56 3f3a 309f d9bb 300c 2cbc
000002e0: 524c 8cbb 8903 02bc 8101 7abb bc25 03bc
000002f0: 7a34 37bc a86e 38bb c453 55bc ded3 f73a
00000300: f8b7 42bc 6738 5ebb a782 e1bb 5e25 3abb
00000310: ddb1 dabb 053f 48bc e972 173c 3e03 a9bc
00000320: f25c 293a 20fe 8bbc 72c8 1f3b ccc9 41bc
00000330: 6767 0fbb fd25 16bc 8486 74bb df0b 94bb
00000340: 1908 a0bb 7ebc 4cbc 9311 723b d1b9 67bc
00000350: ee53 7abb 9627 33bc 3132 8abb 738b fcbb
00000360: c5af 46bb 4940 f9bb cde8 cb3a aaa5 64bc
00000370: 4ceb 85bb 86a7 fbbb 9a53 43bc 00bb 1dbb
00000380: 5f12 59bb 803b 16bc 4e39 fb3a 245a 58bc
00000390: cf76 afbb b140 02bc af7d 5439 17a4 46bc
000003a0: 90b0 97bb 4df3 eabb 9b15 3cbb ca01 31bc
000003b0: 17b0 89ba 6da9 81bc 78cd b439 8749 3ebc
000003c0: fb1e 7ebb 4156 3fba 22f5 1ebc 382c a6bb
000003d0: 5a46 0fbc 2eab 9ebb fb21 03bc a747 b8bb
000003e0: 788e e9bb 2303 2a39 ffb8 9ebc 7c96 fb3a
000003f0: 7d4f 79bb e532 49bc c3a0 6ebb 05ba 26bc
-0.008949564 -0.0037468844 -0.008607716 -0.002778222 -0.008274037 0.00061223697 -0.016628202 0.0007826907
-0.008546406 -0.017221931 0.010015231 -0.015800921 0.00060486124 -0.015300293 0.0029767314 -0.014336517
-0.0035653706 -0.0012958739 -0.009687055 -0.007072115 -0.0071626697 -0.009179736 -0.0011678265 -0.013052838
0.0007345148 -0.012490979 0.0068973214 -0.01864426 -0.0039737998 -0.007981295 -0.0051627834 -0.0046242843
-0.011608436 -0.0042068874 -0.008953147 -0.0055229524 -0.004411808 -0.0029009588 -0.0107069155 -0.0055050356
-0.005848748 -0.0074241734 -0.0069613704 -0.008623252 1.1898759e-05 -0.015286867 0.0048842877 -0.017304737
-0.0008466529 -0.0062574376 -0.0030677863 -0.008255686 0.0004892341 -0.012332922 -0.0008513092 -0.013174534
0.0012724166 -0.010363137 -0.0036298381 -0.010347506 -0.0036488257 -0.008754746 -0.006778747 -0.008760162
-0.002606053 -0.005523279 -0.0025295164 -0.011133564 -0.005570225 -0.0029047045 -0.010376438 -0.0052927923
-0.0048041437 -0.0036619962 -0.011157358 -0.010673572 -0.005982114 -0.003833381 -0.008179801 -0.009779417
-0.004360706 -0.0031391047 -0.006786728 -0.007232264 -0.0040517985 -0.007999168 -0.0028326372 -0.014400719
-0.0049756793 -0.0015589306 -0.02038423 0.0026775883 -0.01048864 -0.009093846 -0.0065562 -0.007449975
-0.0021101607 -0.010419067 0.0013839287 -0.0142197255 -0.0042959414 0.0017020104 -0.015759354 -0.006478979
-0.0040183626 -0.003669708 -0.004073154 -0.004712013 -0.009876905 -0.010291633 -0.008488367 -0.013732983
0.00093032524 -0.019632585 0.011888924 -0.021275071 0.0052637844 -0.0091683045 -0.014572546 -0.0056168577
-0.006973895 0.0077403844 -0.016982386 -0.0030222158 -0.012574362 -0.01006926 -0.017033303 -0.011748097
0.0052457275 0.0063229613 -0.006514934 -0.0007476597 -0.006142108 -0.00015630525 -0.00035130585 -0.010605793
-0.0030796696 -0.005829185 -0.004502209 -0.0070346682 -0.0041464334 -0.007055609 -0.006650425 -0.011937634
-0.0030737182 0.004881744 -0.011724446 -0.00821292 -0.0047367075 -0.0066907518 -0.006137179 -0.0073234066
0.0017093703 -0.006014985 -0.004723905 -0.009131554 -0.005514105 -0.0038899148 -0.010986806 -0.0040755086
-0.0066363337 -0.009196134 0.0018167326 -0.009819058 -0.0026469866 -0.011449539 -0.0038146717 -0.010410118
-0.004173037 0.00088134734 -0.01968009 0.0029967662 -0.0075588664 -0.008199662 -0.008864268 -0.0046870853
-0.0093137035 0.0023297037 -0.011399113 -0.001675136 -0.01062738 0.00072989595 -0.006641291 -0.010500953
-0.004281559 -0.007935413 -0.003814787 -0.008004602 -0.011181945 -0.0028142128 -0.01302046 0.0018907746
-0.011884682 -0.003390813 -0.00688203 -0.002840362 -0.006674035 -0.012222056 0.009243705 -0.020631429
0.00064606883 -0.01708895 0.002438095 -0.011827897 -0.00218817 -0.009164331 -0.0037311623 -0.0045180167
-0.004883778 -0.012496112 0.0036936745 -0.014143423 -0.0038196999 -0.010934731 -0.004217409 -0.0077070533
-0.003031717 -0.0076065403 0.0015557051 -0.013955513 -0.0040868875 -0.0076798825 -0.011921788 -0.002406776
-0.0033122522 -0.009169459 0.0019166858 -0.013205085 -0.0053547393 -0.007949994 0.00020264716 -0.012124083
-0.004629202 -0.007170117 -0.0028699401 -0.010803649 -0.0010504749 -0.015827859 0.00034485362 -0.01161421
-0.003877579 -0.00072989246 -0.009701999 -0.0050711893 -0.0087448 -0.0048421836 -0.008003707 -0.005623776
-0.0071275793 0.00016213632 -0.019375322 0.0019194628 -0.0038041763 -0.012280201 -0.003641174 -0.010176186

Linear.bias f4 [96]
00000000: 9f53 6eb7 08a0 7dba 96ce 00bb 1068 40bb
00000010: c08f 83bb 8811 a7bb ad5a bdbb 0fc5 d2bb
00000020: 9cb7 f2bb a7e7 febb 8383 09bc 0f2d 11bc
00000030: 6490 19bc d75d 1ebc 60a9 26bc 98c8 2abc
00000040: 30fb 2fbc db34 35bc 3ddb 39bc 0418 43bc
00000050: 39ed 52bc fe31 53bc 58f2 5bbc 1e4a 65bc
00000060: c5c6 68bc 40b7 69bc 5b14 6ebc 5198 77bc
00000070: 20e2 79bc 1acc 81bc 531c 84bc bf75 87bc
00000080: 057f 87bc 6cb6 8dbc 5636 8ebc 0de4 8fbc
00000090: 16a2 92bc 9249 94bc 1e9e 92bc 46b6 90bc
000000a0: aab6 91bc 4cb1 93bc 9aba 94bc 1363 97bc
000000b0: 0f3c 9abc 4574 9bbc 52bc 9dbc aed2 a0bc
000000c0: 497e a0bc 98af a5bc df94 a6bc 50aa a5bc
000000d0: 53eb a8bc d5a5 a9bc d231 aabc ac58 abbc
000000e0: 6915 b0bc a376 b2bc 8ec8 b5bc d85c b9bc
000000f0: 11f4 bfbc 1157 c3bc b245 c6bc fc8d c6bc
00000100: 6b0f c8bc 5cb0 cabc 3f99 cbbc 14f1 cbbc
00000110: 82e1 cebc 8928 cebc 9f9e ccbc 8d07 cebc
00000120: e0a8 d4bc 316a d7bc 0d42 d7bc 1c3b d6bc
00000130: ffe4 d6bc 644b dabc 50a8 dabc 52c7 dabc
00000140: 3dc5 dbbc f438 ddbc 1a7d e0bc 8eef e0bc
00000150: 0079 debc 2032 e2bc 74f3 e1bc 7993 e1bc
00000160: fb39 e2bc 4456 e2bc 41c6 dfbc 7a55 debc
00000170: 02a6 ddbc 1a24 e1bc 2cf7 e0bc 35c1 dfbc
-1.4205375e-05 -0.00096750306 -0.0019654385 -0.00293589 -0.004014939 -0.0050985254 -0.0057786317 -0.0064321826
-0.007407142 -0.00777908 -0.008393171 -0.00886084 -0.009372804 -0.009665928 -0.010172218 -0.010423802
-0.01074104 -0.011059965 -0.011343774 -0.011907581 -0.012873941 -0.012890337 -0.0134244785 -0.013994722
-0.014207547 -0.014264882 -0.01453122 -0.015111999 -0.015251666 -0.015844394 -0.016126787 -0.016535638
-0.01654006 -0.0172989 -0.017359894 -0.017564798 -0.017899554 -0.018101487 -0.017897662 -0.01766504
-0.017787296 -0.018028878 -0.018155385 -0.01847986 -0.018827466 -0.01897634 -0.019254837 -0.01963171
-0.019591467 -0.020225331 -0.02033466 -0.020222813 -0.020620024 -0.020708958 -0.02077571 -0.020916305
-0.021494584 -0.021785086 -0.022190358 -0.02262728 -0.02343181 -0.023845227 -0.024203155 -0.024237625
-0.024421414 -0.024742298 -0.024853347 -0.024895228 -0.025254015 -0.025165813 -0.02497798 -0.025150085
-0.025959432 -0.026295753 -0.026276613 -0.026151232 -0.02623224 -0.026647277 -0.026691586 -0.026706371
-0.026827449 -0.027004696 -0.027403403 -0.027457979 -0.027157307 -0.027611792 -0.027581908 -0.02753614
-0.027615538 -0.027629025 -0.027316215 -0.027140368 -0.027056698 -0.027483035 -0.02746161 -0.027313808
