weights/linear_freq_weights/RLinear_horizon96_lookback512_cycle_28/checkpoint.pth (torch, 198570 bytes, 2 tensors)

Linear.weight f4 [96, 512]
-0.010201897 -0.0024584704 -0.002093982 -0.0073301434 0.0029335683 -0.009668186 0.00087978784 -0.023908151
0.018873662 -0.017131466 -0.0042089834 -0.012184256 -0.0019127774 -0.002672513 -0.003355884 -0.008326785
-0.0060273767 -0.007689575 -0.003223973 -0.0052160462 -0.009748302 -0.0021697239 -0.0020637133 -0.010901271
-0.004227285 -0.00026303937 -0.011540078 -0.005250463 -0.005146822 -0.008432803 -0.00056956784 -0.0067512477
-0.0065720486 -0.008591914 -0.010170206 0.0012222652 0.0039718193 -0.01228931 0.000506187 -0.0022130115
-0.014937897 -0.0031252443 -0.009519552 -0.0047981036 -0.0030132995 -0.00481326 -0.0038518845 -0.0075360783
-0.0064545986 -0.0028778133 -0.0036034458 -0.0076049175 -0.0023301002 -0.007624549 -0.0035758908 -0.0058203544
-0.003842279 -0.005192377 -0.010830946 -0.0065838145 0.00052042794 -0.0022003814 -0.011866486 -0.0037345702
-0.0071456055 -0.0099398075 -0.01010511 -0.00044531008 -0.0041135773 -0.002937225 -0.0064683314 -0.010021313
-0.006098339 -0.0069135763 0.0005979704 -0.006917798 -0.008614844 -0.006919592 -0.003022304 -0.008206402
-0.009299562 -0.0018483577 -0.006102974 -0.0069193686 -0.004311377 -0.0006514457 -0.007821661 -0.0028796643
-0.0037567331 4.860167e-05 -0.02067945 -0.036127027 0.04633489 -8.8943925e-05 -0.022382341 -0.011045583
0.00047986564 -0.011697102 -0.0056458022 0.0043599172 -0.012993243 -0.0012147132 -0.006648194 -0.008399592
-0.0076168603 -0.012491536 -0.0017226633 -0.002424679 -0.0018214158 -0.008332626 -0.007981645 -0.004958593
-0.004002092 -0.011117079 -0.008023906 -0.0048251296 -0.006942272 -0.03708427 -0.04142591 -0.038837075
0.08584282 0.0425965 -0.0047028204 -0.0025242527 -0.0052374005 -0.010541914 -0.012799155 -0.0069655566
-0.008633584 -0.008140815 -0.0058709187 -0.0024342798 -0.01237025 -0.0010747766 -0.0029318389 -0.0045256834
-0.012138216 -0.008815971 -0.00444402 -0.008031225 -0.006622025 -0.011754624 -0.0011415401 -0.0005166777
-0.011237003 0.0014152634 -0.033879362 -0.037811927 0.05825613 0.0048641977 -0.0058675585 -0.0095753195
-0.00036169667 -0.006593269 -0.0023554452 -0.006244869 -0.006271389 -0.0059761377 -0.008370532 -0.0018977543
-0.00226884 -0.0050786454 -0.008811475 -0.0044071255 -0.0066455803 -0.007143348 -0.0018251063 -0.0037074427
-0.0031650166 -0.006841015 -0.007956169 -0.0055998974 -0.0067163636 -0.009181345 0.008419598 -0.026538868
0.004781932 -0.014364153 0.00054519705 -0.011241444 -0.0020463876 -0.008546496 0.0016381402 -0.008410097
-0.0020274683 -0.009448217 -0.005764056 -0.0068742023 -0.0040925913 -0.0066157742 -0.006314008 -0.0077652233
-0.006777848 -0.0027674632 -0.005378463 0.0070677893 -0.0077984505 -0.0073723937 -0.0050167665 -0.011655814
-0.0011071144 0.0003577713 -0.010809836 -0.015516486 0.0049196957 -0.0056241346 -0.012251036 0.0036087832
-0.009449593 -0.008808011 -0.002312345 -0.00480949 -0.0026842186 -0.0054227905 -0.0031823649 -0.0048388457
-0.002060081 -0.014518103 -0.004817394 -0.0048338827 -0.0011644382 -0.008687153 -0.007143744 -0.004675229
-0.006781805 -0.005514271 -0.005636509 -0.0064793276 -0.008965751 0.009569531 -0.013862861 -0.022822324
0.021137426 -0.010663521 -0.017927188 -0.003724244 -0.0028460296 -0.0019673842 -0.005389987 -0.008899789
-0.0055757975 -0.014027739 -0.0055624605 -0.00027380977 -0.007833428 -0.005788978 -0.0066766506 -0.004135084
-0.005208897 -0.010484908 -0.0068424386 -0.002913052 -0.00019395378 -0.0019437524 -0.0071032797 -0.0043776096
00000000: db25 27bc 4a1e 21bb 303b 09bb b331 f0bb
00000010: 1c41 403b 5067 1ebc 90a1 663a 07db c3bc
00000020: f09c 9a3c 4a57 8cbc 83eb 89bb 79a0 47bc
00000030: 29b6 faba 5425 2fbb 64ee 5bbb 116d 08bc
00000040: 4d81 c5bb d5f8 fbbb 4b49 53bb 5eeb aabb
00000050: 58b7 1fbc ed31 0ebb 5d3f 07bb 3f9b 32bc
00000060: 0985 8abb 8ce8 89b9 9812 3dbc 130c acbb
00000070: aca6 a8bb bd29 0abc 0d4f 15ba 9239 ddbb
00000080: 575a d7bb 19c5 0cbc f0a0 26bc 6a34 a03a
00000090: 0926 823b 1a59 49bc a2b1 043a 2c08 11bb
000000a0: 15be 74bc e6d0 4cbb e5f7 1bbc 6939 9dbb
000000b0: c77a 45bb 8db8 9dbb e66f 7cbb 35f1 f6bb
000000c0: 1981 d3bb b299 3cbb ca27 6cbb ac32 f9bb
000000d0: 98b4 18bb 5ad7 f9bb 7e59 6abb acb8 bebb
000000e0: bfce 7bbb d124 aabb 4874 31bc 0abd d7bb
000000f0: 546d 083a 4634 10bb a66b 42bc b1bf 74bb
00000100: af25 eabb 93da 22bc e78f 25bc 8278 e9b9
00000110: 30cb 86bb 757e 40bb 4cf4 d3bb 6f30 24bc
00000120: 93d4 c7bb 488b e2bb 1dc1 1c3a b2ae e2bb
00000130: 4625 0dbc bfbd e2bb d911 46bb 2574 06bc
00000140: 315d 18bc 9844 f2ba 75fb c7bb dfbb e2bb
00000150: 7446 8dbb c8c5 2aba 6d26 00bc c0b8 3cbb
00000160: 8633 76bb a5d9 4b38 f367 a9bc eff9 13bd
00000170: a7c9 3d3d 6887 bab8 2c5b b7bc 88f8 34bc
00000180: 7a96 fb39 34a5 3fbc 6c00 b9bb a3dd 8e3b
00000190: 9ce1 54bc 0337 9fba 18d9 d9bb 719e 09bc
000001a0: db96 f9bb 4da9 4cbc fdca e1ba 5de7 1ebb
000001b0: 93bc eeba 9185 08bc 72c5 02bc b17b a2bb
000001c0: fb23 83bb 6924 36bc b376 03bc 1f1c 9ebb
000001d0: 007c e3bb ade5 17bd 37ae 29bd a013 1fbd
000001e0: 5cce af3d ab79 2e3d 1e1a 9abb ef6d 25bb
000001f0: 809e abbb feb7 2cbc 8cb3 51bc 533f e4bb
00000200: e073 0dbc 0e61 05bc d660 c0bb 7088 1fbb
00000210: 97ac 4abc 85df 8cba 1824 40bb 2f4c 94bb
00000220: 5edf 46bc dd70 10bc 249f 91bb 6695 03bc
00000230: 92fd d8bb 7796 40bc bb9f 95ba a771 07ba
00000240: 681b 38bc 5c80 b93a 16c5 0abd aee0 1abd
00000250: fb9d 6e3d d963 9f3b a644 c0bb cde1 1cbc
00000260: 1ba2 bdb9 590c d8bb d05d 1abb c2a1 ccbb
00000270: 3980 cdbb 7ad3 c3bb 8e24 09bc 11be f8ba
00000280: d2b0 14bb c46a a6bb 015e 10bc a669 90bb
00000290: 2bc3 d9bb bf12 eabb 6838 efba 91f8 72bb
000002a0: 2b6c 4fbb 982a e0bb 975a 02bc 587f b7bb
000002b0: f114 dcbb 5a6d 16bc 5bf2 093c 0a68 d9bc
000002c0: c1b1 9c3b a057 6bbc 8eeb 0e3a 092e 38bc
000002d0: b01c 06bb 9a06 0cbc ddb6 d63a 81ca 09bc
000002e0: 46df 04bb b2cc 1abc 68e0 bcbb fd40 e1bb
000002f0: 251b 86bb 23c9 d8bb bde5 cebb 6a73 febb
00000300: b618 debb 545e 35bb d13d b0bb ea98 e73b
00000310: 258a ffbb 1f94 f1bb b063 a4bb 07f8 3ebc
00000320: 981c 91ba 4093 bb39 bd1b 31bc dc38 7ebc
00000330: 6635 a13b a94a b8bb 92b8 48bc 5681 6c3b
00000340: 77d2 1abc 7a4f 10bc b68a 17bb ed98 9dbb
00000350: b7e9 2fbb aab1 b1bb 398f 50bb 2e8f 9ebb
00000360: 6d02 07bb 56dd 6dbc 3bdb 9dbb 8c65 9ebb
00000370: 10a0 98ba 9054 0ebc 1116 eabb aa32 99bb
00000380: e739 debb 0fb1 b4bb 77b2 b8bb 8a50 d4bb
00000390: 16e5 12bc 86c9 1c3c 0e21 63bc e2f5 babc
000003a0: 6528 ad3c 0cb6 2ebc 0adc 92bc 7212 74bb
000003b0: 7484 3abb 3bef 00bb 7d9e b0bb 6cd0 11bc
000003c0: 2eb5 b6bb 9ad4 65bc 4d45 b6bb 208e 8fb9
000003d0: c757 00bc 78b1 bdbb cec7 dabb 997f 87bb
000003e0: 65af aabb e4c8 2bbc 8936 e0bb e7e8 3ebb
000003f0: 1260 4bb9 82c5 feba a1c2 e8bb 0d72 8fbb

Linear.bias f4 [96]
-0.0018574207 -0.0031597067 -0.003358208 -0.0041150856 -0.0044799 -0.0043555135 -0.0060421405 -0.0063826763
-0.006800045 -0.006931574 -0.006402915 -0.0076877964 -0.0072615487 -0.00751587 -0.007219128 -0.006574689
-0.007024829 -0.0071584615 -0.007996128 -0.007950605 -0.007529903 -0.007826599 -0.008087265 -0.008568221
-0.007909229 -0.008055566 -0.008216237 -0.0086509315 -0.00895537 -0.00932309 -0.009386308 -0.010165525
-0.009771064 -0.010066743 -0.0103974845 -0.009874658 -0.009452547 -0.009597584 -0.010160081 -0.01068384
-0.010266942 -0.010311717 -0.010744893 -0.010451663 -0.010566347 -0.010491812 -0.010022253 -0.009132826
-0.009872224 -0.009990651 -0.010476166 -0.010223662 -0.011184572 -0.011597411 -0.011504321 -0.0112366825
-0.011155397 -0.011324466 -0.011237215 -0.011488134 -0.011545007 -0.011412634 -0.011535616 -0.0116337
-0.011378835 -0.009779889 -0.010999274 -0.010381168 -0.010111503 -0.0118664885 -0.011341738 -0.009909797
-0.009857463 -0.008790764 -0.008872781 -0.010187186 -0.009405972 -0.009284409 -0.01077772 -0.0101912785
-0.009386658 -0.0094327 -0.008916603 -0.010165541 -0.009968401 -0.010614221 -0.010068776 -0.010645519
-0.010795219 -0.010458178 -0.010224493 -0.0104152 -0.010008341 -0.010133953 -0.010566199 -0.010494664
00000000: b274 f3ba 1513 4fbb 6215 5cbb d7d7 86bb
00000010: 20cc 92bb b2b8 8ebb 26fd c5bb c525 d1bb
00000020: e9d2 debb 4222 e3bb 8bcf d1bb e9e9 fbbb
00000030: 49f2 edbb b047 f6bb 6f8e ecbb 7d70 d7bb
00000040: 8930 e6bb 8791 eabb 3102 03bc 4143 02bc
00000050: 68bd f6bb 233b 00bc 7380 04bc b961 0cbc
00000060: b695 01bc 7efb 03bc 659d 06bc a3bc 0dbc
00000070: 8bb9 12bc e0bf 18bc 07c9 19bc 4d8d 26bc
00000080: d016 20bc fbee 24bc 365a 2abc 51c9 21bc
00000090: dbde 1abc 2f3f 1dbc 7876 26bc 460b 2fbc
000000a0: ad36 28bc 7af2 28bc 590b 30bc 743d 2bbc
000000b0: 791e 2dbc d9e5 2bbc 6034 24bc d9a1 15bc
000000c0: 1cbf 21bc d4af 23bc 3aa4 2bbc 2581 27bc
000000d0: 7f3f 37bc 1103 3ebc 9f7c 3cbc 101a 38bc
000000e0: 20c5 36bc 418a 39bc 4c1c 38bc ba38 3cbc
000000f0: 4527 3dbc 0efc 3abc e1ff 3cbc 469b 3ebc
00000100: 4b6e 3abc d43b 20bc 4d36 34bc c615 2abc
00000110: b8aa 25bc a96b 42bc b2d2 39bc b45c 22bc
00000120: 3281 21bc 2307 10bc 245f 11bc 28e8 26bc
00000130: 821b 1abc a21d 18bc 0995 30bc 52f9 26bc
00000140: 7fca 19bc 9d8b 1abc f216 12bc 5f8d 26bc
00000150: 8152 23bc 45e7 2dbc 82f7 24bc 8b6a 2ebc
00000160: 6ede 30bc c758 2bbc a284 27bc 84a4 2abc
00000170: 06fa 23bc e108 26bc da1d 2dbc d0f1 2bbc
