weights/linear_freq_weights/RLinear_horizon96_lookback512_cycle_2048/checkpoint.pth (torch, 198570 bytes, 2 tensors)

Linear.weight f4 [96, 512]
00000000: 68b0 b1bc 51f7 aeb9 5472 b53a 638c 12ba
00000010: 5b17 e8ba 11c1 d1bc 572d 07bd 19f5 1e3d
00000020: ba97 5ebc 0d3f 08bd 0318 ad3c 3022 28bd
00000030: 6d62 be3c dd04 0dbd ced1 993c 62fc 31bc
00000040: 800b e4bb 037f c7bc f89c df3b e8ec a1bb
00000050: 17fc 8bbb 1374 1ebd 540a ae3c e85d 57bc
00000060: 5c4f 28bc 1730 fdbc dfb4 0f3d ef85 b7bc
00000070: eb00 4cbc 8758 2abc 5a68 523b 6655 1bbc
00000080: 563e 9fbb 8e11 d2bc 2b86 d4ba d1ce 823c
00000090: b07c e0bc d25a 22bc ea3e 37bc ca23 78bc
000000a0: e278 153c e8b5 603c 6233 bdbb bb6d 44bd
000000b0: e049 493a 936d 8fbb 7c16 963c a44d 11bd
000000c0: 1481 01bb 4170 b7bc 8218 843c 2ec8 4eb9
000000d0: 1731 85bc de69 63bc c7a7 0d3c 9fb0 fabc
000000e0: 8594 2f3b 6937 d7bc 8112 5c3c d390 393c
000000f0: 4e30 04bd 2633 39bc 3ff3 67bb be2b acbb
00000100: 867d 933c 3963 21bd f7fc 06bb c5f2 31bb
00000110: 01da 3ebc de0f 86bc 9e99 54bc 86aa f23c
00000120: 6ae4 d5bc fa0f f1bb 4241 66bc 875d c1bc
00000130: 75eb eb3c 9ae4 9dbc 3375 e1bc 48ed c43c
00000140: 03bd bbbc 27ed 1cbc 9e0c 9a39 1fcd 48bc
00000150: 399a 2ebc d1e3 00bc 2a14 853b 6894 d6bc
00000160: c71b 9dbc 740e a83c 826d 04bc 669a 92ba
00000170: 0ab5 d8bc 3cb9 a7bc 45ae 843c 74ae 413c
00000180: 9522 26bd 87f9 3f3b e9c5 1339 c78a 02bd
00000190: b33b 683c 3e4d e2bb e4bf 13bd ce73 a13c
000001a0: 5df7 ac3b 844d fcbc 41d0 4ebc c970 2c3b
000001b0: b6c8 10bb 7561 42bc 679e 2ebc 01ac 48bc
000001c0: c101 c23b 84b9 bfbc 0dc3 123c e6b0 d0bc
000001d0: 3562 a63c ad45 f7bc a2f7 ddbc 0b58 df3c
000001e0: 3232 1bbc 2de2 5cbc e687 d4bc 59f3 b63c
000001f0: 3c4e 14bd 08f6 283c 1760 74bc 048c 773c
00000200: 94c1 9dbc e187 fabc 89c6 b4bb de72 e43c
00000210: a213 afbc 0a67 1cbd bc9a 263c da90 b2bb
00000220: c785 d4bb 37fe 5cbb b8f9 febb 45a3 8ebc
00000230: ec6b 94ba 4dfd c13b 87ea 50bc 8e95 f2bc
00000240: c650 553c f44c 173c cc07 17bd 9f35 67bc
00000250: c0e8 5a3c 876c a4bb 4a00 a0bc 58a3 7abc
00000260: 17a4 933c 0739 80bc e829 bbbc 45f2 33bc
00000270: 70ad 823c 613d 84bc d860 5fbc 7294 b4ba
00000280: 8bb6 acba 6853 c1bc 3df2 d9bb 79fc c8b8
00000290: 990f 563b 01d9 c8bc 1c9e 2b3a 0077 05bc
000002a0: 65f2 01bc 24f5 a5bc a8b4 0fbc 348d 303c
000002b0: 1876 12bb 0760 bebc 23ef 3fbc e936 b13a
000002c0: 86ee 98bc 465e 953c cb40 e0bc 180e 70bb
000002d0: 57a9 dcbb fede 48ba e228 93bc 4ab9 9ebc
000002e0: f761 b13c 5459 78bc bb43 40bc 25e9 e9bc
000002f0: 03f1 b13c 17cc c3bb 2e89 cdbc 4477 3b3c
00000300: a992 1cbd 30ed cc3b f947 20bb 2792 3dbb
00000310: b389 1bbc e6f1 cebc 55df b63c ee8a 90bc
00000320: 7d96 f6bb b19b d6bc 47a9 053c a96b 84bc
00000330: 66fa 8a3c aa53 a0bc 663e ddbc df14 ccbb
00000340: f4b4 8f3c ba1e 08bd 8835 383c 4d3d fdba
00000350: 12a8 cebc 1334 07bc 2984 1939 efd3 72bb
00000360: 6a43 84bc fcd4 fdb7 106d e93b 2a0f 42bd
00000370: d94f 8c3c 3d24 34bc 9da4 42bc 7d24 8c3c
00000380: 78a7 a4bc 5b70 dbbc 884f 143c 1890 45bc
00000390: ea43 37bb b709 a2bc f89e d83b 487e d3ba
000003a0: 429d 3dbc 27de 88bc 042e 04bb 0804 ccbc
000003b0: b056 11bb 7c00 d8ba 138c eb3b 77c6 b8bc
000003c0: b23f c5bc d1ae 1b3c 6635 9c3b 539b 90bc
000003d0: 441a 3dbc 467b 303c 9565 8fbc b621 edbc
000003e0: 608f e8ba 02d4 443c c06f b0bc d536 06bc
000003f0: 4689 35bc 0bb5 283c ac18 91bb f437 0fbd
-0.021690562 -0.0003337213 0.0013843277 -0.0005590377 -0.0017707156 -0.025604757 -0.033002224 0.038807962
-0.013585979 -0.033263255 0.021129614 -0.04104823 0.023240292 -0.034428466 0.0187768 -0.010863395
-0.0069593787 -0.024352556 0.006824132 -0.0049415715 -0.004271995 -0.038684916 0.02124516 -0.013144948
-0.010272827 -0.03090672 0.0350846 -0.022402732 -0.012451391 -0.010397083 0.0032105655 -0.00948081
-0.004859726 -0.025643136 -0.0016214302 0.015967758 -0.027403206 -0.009909349 -0.0111844335 -0.0151452515
0.009123059 0.013715245 -0.0057739476 -0.04795621 0.000767855 -0.004377076 0.018321268 -0.035474434
-0.0019760774 -0.022392394 0.016124967 -0.00019720264 -0.01625876 -0.013880221 0.008645958 -0.030601798
0.0026791405 -0.026271539 0.013432146 0.011326033 -0.03227263 -0.011303699 -0.0035392789 -0.005254238
0.01800419 -0.039401267 -0.0020597556 -0.0027152759 -0.011648656 -0.016364988 -0.012976078 0.029622328
-0.026109893 -0.007356641 -0.014053645 -0.023604168 0.028798798 -0.019274045 -0.027521705 0.024038926
-0.022917276 -0.009578026 0.0002938257 -0.012255936 -0.010656887 -0.007866816 0.0040612416 -0.026193812
-0.019178284 0.020514704 -0.008082749 -0.001118493 -0.026453514 -0.020474069 0.01619638 0.011821378
-0.040560324 0.0029293017 0.0001409274 -0.03187063 0.01417439 -0.0069061806 -0.036071673 0.01970854
0.0052785114 -0.030798681 -0.012622894 0.0026312342 -0.002209229 -0.011864056 -0.010657883 -0.01224804
0.0059206192 -0.02340389 0.008957637 -0.025474977 0.0203105 -0.030184591 -0.02709562 0.027263662
-0.009472417 -0.013481659 -0.025943708 0.022332834 -0.036207423 0.010312565 -0.014915488 0.015109066
-0.019257344 -0.03058237 -0.0055168313 0.027886804 -0.021371666 -0.038184203 0.0101687275 -0.0054493966
-0.006485674 -0.003372086 -0.0077812336 -0.017411837 -0.0011323667 0.0059200884 -0.012751228 -0.029612329
0.013019746 0.009234656 -0.03687267 -0.014111905 0.013361156 -0.0050178203 -0.019531388 -0.015297733
0.01802258 -0.015652193 -0.02284713 -0.0109830545 0.015951842 -0.016142549 -0.013633929 -0.001377715
-0.0013176961 -0.023599342 -0.0066511915 -9.58377e-05 0.0032663106 -0.024517538 0.00065466925 -0.008146048
-0.0079313265 -0.020258494 -0.008771099 0.010775853 -0.0022348221 -0.023239149 -0.0117147295 0.0013520393
-0.018668424 0.01823343 -0.027374646 -0.0036629494 -0.006734054 -0.0007662623 -0.01796383 -0.019375462
0.021653159 -0.015158016 -0.011734898 -0.028553555 0.021721369 -0.005975257 -0.025089826 0.011442009
-0.038225804 0.006253861 -0.0024456962 -0.0028926225 -0.009493279 -0.02526183 0.02232329 -0.017644372
-0.007525264 -0.026197286 0.008158035 -0.016164618 0.016965102 -0.019571144 -0.027007293 -0.006228074
0.01754234 -0.033232428 0.011243232 -0.0019320637 -0.025226627 -0.008252162 0.0001464045 -0.0037052592
-0.016145427 -3.0259129e-05 0.007123597 -0.047377743 0.017127918 -0.010994968 -0.011880067 0.017107243
-0.020099387 -0.026786974 0.009052165 -0.01205828 -0.0027964064 -0.019780023 0.0066107474 -0.0016135657
-0.011573138 -0.016707493 -0.002016903 -0.024904266 -0.0022176914 -0.0016479637 0.007188329 -0.022555573
-0.024078224 0.009502129 0.004767108 -0.01765219 -0.011541907 0.010771578 -0.017504493 -0.028946739
-0.0017742924 0.012013437 -0.021537662 -0.008191784 -0.011080092 0.01029707 -0.00442799 -0.03496547

Linear.bias f4 [96]
00000000: 0838 23ba 3892 c5ba 5721 12bb 5888 67bb
00000010: cee2 b1bb 500c edbb 6de7 1dbc 6813 39bc
00000020: 0152 58bc 4fa5 76bc c4e1 88bc a182 94bc
00000030: 107e a2bc 9e20 a9bc 33de b2bc 9272 bdbc
00000040: 47e3 c5bc 4349 cfbc af6d d9bc 0c11 e3bc
00000050: 22b7 e9bc 8c33 f2bc 1f0f fbbc 2afa 01bd
00000060: d6ac 05bd fa18 09bd a76f 0dbd 19a4 11bd
00000070: bf2b 14bd 94a8 18bd d896 1cbd 4fdf 1fbd
00000080: 4cff 23bd 6cff 27bd 79af 2cbd bede 30bd
00000090: b173 34bd 9abc 38bd d869 3dbd 0d8b 40bd
000000a0: 434f 43bd ba9d 46bd 5fff 48bd 8f8e 4bbd
000000b0: 8663 4ebd bb39 51bd 6b7f 54bd a6ba 56bd
000000c0: 845a 5abd 8ff3 5ebd 7552 61bd b111 66bd
000000d0: ac12 69bd 9824 6cbd 7231 6fbd eae2 71bd
000000e0: a99a 75bd c3ef 78bd 21e0 7abd 8adf 7dbd
000000f0: 46c8 80bd 72fe 81bd 1cd6 83bd 2adb 85bd
00000100: 0021 87bd 5fba 88bd 3a39 8abd 8769 8cbd
00000110: d819 8ebd 247d 8fbd a293 90bd 8a88 92bd
00000120: e88e 93bd fa56 95bd c595 96bd 0177 98bd
00000130: 26c1 99bd 093f 9bbd f51f 9dbd 5e04 9fbd
00000140: dd77 a0bd 75dc a1bd 9dad a3bd 7477 a5bd
00000150: 9457 a6bd 4f86 a8bd 0ad7 a9bd c218 abbd
00000160: 6ac5 acbd 3041 adbd b975 aebd 2701 afbd
00000170: 4445 afbd d80c b0bd 96a5 b0bd e090 b0bd
-0.0006226306 -0.0015073484 -0.0022297704 -0.003532907 -0.0054286486 -0.007234134 -0.009637696 -0.011296131
-0.013203145 -0.015054061 -0.016709216 -0.018128695 -0.019835502 -0.020645436 -0.021834468 -0.02312592
-0.024156226 -0.025303489 -0.026541559 -0.02771809 -0.028529707 -0.029565595 -0.030646859 -0.031732716
-0.032635532 -0.033471085 -0.034530308 -0.035556886 -0.036174532 -0.037270144 -0.038229793 -0.039031323
-0.040038392 -0.041015074 -0.04215953 -0.043181174 -0.044055644 -0.04510174 -0.04624352 -0.04700761
-0.04768301 -0.048490264 -0.049071666 -0.0496965 -0.05038788 -0.051080447 -0.051879328 -0.052424096
-0.05330898 -0.054431494 -0.055010278 -0.056169216 -0.056902573 -0.057652086 -0.058396764 -0.059054293
-0.05996195 -0.06077553 -0.061248902 -0.06198076 -0.06288199 -0.0634736 -0.064373225 -0.06535943
-0.06598091 -0.066761725 -0.06749196 -0.06856065 -0.06938523 -0.070062906 -0.07059409 -0.07154949
-0.072049916 -0.0729198 -0.07352785 -0.07444573 -0.07507543 -0.075803824 -0.07672111 -0.07764505
-0.07835362 -0.07903377 -0.079920985 -0.080794245 -0.08122173 -0.08228742 -0.082929686 -0.083543316
-0.08436091 -0.08459699 -0.085185476 -0.08545142 -0.08558133 -0.085962 -0.08625333 -0.08621383
