weights/linear_freq_weights/RLinear_horizon96_lookback512_cycle_192/checkpoint.pth (torch, 198570 bytes, 2 tensors)

Linear.weight f4 [96, 512]
00000000: b75b b5ba 7125 78bb d920 0bbc 0c93 13bc
00000010: bb76 b4bb 4ce9 49bb b9be d5bb 20e5 13bc
00000020: 3bee 95bb 4457 8cbb 9b6a fbbb 6b7a a9bb
00000030: fe22 60bb 4c8e f5bb dc0d f3bb a979 14bc
00000040: 7ef3 4bbb 1fee c9bb 8c1c b9bb 6c0e dabb
00000050: 96fe a3bb cd7f 21bb 5974 11bc a570 43bc
00000060: 8e92 85b8 a413 e8bb 2531 c8bb 7129 b3bb
00000070: 68b5 d9bb a706 0abc 8929 e2bb 631a 8abb
00000080: 9399 9cbb 2510 92bb 1c7a c0bb 479d d7bb
00000090: 8419 14bb 8964 45bc 8e44 d1bb 5c85 abbb
000000a0: c3f6 e5bb 1936 72bb 1816 d2bb dede e5bb
000000b0: 52b3 b6bb 3300 debb c1df 91bb bb8b b2bb
000000c0: ec5a e9bb 4716 90bb 1de5 0dbc 1891 22bc
000000d0: c88d b8ba ff82 b6bb 7311 eebb 01da 2dbc
000000e0: b19c c1ba 3fde 98bb f8e2 b1bb b3bf e1bb
000000f0: abcc 0abc 3178 c3bb 0848 10bc 96f1 87bb
00000100: 0251 74bb 4a7b 2cbb 646e 14bc aa5a d5bb
00000110: 5e8e 9cbb 8efe e8bb 3c26 f7bb 6c4c f5bb
00000120: 8b98 a8bb 308d 67bb 0749 2bbb c278 28bc
00000130: 68f8 0abc a7e4 22bb 55a8 bbbb f9fe 50bc
00000140: 2056 95bb d768 85bb e03f 88bb 246b 26bc
00000150: 9c1b 36bb 1c38 03bc 51fd febb 6e23 e8bb
00000160: 91c2 89bb 7907 c4ba 6f6b 41bc a019 1cbb
00000170: 4acd c5bb bf4f 2bbb 150b 09bc d9c4 43bc
00000180: 0ffd 8ebb 3c7e 0abb 339d 70bb 5fc2 c8bb
00000190: b4eb 75bb 7b00 abbb 4f11 22bc e324 34bc
000001a0: 9a96 4ebb 8851 beba 1dcd 82bb 5f41 20bc
000001b0: 1c00 08bb 33af 11bc fd67 30bc 3d52 adbb
000001c0: db94 99bb 41f2 0abc f585 1bbc 7ee0 8939
000001d0: c091 e0bb 2f73 1fbc e999 a3bc 81a0 62bc
000001e0: 055f c03b b5ea 1e3c 93d3 27bc 53bc b6bc
000001f0: 196b 8d39 b5bb 2dbc 8741 18bc a559 88bc
00000200: a53e 373c 87cf 303b aa9d 72bb 14bb 03bc
00000210: ac38 3c3b afd3 41bc 4f38 43bc 81ad 2fbc
00000220: 7840 783b 3056 923b a25e 84bb e324 abbb
00000230: c85a d9bb e8a2 37bc e626 84bb 19b5 63bc
00000240: fffd 6fbb aa35 b33b f2a4 00bc 3410 3abc
00000250: 9907 9cbb dbc7 f4bb 830f 3ebc 4bc0 8eba
00000260: 25d3 f6bb 3f3c 843a b4ef 03bc ce80 16bc
00000270: 2365 99bb 6f9e b5bb 253e f2bb 507c c3bb
00000280: 9091 c5bb 4a1c b3bb c57d b9ba e2be 0dbc
00000290: 6244 a7bb 45bc b5bb e8a3 47bc 3c14 06bc
000002a0: 61d4 6339 7660 a6bb b814 f1bb d9ee e9bb
000002b0: c006 28bb 65d8 35bc 0277 11bc 0440 06ba
000002c0: 4508 84bb 4ed6 f9bb e1a4 8cbb 8e60 d5bb
000002d0: afd9 f9bb e1ce 4cbb fea5 0bbc f4f1 fbbb
000002e0: 62c0 5ebb a30b bebb 6aa6 07bc d9b7 8dbb
000002f0: 875f e6bb c26f d0bb b1f3 04bc 0535 99bb
00000300: a725 74bb 605d 6dbb 931b 19bc 8a30 d8bb
00000310: 2ebe 8fbb 652a 17bc 0772 03bc d8d0 8bbb
00000320: 56a7 f6bb b246 a8bb 6c4e 8abb 8222 29bb
00000330: e2d6 96bb c392 41bc 808c aabb cd2f 16bc
00000340: 7d2f a3bb adb9 75bb f269 5abb 73a7 e5bb
00000350: 2f4c c7bb d62f fdbb 3b22 00bc 4e73 ebbb
00000360: 1418 f7bb 3c2d 0ebb 212f e1bb 0bcf 84bb
00000370: ea98 cdbb 5732 03bc 4871 edbb 566c d5bb
00000380: a0ee 29ba fd00 bdbb 2178 0cbc 4f0c 57bc
00000390: 4f2b d5bb abe2 adba 6956 70bb c489 c3bb
000003a0: b3ab f0bb 41eb 87bb 8b77 d8bb 8965 b4bb
000003b0: d314 e9bb dd2c 16bb 3215 35bc b49d 07bc
000003c0: f170 a2bb ca3e 21bb 4326 bfbb 910b 1cbc
000003d0: 755f 92bb fc95 ddbb f087 9dbb bbaf 32bc
000003e0: 77f3 4bbb ab90 b2bb b802 5dbb 5eea 1abc
000003f0: 0913 b2bb 2cb2 bfbb b09c d1bb 928e c3bb
-0.0013836537 -0.0037864114 -0.008491718 -0.009007227 -0.005507318 -0.0030809222 -0.00652298 -0.009026796
-0.0045755184 -0.004282864 -0.0076726205 -0.005172064 -0.0034200544 -0.0074937697 -0.0074174237 -0.009062209
-0.0031120474 -0.0061624194 -0.005649155 -0.0066545513 -0.0050047142 -0.0024642826 -0.008877837 -0.011928712
-6.369232e-05 -0.0070824195 -0.006109374 -0.0054675867 -0.0066439398 -0.008424438 -0.006901924 -0.0042145713
-0.0047790497 -0.004457491 -0.0058739316 -0.006580028 -0.0022598216 -0.012047895 -0.006386346 -0.0052344035
-0.0070179417 -0.0036958514 -0.006411325 -0.007015093 -0.005575576 -0.006774926 -0.0044517224 -0.005448786
-0.0071214344 -0.004397187 -0.008660582 -0.009922288 -0.001408034 -0.005569815 -0.0072652637 -0.010611058
-0.0014771429 -0.0046651657 -0.005428668 -0.0068893074 -0.008471648 -0.0059652557 -0.008806236 -0.0041486723
-0.003727973 -0.0026318603 -0.009059522 -0.006511052 -0.0047777137 -0.0071104234 -0.0075423997 -0.007485917
-0.0051451377 -0.0035331957 -0.0026136057 -0.010282697 -0.008482076 -0.0024855526 -0.005726854 -0.012756103
-0.004557386 -0.004071336 -0.004158005 -0.01015738 -0.0027787453 -0.008008983 -0.0077816625 -0.0070843017
-0.0042041023 -0.001495584 -0.011805399 -0.0023818985 -0.0060364353 -0.0026140062 -0.008364459 -0.011948788
-0.004363663 -0.002113237 -0.0036714792 -0.0061266865 -0.0037524523 -0.005218563 -0.009891822 -0.010995123
-0.003152287 -0.0014520148 -0.0039917366 -0.009781211 -0.0020752018 -0.008891868 -0.01076698 -0.0052893446
-0.0046869344 -0.008480609 -0.009492387 0.00026297936 -0.0068533123 -0.009732052 -0.019970851 -0.013832212
0.005870702 0.009699513 -0.010243314 -0.022306597 0.0002697341 -0.010603835 -0.009292967 -0.016644308
0.011184369 0.0026979165 -0.0037020245 -0.008040208 0.0028720303 -0.011830254 -0.0119152805 -0.010722519
0.0037880223 0.0044658408 -0.0040396014 -0.005222903 -0.0066331364 -0.0112082735 -0.0040329574 -0.0138981575
-0.00366199 0.0054690437 -0.007851826 -0.011356402 -0.004761648 -0.0074701137 -0.011600378 -0.0010891048
-0.0075324946 0.0010088756 -0.008052755 -0.009185983 -0.004681246 -0.0055425684 -0.007392662 -0.005965747
-0.0060293153 -0.005466019 -0.0014151862 -0.008651467 -0.0051045874 -0.005546125 -0.012185074 -0.008183535
0.00021727524 -0.005077417 -0.007357206 -0.0071390686 -0.002563879 -0.011098956 -0.008878471 -0.00051212334
-0.004029306 -0.007624424 -0.004292116 -0.0065117544 -0.007624827 -0.003125124 -0.008523462 -0.007688755
-0.003398918 -0.005799727 -0.008279422 -0.004324895 -0.0070304307 -0.006360979 -0.008114741 -0.00467551
-0.0037253888 -0.0036218986 -0.009344953 -0.006597583 -0.004386685 -0.009226416 -0.008022792 -0.0042668395
-0.007527272 -0.0051353807 -0.0042207744 -0.0025807922 -0.0046032527 -0.011814776 -0.005204737 -0.00916667
-0.0049800263 -0.0037494705 -0.0033327308 -0.007008487 -0.00608208 -0.0077266498 -0.007820661 -0.0071853762
-0.007540712 -0.0021694442 -0.0068720733 -0.0040530018 -0.0062743323 -0.008007607 -0.00724617 -0.006513159
-0.0006482396 -0.00576794 -0.008573563 -0.013125493 -0.006505407 -0.0013266405 -0.0036672598 -0.0059673507
-0.007344687 -0.0041479175 -0.0066060475 -0.005505268 -0.007113078 -0.0022914924 -0.011052417 -0.008277345
-0.0049573113 -0.0024604076 -0.0058334186 -0.009524242 -0.004466946 -0.0067622643 -0.004807465 -0.010906155
-0.0031120458 -0.0054493747 -0.0033723544 -0.009455292 -0.005434398 -0.005850097 -0.0063968524 -0.0059679234

Linear.bias f4 [96]
00000000: a1cd 82ba c032 e8ba 60e4 12bb eada 47bb
00000010: a85d 67bb b717 7fbb a67c 77bb cf0a 8ebb
00000020: 3023 acbb 7c51 b7bb 4b50 babb 98a4 cdbb
00000030: 5cbb e1bb 016f f4bb 3d92 00bc 15c5 0cbc
00000040: fa59 13bc fa7b 10bc e27e 0fbc f79a 0ebc
00000050: ba08 0dbc 41de 14bc 0086 1fbc 7a53 29bc
00000060: c69e 29bc 690d 33bc 4b7f 36bc 0d7f 36bc
00000070: b8c3 38bc d113 40bc 6d6c 41bc ca6d 45bc
00000080: c054 4ebc b974 51bc 88b6 55bc 0994 59bc
00000090: e061 58bc 0eb8 60bc c622 60bc c3b0 6ebc
000000a0: 54fa 6fbc 6a65 6ebc abba 72bc 08a9 79bc
000000b0: c3dd 7ebc 6f45 81bc fccd 82bc 3536 85bc
000000c0: 29ab 87bc cfe8 86bc 697d 85bc c657 8cbc
000000d0: 2877 8bbc 58bf 8cbc c876 8cbc b678 8bbc
000000e0: 227b 8bbc 2ecb 8bbc dd6e 8abc d82e 89bc
000000f0: 1311 88bc 12a6 8cbc eae4 8cbc fc0a 8fbc
00000100: 844d 8fbc 3230 8fbc ec46 93bc 3691 92bc
00000110: d5db 93bc 9f97 94bc 3ce7 96bc d9f0 97bc
00000120: 10e0 98bc e875 9bbc 3f8f 9ebc 0d83 a0bc
00000130: 5367 a1bc 274b a4bc c2f8 a7bc c651 a4bc
00000140: b097 a5bc b2b1 a6bc 07de a4bc 6dc3 a8bc
00000150: 7729 acbc a6fb aabc 0c44 aabc 2ca4 adbc
00000160: efd2 aabc e30d acbc eb6b a9bc efbf abbc
00000170: be1f acbc 5ffe adbc 15c6 afbc 0fb6 adbc
-0.0009979495 -0.001771532 -0.0022413954 -0.0030495473 -0.0035303626 -0.0038924047 -0.0037763505 -0.0043347846
-0.005253218 -0.0055944305 -0.005685841 -0.0062757246 -0.00688879 -0.0074595218 -0.007847366 -0.00859191
-0.00899362 -0.008818621 -0.008758279 -0.008703939 -0.008608038 -0.009086193 -0.009736538 -0.010334844
-0.010352796 -0.01092849 -0.011138747 -0.01113869 -0.011277132 -0.011723475 -0.011805636 -0.0120501015
-0.012593448 -0.0127841765 -0.013044007 -0.013279923 -0.013206929 -0.013715757 -0.013680166 -0.01456851
-0.014647085 -0.014550546 -0.014815013 -0.015238054 -0.015555802 -0.015780179 -0.015967362 -0.0162612
-0.016561108 -0.016468434 -0.016295152 -0.017131697 -0.017024592 -0.017181084 -0.017146483 -0.017025333
-0.017026488 -0.017064657 -0.016898567 -0.01674597 -0.016609704 -0.017169032 -0.017198998 -0.017461292
-0.017493017 -0.017479036 -0.017978154 -0.017891508 -0.01804916 -0.018138705 -0.018420808 -0.018547462
-0.018661529 -0.01897712 -0.019355414 -0.01959374 -0.01970259 -0.020055367 -0.02050436 -0.020058524
-0.020213932 -0.020348404 -0.020125402 -0.020600999 -0.021015866 -0.020871948 -0.0207844 -0.021196447
-0.020852534 -0.021002715 -0.020681342 -0.020965545 -0.02101123 -0.021239458 -0.021456758 -0.021204976
