weights/linear_freq_weights/RLinear_horizon96_lookback512_cycle_168/checkpoint.pth (torch, 198570 bytes, 2 tensors)

Linear.weight f4 [96, 512]
0	0xbc7f53f9	-0.0155839855
1	0xbafa9b2c	-0.0019119731
2	0xbc4f8376	-0.01266562
3	0xbc0b3844	-0.0084973015
4	0xbc1606ed	-0.009156925
5	0xbc59616a	-0.013267854
6	0xbcc7c506	-0.02438594
7	0xbc6a3d52	-0.014296846
8	0x3ca1589b	0.01969557
9	0x3c05b20f	0.008160128
10	0xbc22a9f7	-0.009928218
11	0xbc71899f	-0.014742284
12	0x3a176150	0.00057746936
13	0xbc05dcfd	-0.0081703635
14	0xbc834a91	-0.016026767
15	0xbab9b9aa	-0.0014169712
16	0x3a4081d9	0.00073435676
17	0xbc4aa12f	-0.012367531
18	0xbc18d6a0	-0.009328514
19	0xbbbbf3ab	-0.0057358346
20	0xbc4dab78	-0.012553088
21	0xbc2ef4ef	-0.010678514
22	0x3b0c2146	0.0021382137
23	0xbbabde9c	-0.005245043
24	0xbc965005	-0.018348703
25	0xbbffd36a	-0.007807185
26	0x3916dd62	0.00014387586
27	0xbc2c36b7	-0.010511092
28	0xbc64f047	-0.013973302
29	0x3ad01a57	0.001587699
30	0xbc0dbb96	-0.008650681
31	0xbc4f1560	-0.012639374
32	0xbc2b9ba1	-0.010474117
33	0xbc522ae6	-0.012827611
34	0xbbee2104	-0.0072671194
35	0xbb470dc8	-0.0030373204
36	0xbab83d6b	-0.001405639
37	0xbc44b4b3	-0.012005973
38	0xbc202e0b	-0.0097766025
39	0xbc11a10e	-0.008888496
40	0xbbba9fc7	-0.0056953165
41	0xbc699379	-0.014256352
42	0xbc3037d6	-0.0107555
43	0x3c00f62a	0.00787119
44	0xbc16bca1	-0.009200246
45	0xbc80b761	-0.015712442
46	0xbc3cadae	-0.011516018
47	0xbc7804b9	-0.015137845
48	0xbafb7038	-0.0019183224
49	0xbbe0e90d	-0.0068637193
50	0xbb996692	-0.004681417
51	0xbba1b81b	-0.004935277
52	0xbbfdebb5	-0.0077490457
53	0xbbc8e3c6	-0.0061306683
54	0xbc8d1f1e	-0.017226752
55	0xbc2ab8cc	-0.010420036
56	0xbbebcf0e	-0.0071963137
57	0xbbdfaa8f	-0.006825752
58	0xbbd116d8	-0.006380897
59	0xbc4d0233	-0.012512731
60	0xbc1dfc29	-0.009642639
61	0xbc55c27a	-0.013046855
62	0x39094445	0.0001309077
63	0xbc276153	-0.010216075
64	0xba52e660	-0.0008045193
65	0xbbd4e88c	-0.0064974483
66	0xbc45c6a7	-0.012071288
67	0xbc12569b	-0.008931781
68	0xbbb5a676	-0.0055435253
69	0xbc132664	-0.008981321
70	0xbc308567	-0.010773993
71	0xbc14516a	-0.009052614
72	0xbc11cda7	-0.008899129
73	0xbc19ef05	-0.009395366
74	0xbb65cad7	-0.003506353
75	0xbc0fd10b	-0.008777867
76	0xbbbfdb51	-0.005855002
77	0xbc4414c2	-0.01196784
78	0xbbbc65d8	-0.0057494454
79	0xbbea44e5	-0.007149326
80	0xbbcf4fa4	-0.0063266326
81	0xbc2b7b40	-0.010466397
82	0xbbfe66dd	-0.007763727
83	0xbc047469	-0.008084395
84	0xbc5d64b0	-0.013512775
85	0xbb3b0e47	-0.0028542446
86	0xbc1e1cbc	-0.0096504055
87	0xbc2c3037	-0.010509542
88	0xbbd4cf56	-0.006494443
89	0xbc31dc78	-0.0108557865
90	0xbc1b0575	-0.00946175
91	0xbbb9ee39	-0.0056741503
92	0xbb3c8396	-0.0028764955
93	0xbc0deb03	-0.008661988
94	0xbc1db696	-0.009626051
95	0xbc249e92	-0.010047572
96	0xbc03214d	-0.008003545
97	0xbc3a9c45	-0.011389797
98	0xbbee4055	-0.0072708526
99	0xbc1e12ee	-0.009648068
100	0xbbf1a88d	-0.007374829
101	0xbbdb003e	-0.0066833785
102	0xbc44637d	-0.0119866105
103	0xbbdc6068	-0.0067253597
104	0xbc081a61	-0.0083070705
105	0xbc100604	-0.008790497
106	0xbc0e965c	-0.008702841
107	0xbc18ad87	-0.009318716
108	0xbc447cce	-0.011992646
109	0xbbeba2f8	-0.0071910582
110	0xbb90f25b	-0.0044234223
111	0xbc7600ec	-0.015014868
112	0xbc26bbf4	-0.010176647
113	0xbb2b587c	-0.002614527
114	0xbbac5871	-0.0052595665
115	0xbc19e40a	-0.009392748
116	0xbbc8e1d3	-0.006130436
117	0xbc372d5d	-0.011180249
118	0xbc0225d1	-0.007943586
119	0xbc26c780	-0.0101794
120	0xbbbc443c	-0.005745439
121	0xbbdc5b31	-0.006724738
122	0xbc61e4ec	-0.013787489
123	0xbc1e656d	-0.0096677365
124	0xbaec7616	-0.0018040563
125	0xbc2b6cb1	-0.010462926
126	0xbc45489f	-0.01204124
127	0xbb1b4e09	-0.0023697636
128	0xbc0ee215	-0.008720894
129	0xbc195cf8	-0.009360544
130	0xbc0fa35b	-0.008766974
131	0xbb8ce1ac	-0.004299363
132	0xbc334401	-0.010941506
133	0xbc3a342e	-0.01136498
134	0xbbd8f47d	-0.006620942
135	0xbc035d45	-0.008017843
136	0xbbde1b4d	-0.006778157
137	0xbbd45901	-0.0064803367
138	0xbc30ba81	-0.0107866535
139	0xbc3e60c0	-0.011619747
140	0xbc0ea6eb	-0.0087067885
141	0xbbe011ea	-0.006838073
142	0xbbf54118	-0.0074845664
143	0xbc3887bd	-0.011262831
144	0xbbb49aaf	-0.005511604
145	0xbbd076a5	-0.0063618
146	0xbb990514	-0.004669795
147	0xbc37c537	-0.011216453
148	0xbc3ab4c5	-0.011395638
149	0xbb99e9b8	-0.004697051
150	0xbbe7c478	-0.0070729814
151	0xbc3a9004	-0.011386875
152	0xbb6a035c	-0.0035707569
153	0xbc6978f1	-0.014250026
154	0xbc15b231	-0.009136722
155	0xbb5d7f97	-0.0033797973
156	0xbb2b5554	-0.0026143389
157	0xbc16705d	-0.009182063
158	0xbc10e48c	-0.008843552
159	0xbc4c9dcd	-0.0124887945
160	0xbc1f4c3f	-0.009722768
161	0xbc612b60	-0.013743252
162	0xbba564ed	-0.0050474317
163	0xbc24cf5f	-0.010059207
164	0xbbd157a5	-0.006388622
165	0xbc004e8b	-0.007831226
166	0xbc6e642b	-0.014550249
167	0xbcade699	-0.021228122
168	0xbc7d8eb6	-0.0154759195
169	0x3c4bde64	0.012443159
170	0xb9962bf4	-0.00028642977
171	0xbc8d47ec	-0.01724621
172	0xbc4b5836	-0.012411168
173	0xbc3f1b5d	-0.011664239
174	0xbc236ab1	-0.009974168
175	0xbc9624ef	-0.018328158
176	0x3b77d871	0.0037818218
177	0x3c01a635	0.007913162
178	0xbb9204ad	-0.004456124
179	0xbbbad845	-0.005702051
180	0xbb2c30fb	-0.0026274312
181	0xbc5e9de1	-0.013587446
182	0xbc860e3e	-0.016364213
183	0x3c7a8560	0.015290588
184	0xb9d732ac	-0.0004104575
185	0xbc31be93	-0.010848659
186	0xbc275c13	-0.010214823
187	0xbc34b184	-0.011028651
188	0xbc119da5	-0.008887683
189	0xbc4fd10c	-0.012684118
190	0xbc190886	-0.009340411
191	0xba819e29	-0.0009889054
192	0xbbd1189d	-0.006381108
193	0xbc20fdba	-0.009826118
194	0xbc06b3ba	-0.008221561
195	0xbc47a6f3	-0.0121858
196	0xbbd0daeb	-0.0063737533
197	0xbbdae405	-0.006680014
198	0xbc26172a	-0.010137359
199	0xbc37b858	-0.011213385
200	0xbc4ef259	-0.012631022
201	0xbabb5880	-0.0014293343
202	0xbc3a6e64	-0.011378858
203	0xbc4d855f	-0.012544005
204	0xbbd0ecec	-0.0063758995
205	0xbba7ad09	-0.005117063
206	0xbb6883fc	-0.003547906
207	0xbc38d006	-0.011280065
208	0xbbb8ddcf	-0.005641676
209	0xbc6c6358	-0.014427982
210	0xbbd8a97a	-0.006612
211	0xbab85800	-0.0014064312
212	0xbc1982a4	-0.009369526
213	0xbc06a264	-0.008217428
214	0xbb8e89de	-0.004349931
215	0xbc46ae06	-0.012126451
216	0xbc310f6c	-0.0108068995
217	0xbb9daf30	-0.0048121437
218	0xbbf65a10	-0.0075180605
219	0xbc09ea05	-0.008417611
220	0xbb9090c6	-0.0044117896
221	0xbc22116f	-0.009891852
222	0xbb7edaa2	-0.003888764
223	0xbc2d436b	-0.010575156
224	0xbc1f9edd	-0.009742466
225	0xbb475ae2	-0.003041916
226	0xbc098746	-0.008394068
227	0xbc588e2e	-0.013217492
228	0xbb9d1c19	-0.0047946093
229	0xbc09a75d	-0.008401719
230	0xbc395db8	-0.011313848
231	0xbb8ee5d7	-0.004360895
232	0xbbe484b0	-0.0069738254
233	0xbc1f0ff8	-0.009708397
234	0xbc2123fb	-0.009835239
235	0xbbfb9880	-0.0076780915
236	0xbc1425af	-0.009042188
237	0xbc360974	-0.011110652
238	0xbbbc2df0	-0.005742781
239	0xbbf962d4	-0.007610658
240	0xbc1f2761	-0.0097139785
241	0xbb6c5dcf	-0.0036066656
242	0xbbdcea96	-0.006741832
243	0xbc4691a3	-0.012119683
244	0xbbcc9202	-0.0062429914
245	0xbc3a4bc0	-0.011370599
246	0xbbe4fbb5	-0.0069880136
247	0xbbc88e82	-0.006120504
248	0xbc03cbff	-0.008044242
249	0xbc0a808f	-0.008453502
250	0xbc051f42	-0.008125128
251	0xbbf54aab	-0.0074857078
252	0xbc216b23	-0.009852204
253	0xbc0a55eb	-0.008443336
254	0xbb5fea76	-0.003416685
255	0xbc287fd7	-0.010284386

Linear.bias f4 [96]
0	0x38936ab8	7.029384e-05
1	0xba921703	-0.0011145774
2	0xbae57325	-0.0017505629
3	0xbb07c728	-0.0020718072
4	0xbb90eb1d	-0.004422559
5	0xbb913a06	-0.0044319658
6	0xbbd871b6	-0.0066053523
7	0xbbb076c1	-0.0053852503
8	0xbbc854d2	-0.006113627
9	0xbc029e74	-0.0079723485
10	0xbc06b51a	-0.008221889
11	0xbc0eb960	-0.008711189
12	0xbc23ca8e	-0.009997023
13	0xbc27b8cc	-0.01023693
14	0xbc320911	-0.010866419
15	0xbc217728	-0.009855069
16	0xbc2bcd14	-0.010485906
17	0xbc324c33	-0.010882425
18	0xbc2bcd15	-0.010485907
19	0xbc375ce6	-0.011191582
20	0xbc4c3a96	-0.01246514
21	0xbc5c6ff2	-0.013454424
22	0xbc67fc92	-0.014159339
23	0xbc66dc9e	-0.014090685
24	0xbc52c19d	-0.012863544
25	0xbc4a0495	-0.012330194
26	0xbc57293a	-0.013132388
27	0xbc594895	-0.013261934
28	0xbc4f9821	-0.012670548
29	0xbc4d4e67	-0.0125309
30	0xbc4d90bb	-0.012546713
31	0xbc64aded	-0.013957483
32	0xbc6ae77f	-0.0143374195
33	0xbc752c53	-0.014964181
34	0xbc829f55	-0.015945116
35	0xbc84c41e	-0.016206797
36	0xbc8d9ca0	-0.017286599
37	0xbc868a7f	-0.016423462
38	0xbc862491	-0.016374858
39	0xbc88a8d4	-0.016682066
40	0xbc89622c	-0.016770445
41	0xbc89c351	-0.016816767
42	0xbc952f0b	-0.018210908
43	0xbc9dae11	-0.01924804
44	0xbc9a0610	-0.018801719
45	0xbca0793f	-0.019589065
46	0xbca0ced9	-0.019629883
47	0xbc9cf6ef	-0.019160716
48	0xbc9b740f	-0.01897624
49	0xbca3cff2	-0.019996617
50	0xbca9ab6c	-0.020711623
51	0xbca35a48	-0.01994051
52	0xbca3d31b	-0.019998124
53	0xbca3c4ab	-0.01999124
54	0xbca89a32	-0.020581339
55	0xbcad6ecc	-0.021170996
56	0xbcad354d	-0.02114358
57	0xbcad6c28	-0.021169737
58	0xbca9fc5b	-0.020750215
59	0xbcae9b02	-0.021314148
60	0xbca8c731	-0.020602794
61	0xbca380ce	-0.01995888
62	0xbca4d756	-0.020122211
63	0xbcb19013	-0.021675145
64	0xbcb04283	-0.02151609
65	0xbcb25c77	-0.021772606
66	0xbcacdf36	-0.021102529
67	0xbcb57c1a	-0.022153903
68	0xbcb95950	-0.022625595
69	0xbcbc19ef	-0.022961585
70	0xbcc15a4a	-0.023602623
71	0xbcbc0a95	-0.022954265
72	0xbcbb1329	-0.022836285
73	0xbcbb063c	-0.022830121
74	0xbcb71493	-0.022348678
75	0xbcb46203	-0.022019392
76	0xbcb6dd5e	-0.022322353
77	0xbcb70453	-0.02234093
78	0xbcaf596e	-0.021404948
79	0xbcaf175f	-0.021373449
80	0xbcb777ec	-0.02239605
81	0xbcbec6cd	-0.023288155
82	0xbcc246f4	-0.023715474
83	0xbcc5923a	-0.024117578
84	0xbcc096c0	-0.023509383
85	0xbcbb9c45	-0.022901664
86	0xbcc2c8c4	-0.023777373
87	0xbcbc5e31	-0.022994133
88	0xbcb5e3cb	-0.022203347
89	0xbcb32af4	-0.021871068
90	0xbcb3c0c2	-0.0219425
91	0xbcad54db	-0.021158626
92	0xbcaa26c2	-0.020770434
93	0xbca9324b	-0.020653864
94	0xbcada49d	-0.021196658
95	0xbca6b327	-0.020349098
