weights/linear_freq_weights/RLinear_horizon96_lookback512_cycle_21/checkpoint.pth (torch, 198570 bytes, 2 tensors)

Linear.weight f4 [96, 512]
-0.010074171 -0.011669675 -0.0052799927 -0.008906719 -0.009023856 -0.003437979 -0.008482786 -0.0004228741
-0.0025302882 -0.020149222 -0.0054032872 -0.0035531037 -0.0041031945 -0.0069670086 -0.0022221773 -0.0038768281
-0.00940821 -0.0053963945 -0.011022667 -0.003910175 -0.003848741 -0.0072497055 -0.010819996 -0.0068318974
-3.809411e-05 -0.0002102784 -0.0061402237 -0.017764933 -0.0036905957 -0.010330704 -0.016571496 -0.00024064559
-0.014580436 -0.007925221 -0.006363798 -0.011178878 -0.008716653 -0.0035601167 -0.012495315 -0.0042499513
-0.005764437 -0.011460123 -0.0047488324 -0.0052466746 -0.0050753104 -0.012630353 -0.0040166993 0.0014574073
-0.012299086 -0.011210129 0.00429604 -0.0008449353 -0.014158185 -0.006231114 -0.00819625 -0.0056762393
-0.01094872 -0.004374831 -0.0078000734 -0.008709876 -0.009531339 -0.006474684 -0.0014678036 -0.0072709806
-0.0075496617 -0.00836566 -0.0105565535 -0.005175619 -0.021085285 -0.03553731 -0.04151433 0.079055145
0.023024246 -0.0006427093 -0.012706078 -0.010423624 -0.0031939913 -0.012202689 -0.0047085425 -0.011498013
0.0009361241 -0.011284947 -0.006452591 -0.004840112 -0.0035799192 -0.004536659 -0.00929362 -0.008521502
-0.01038512 -0.014418858 -0.005669356 -0.044415362 0.03917192 -0.0016339603 -0.0036319403 -0.006486147
-0.0038259698 -0.010195736 -0.01342857 -0.0051925327 -0.0040459004 -0.009407161 -0.0034564647 -0.014252923
0.00020086997 -0.0071369917 -0.01109123 -0.0046110707 -0.015221822 0.0046856357 -0.006872549 7.6290057e-06
-0.03353383 0.01736643 -0.016312607 -0.004943348 -0.007344827 -0.0108934995 -0.005931189 -0.009449763
0.0032260418 -0.011345303 -0.004454345 -0.011533056 -0.008130632 -0.001136374 -0.009558378 -0.0032545405
-0.0039694333 -0.009766578 -0.0028412682 -0.004104203 -0.0051903753 -0.008996117 0.0020605326 -0.010432257
-0.011642887 -0.0012177858 -0.012305993 -0.0041426993 -0.006983114 -0.01317818 -0.0033701803 0.0015957234
-0.01078238 -0.005521628 -0.004133362 -0.008101439 -0.00905489 -0.01023383 0.0014566318 -0.01120899
-0.00906342 -0.00093531277 -0.0067917593 -0.0048146034 -0.010906592 -0.0009036067 -0.012872758 -0.00375305
-0.01113742 -0.0050126375 -0.0028131972 -0.010178365 -0.004184881 -0.0001966728 -0.0149072725 -0.001450962
-0.0026602226 -0.006850364 0.0019540335 -0.01881111 -0.00909182 -0.0012952016 -0.006502718 -0.0065709366
-0.010313114 -0.012676635 -0.0016433892 -0.0055562085 -0.004033955 -0.014575739 -0.004994261 -0.003805035
-0.008444849 -0.0075247753 -0.007239373 -0.005581359 -0.009370181 -0.005615262 -0.007525561 -0.0040156273
-0.0060997186 -0.0042894306 -0.0043025953 -0.0141856475 -0.035091233 0.04575524 -0.0197811 -0.017966539
-0.004088944 -0.0111299995 0.00065241876 -0.008896287 -0.008527356 -0.007197755 -0.00796777 -0.007506343
-0.002107484 -0.005992673 -0.009703693 -0.0042684735 -0.00822586 -0.015318774 -0.005454246 -0.017853871
-0.03333086 -0.04869493 0.08242821 0.015682822 -0.0027518778 -0.0050968123 -0.011375949 -0.011544493
-0.012453509 -0.0070580896 0.00039895612 -0.01568488 -0.001951398 -0.0033463845 -0.015291038 -0.014073453
-0.0055983793 -0.013150255 -0.0069308598 0.000118762226 -0.009077298 -0.010765012 -0.040592507 0.04593152
-0.0026874074 -0.009652295 -0.00658474 -0.0051784487 -0.0072173746 -0.0016679146 -0.0119562745 -0.0053019486
-0.0017961386 -0.0060445806 -0.009831997 -0.009459147 -0.0041777915 -0.004155948 -0.0041886745 -0.00905565
00000000: 230e 25bc 2a32 3fbc ca03 adbb 7ded 11bc
00000010: ccd8 13bc b74f 61bb 62fb 0abc 33b5 ddb9
00000020: 31d3 25bb fb0f a5bc 0f0e b1bb 30db 68bb
00000030: 1774 86bb 814b e4bb f3a1 11bb 6212 7ebb
00000040: e524 1abc 3dd4 b0bb 6b98 34bc ed20 80bb
00000050: 293b 7cbb f08e edbb 5a46 31bc 1cde dfbb
00000060: 3dc7 1fb8 2e7e 5cb9 ee33 c9bb c487 91bc
00000070: ecdd 71bb 1d42 29bc f2c0 87bc cf55 7cb9
00000080: c8e2 6ebc c9d8 01bc 6887 d0bb 9d27 37bc
00000090: 4bd0 0ebc d950 69bb 26b9 4cbc 2d43 8bbb
000000a0: 9ae3 bcbb 3dc3 3bbc 189c 9bbb 4cec abbb
000000b0: ca4e a6bb 8aef 4ebc 849e 83bb 7906 bf3a
000000c0: 1b82 49bc b0aa 37bc ccc5 8c3b a67e 5dba
000000d0: bbf7 67bc 5f2e ccbb 9049 06bc bfff b9bb
000000e0: 4362 33bc be5a 8fbb c297 ffbb deb3 0ebc
000000f0: 5529 1cbc 9629 d4bb 5163 c0ba 6841 eebb
00000100: 2763 f7bb 1f10 09bc 65f5 2cbc 3d98 a9bb
00000110: 0cbb acbc 928f 11bd ee0a 2abd aae7 a13d
00000120: 589d bc3c 7e7b 28ba 272d 50bc d9c7 2abc
00000130: 4852 51bb caed 47bc 1e4a 9abb 2962 3cbc
00000140: 3a66 753a 80e4 38bc 4270 d3bb cd99 9ebb
00000150: 149d 6abb 41a8 94bb 4444 18bc c59d 0bbc
00000160: 5a26 2abc 133d 6cbc 01c6 b9bb e2ec 35bd
00000170: bc72 203d 9c2a d6ba d905 6ebb bf89 d4bb
00000180: 1fbd 7abb 040c 27bc 8103 5cbc 1f26 aabb
00000190: 7993 84bb 7e20 1abc db85 62bb 1885 69bc
000001a0: 9fa0 5239 6ddd e9bb feb7 35bc 7718 97bb
000001b0: f364 79bc f689 993b 1f33 e1bb a9fc ff36
000001c0: c55a 09bd 0b44 8e3c 04a2 85bc cffb a1bb
000001d0: e0ac f0bb a67a 32bc 6b5a c2bb 2ed3 1abc
000001e0: 006c 533b a6e1 39bc c1f5 91bb 25f5 3cbc
000001f0: 5836 05bc 62f2 94ba be9a 1cbc 214a 55bb
00000200: 0512 82bb ff03 20bc 9234 3abb 8d7c 86bb
00000210: 0614 aabb 7364 13bc 000a 073b 0fec 2abc
00000220: cfc1 3ebc 1c9e 9fba 139f 49bc 7bbf 87bb
00000230: 9bd2 e4bb 4be9 57bc 3ede 5cbb 9827 d13a
00000240: 94a8 30bc c6ee b4bb 2771 87bb e6bb 04bc
00000250: f65a 14bc cbab 27bc 74ec be3a e9a5 37bc
00000260: bd7e 14bc c72f 75ba 688d debb d2c3 9dbb
00000270: 90b1 32bc 05e0 6cba 43e8 52bc bbf5 75bb
00000280: ba79 36bc 0d41 a4bb 9e5d 38bb 28c3 26bc
00000290: 5421 89bb f439 4eb9 a23d 74bc 352e beba
000002a0: 2157 2ebb 0579 e0bb 3e0f 003b c219 9abc
000002b0: dbf5 14bc c1c3 a9ba c114 d5bb 0351 d7bb
000002c0: 56f8 28bc a9b1 4fbc fe66 d7ba db10 b6bb
000002d0: 442f 84bb 15cf 6ebc e6a6 a3bb e55d 79bb
000002e0: 445c 0abc 6492 f6bb 4338 edbb d5e3 b6bb
000002f0: 6385 19bc 3b00 b8bb fb98 f6bb 8695 83bb
00000300: 26e0 c7bb 5a8e 8cbb c9fc 8cbb eb6a 68bc
00000310: d3bb 0fbd d969 3b3d f90b a2bc 902e 93bc
00000320: 8cfc 85bb 9a5a 36bc 1507 2b3a bbc1 11bc
00000330: 53b6 0bbc 25db ebbb 408b 02bc c5f7 f5bb
00000340: b71d 0abb 2f5e c4bb 3dfc 1ebc 8dde 8bbb
00000350: c2c5 06bc 98fb 7abc 88b9 b2bb 4842 92bc
00000360: f185 08bd 5674 47bd 1fd0 a83d 4379 803c
00000370: d958 34bb 2903 a7bb 3062 3abc 1d25 3dbc
00000380: cd09 4cbc 8c47 e7bb fc2a d139 947d 80bc
00000390: 0dc6 ffba 044f 5bbb 4387 7abc 5794 66bc
000003a0: 9c72 b7bb 2b74 57bc 441c e3bb fc0f f938
000003b0: f3b8 14bc bc5f 30bc 5444 26bd b122 3c3d
000003c0: 371f 30bb a924 1ebc cdc4 d7bb faaf a9bb
000003d0: ba7f ecbb ed9d daba 40e4 43bc f8bb adbb
000003e0: 696c ebba 9e11 c6bb 6216 21bc 8afa 1abc
000003f0: dbe5 88bb 9e2e 88bb 2641 89bb 265e 14bc

Linear.bias f4 [96]
-0.0013734364 -0.0031684912 -0.003225652 -0.004701464 -0.0048145875 -0.005636576 -0.0057432833 -0.0062259235
-0.007177893 -0.007730068 -0.0072685448 -0.008266009 -0.007813135 -0.007501386 -0.006970552 -0.0065707676
-0.006769094 -0.0067849765 -0.006517898 -0.008147335 -0.008270588 -0.008037127 -0.00897415 -0.008564639
-0.008853087 -0.009672453 -0.0095028775 -0.010370118 -0.010111025 -0.01055198 -0.010168365 -0.010129482
-0.010865212 -0.010295546 -0.01176415 -0.009928779 -0.010255088 -0.010712908 -0.011529971 -0.011481598
-0.01137416 -0.011404808 -0.011633215 -0.012604379 -0.012615747 -0.012963966 -0.013691982 -0.013224899
-0.012593618 -0.012334149 -0.013250774 -0.013799384 -0.012439647 -0.0135390265 -0.013714592 -0.013796139
-0.014376608 -0.0139840655 -0.014959923 -0.013966137 -0.014410395 -0.014439322 -0.015113465 -0.0148327295
-0.015474734 -0.0155337555 -0.015335053 -0.015734218 -0.015860545 -0.014726185 -0.016414875 -0.01642898
-0.016829502 -0.015848847 -0.01595602 -0.015715925 -0.015630323 -0.015396109 -0.015281665 -0.015549295
-0.015047786 -0.015574429 -0.01624368 -0.015682912 -0.016000278 -0.016555738 -0.016974645 -0.016933324
-0.016911937 -0.016685098 -0.016541073 -0.016882014 -0.01666205 -0.016926838 -0.016194485 -0.015943296
00000000: e104 b4ba 76a6 4fbb 7665 53bb bd0e 9abb
00000010: b0c3 9dbb 07b3 b8bb 2732 bcbb d502 ccbb
00000020: 8834 ebbb 834c fdbb f92c eebb 286e 07bc
00000030: aa02 00bc 30ce f5bb 3a69 e4bb 984f d7bb
00000040: 47cf ddbb 8254 debb 1794 d5bb 667c 05bc
00000050: 5c81 07bc 27ae 03bc 5008 13bc b352 0cbc
00000060: 8a0c 11bc 3579 1ebc f5b1 1bbc 6de7 29bc
00000070: b6a8 25bc 36e2 2cbc 3799 26bc 20f6 25bc
00000080: 0104 32bc a6ae 28bc 6cbe 40bc 51ac 22bc
00000090: f504 28bc 3185 2fbc 34e8 3cbc 501d 3cbc
000000a0: af5a 3abc 3bdb 3abc 3d99 3ebc 9982 4ebc
000000b0: 47b2 4ebc d066 54bc 5654 60bc 3fad 58bc
000000c0: 7655 4ebc 2c15 4abc c619 59bc d016 62bc
000000d0: a9cf 4bbc cbd2 5dbc 2bb3 60bc 3309 62bc
000000e0: dd8b 6bbc 6c1d 65bc 771a 75bc 39d2 64bc
000000f0: 9419 6cbc e892 6cbc 779e 77bc fa04 73bc
00000100: bd89 7dbc 4b81 7ebc e03f 7bbc 0ce5 80bc
00000110: f9ed 81bc 1946 71bc 7d78 86bc 1196 86bc
00000120: 06de 89bc 71d5 81bc 33b6 82bc afbe 80bc
00000130: 2a0b 80bc f63f 7cbc f35f 7abc 78c2 7ebc
00000140: fd8a 76bc e42b 7fbc 7711 85bc 7379 80bc
00000150: 0413 83bc e69f 87bc 690e 8bbc c1b7 8abc
00000160: e78a 8abc 30af 88bc 2581 87bc 264c 8abc
00000170: da7e 88bc 27aa 8abc 4caa 84bc 849b 82bc
