weights/linear_freq_weights/RLinear_horizon96_lookback512_cycle_672/checkpoint.pth (torch, 198570 bytes, 2 tensors)

Linear.weight f4 [96, 512]
0	0xbba10204	-0.0049135704
1	0xbb8001af	-0.0039064507
2	0xbbf7a70f	-0.0075577567
3	0xbbead3a1	-0.0071663414
4	0xbb14a0c5	-0.0022678834
5	0xbc09ecfe	-0.00841832
6	0xbcb24633	-0.02176199
7	0x3cbf611b	0.023361733
8	0xbc806e94	-0.015677728
9	0xbca47525	-0.02007539
10	0x3c9a9724	0.018870898
11	0xbd0ef400	-0.034900665
12	0x3ca9621e	0.020676669
13	0xbcec3b83	-0.028836971
14	0x3c30d5aa	0.010793129
15	0xbc8a92f0	-0.016915768
16	0x39376c59	0.00017492603
17	0xbc841689	-0.016124027
18	0x39096762	0.00013103851
19	0xbbb777b7	-0.005598988
20	0x3b98250f	0.0046430896
21	0xbd0355f9	-0.03206441
22	0x3c31a8c7	0.010843462
23	0xbc36e580	-0.0111631155
24	0xba97378e	-0.0011536942
25	0xbcb80365	-0.022462556
26	0x3ca64acb	0.020299336
27	0xbcc5b047	-0.024131907
28	0xbbb359b1	-0.0054733385
29	0xbbaa3efc	-0.0051954966
30	0xbb4a9d7c	-0.0030916622
31	0xbc3e7379	-0.0116242105
32	0x3b0f3b9c	0.0021855598
33	0xbc8364dd	-0.016039306
34	0xbbe0d3ec	-0.0068612006
35	0x3be6d98c	0.0070449766
36	0xbca65b45	-0.020307193
37	0xbace8c63	-0.0015758391
38	0xbb3cdd6a	-0.0028818497
39	0xbc0d2026	-0.008613622
40	0xbbc4df79	-0.0060080853
41	0xbbf05276	-0.007334049
42	0xbb1e8c88	-0.002419265
43	0xbc6188e2	-0.013765546
44	0x3bb7f4c6	0.005613896
45	0xbca33f79	-0.019927727
46	0x3c0ef725	0.008725916
47	0xbcc43801	-0.023952486
48	0x3c261f65	0.010139321
49	0xbcb09759	-0.021556543
50	0x3b08e712	0.0020889682
51	0xbbf2adc4	-0.0074059684
52	0xbbea1856	-0.0071440144
53	0xbc0b8551	-0.008515672
54	0x3b82eed2	0.0039957548
55	0xbcc61e9e	-0.024184521
56	0x3c194368	0.00935445
57	0xbc909d95	-0.017653266
58	0x3af8cf6e	0.0018982717
59	0xba682332	-0.0008855342
60	0xbcc20352	-0.023683224
61	0x3ada85b0	0.0016671922
62	0xbb2ad4d0	-0.0026066788
63	0xbc78798d	-0.015165699
64	0x3c2b481e	0.010454206
65	0xbcd31add	-0.025769645
66	0x3b4dffbd	0.003143295
67	0xbb998401	-0.0046849255
68	0xbc409ce0	-0.011756152
69	0x3b64df1c	0.0034923023
70	0xbc86465c	-0.016390972
71	0x3bf3ccbd	0.007440178
72	0xbccf03f8	-0.025270447
73	0x3ae1a0d6	0.001721407
74	0x399c7c6f	0.0002984735
75	0xbcb61ccd	-0.02223053
76	0x3c3f16c2	0.011663141
77	0xbc8a9492	-0.016916547
78	0xbc605448	-0.013691969
79	0x3c8e0191	0.017334731
80	0xbcb74120	-0.022369921
81	0xbbc7eca5	-0.0061012083
82	0xba8fe662	-0.0010978694
83	0xbc2ca5ee	-0.010537608
84	0xbb967a11	-0.004592188
85	0xbc1c7158	-0.009548508
86	0xb9595acd	-0.00020728559
87	0xbc6adaa5	-0.0143343555
88	0xbc0e5a60	-0.008688539
89	0x3bf8560f	0.0075786184
90	0xbca4041e	-0.020021494
91	0xbad584f0	-0.0016290229
92	0xbb05d9f6	-0.0020424104
93	0xbc82eed5	-0.015983025
94	0xb98341bf	-0.00025035252
95	0x3b940ba0	0.0045179874
96	0xbcf18760	-0.029483497
97	0x3c0a166a	0.0084281955
98	0x3a41c8ae	0.00073922693
99	0xbcc15994	-0.023602284
100	0x3c1a1e20	0.009406596
101	0xba87a23b	-0.0010348031
102	0xbcef656f	-0.029223172
103	0x3c0b9fd4	0.008521993
104	0xbbaa00e6	-0.0051880954
105	0xbc826a9a	-0.015919972
106	0xba86ce22	-0.0010284821
107	0xbbcc14cd	-0.0062280656
108	0xbbee9b28	-0.0072816797
109	0xbc0a1978	-0.008428924
110	0xbaffbe87	-0.0019511738
111	0xbc4598a8	-0.012060322
112	0x39293f1d	0.00016140607
113	0xbc5dd124	-0.013538633
114	0x3beb5a83	0.0071824207
115	0xbcf44243	-0.029816752
116	0x3c831839	0.016002761
117	0xbc8a2573	-0.01686356
118	0xbc806046	-0.015670907
119	0x3c75a1b3	0.014992165
120	0xbc89c78f	-0.01681879
121	0xbbf167fc	-0.007367132
122	0xbc38c3c6	-0.011277145
123	0x3c544ab0	0.01295726
124	0xbcff611e	-0.031174239
125	0x3c4dfc56	0.012572369
126	0xbc8ac448	-0.016939297
127	0x3a82135f	0.0009923986
128	0xbc471464	-0.012150858
129	0xbbf45ca7	-0.007457334
130	0xbc276a18	-0.010218166
131	0x3c258881	0.010103346
132	0xbc419f47	-0.01181776
133	0xbc9e5bc2	-0.019330863
134	0x3ba7f207	0.0051252875
135	0xbc1b7e79	-0.009490603
136	0xbc1ab509	-0.009442576
137	0xbb04ca6a	-0.002026225
138	0xbb215845	-0.0024619263
139	0xbc339a8c	-0.01096214
140	0xbbe8701a	-0.0070934417
141	0xbb81a367	-0.0039562467
142	0xbb9ebcd4	-0.0048442874
143	0xbc9a1e23	-0.018813198
144	0x3b07205d	0.0020618655
145	0x3baf283d	0.005345373
146	0xbc94fc06	-0.01818658
147	0xbbefa2c6	-0.0073131053
148	0xbb496a5a	-0.0030733556
149	0xbbf471d4	-0.0074598584
150	0xbbec4558	-0.007210415
151	0xbc35801f	-0.01107791
152	0x3c00431e	0.007828502
153	0xbc49eb10	-0.01232411
154	0xbc3e47c2	-0.011613788
155	0xbc177ba4	-0.009245787
156	0x3bcb9988	0.0062133707
157	0xbc5c57c6	-0.013448661
158	0xbc1e2cc1	-0.009654225
159	0xbb5c671e	-0.0033630799
160	0xbb09cdfe	-0.0021027322
161	0xbc7fb595	-0.015607257
162	0xba3581f2	-0.00069239654
163	0xbc18649d	-0.009301332
164	0x3a3060f0	0.0006728312
165	0xbc5ea755	-0.0135897
166	0xba1deeb9	-0.0006024647
167	0xbc09427f	-0.00837767
168	0xbc01dc1a	-0.007926011
169	0xbb987893	-0.0046530454
170	0xbc110148	-0.008850403
171	0xbb550ebb	-0.003251
172	0xbc1d03f4	-0.009583462
173	0xbbef978f	-0.0073117684
174	0xbbbe3e49	-0.005805765
175	0xbb09470e	-0.0020946893
176	0xbc989d85	-0.018629799
177	0x3c2fad7c	0.010722514
178	0xbc78a44a	-0.015175888
179	0x37a0d16b	1.9171004e-05
180	0xbc5780d8	-0.013153277
181	0xbab5a887	-0.0013859429
182	0xbc0c60a9	-0.008567967
183	0xbc550b10	-0.013003126
184	0x3bc41836	0.0059843315
185	0xbc69f1ca	-0.014278838
186	0x3b47f5c8	0.0030511487
187	0xbca820a5	-0.020523379
188	0x3b4ba9c1	0.0031076523
189	0xbc034842	-0.008012833
190	0xbc74d5e6	-0.0149435755
191	0x3c25e0d7	0.010124407
192	0xbca39103	-0.019966608
193	0x3b144ee9	0.0022630042
194	0xbc130ed6	-0.008975705
195	0xbc09966a	-0.008397678
196	0xbb2927af	-0.0025811007
197	0xbc840d99	-0.016119765
198	0x3c2f9875	0.010717501
199	0xbcc44f72	-0.023963664
200	0x3bcef8f6	0.0063162996
201	0xbc5646da	-0.013078416
202	0x3bbd7379	0.0057815877
203	0xbcdbfbbc	-0.026853435
204	0x3c39328d	0.011303556
205	0xbc5a1ebe	-0.013312994
206	0xbc45ca62	-0.012072178
207	0xbb485251	-0.0030566643
208	0x3c1de4cc	0.009637069
209	0xbcf15ca8	-0.029463127
210	0x3c055745	0.008138482
211	0xbb956cb5	-0.004560078
212	0xbc911ff4	-0.017715432
213	0xbb56bbb2	-0.0032765684
214	0xbb8bbfb7	-0.0042647975
215	0xbb62fe9c	-0.0034636622
216	0xbc0dabd8	-0.008646928
217	0xbc15fdb3	-0.009154725
218	0x3b87fdd8	0.0041501336
219	0xbce825ae	-0.02833828
220	0x3c9cbf16	0.019134086
221	0xbc8b6966	-0.017018031
222	0xbc924efc	-0.017859928
223	0x3c1a050d	0.009400618
224	0xbc65b598	-0.014020346
225	0xbc07cc4b	-0.008288453
226	0x3b49f5aa	0.0030816593
227	0xbc7f5133	-0.015583324
228	0x39e22489	0.000431333
229	0xbc6afbd0	-0.014342263
230	0x3a97a645	0.0011569938
231	0xbc219d99	-0.009864234
232	0xbc0a119a	-0.008427048
233	0xbb8b6b69	-0.0042547476
234	0x3bcc71ee	0.0062391674
235	0xbca9e5ce	-0.020739462
236	0xbb57c2c5	-0.0032922488
237	0xbc1aaee4	-0.009441111
238	0x3b55a174	0.0032597454
239	0xbbe59269	-0.007005979
240	0xbc8a247a	-0.016863097
241	0x3ae223d5	0.001725311
242	0xbc13f789	-0.009031185
243	0xbbfcc34a	-0.00771371
244	0xbc309344	-0.010777298
245	0x3b75dd37	0.0037515888
246	0xbbc04c2b	-0.005868455
247	0xbc3a61f2	-0.011375891
248	0xbc446cbd	-0.011988816
249	0x3baeefe0	0.005338654
250	0xbc382325	-0.011238848
251	0xbb6f804b	-0.0036544974
252	0xbc8dd98c	-0.017315648
253	0x3b4c2b2b	0.003115366
254	0xbbae3d59	-0.005317372
255	0xbcab5a95	-0.020917216

Linear.bias f4 [96]
0	0xb91d9371	-0.00015027613
1	0xba15bf06	-0.00057123636
2	0xba8c1bdb	-0.0010689454
3	0xbac3f6a2	-0.0014950822
4	0xbafb92b4	-0.0019193501
5	0xbb15a01e	-0.0022831033
6	0xbb270727	-0.002548644
7	0xbb2fbb20	-0.0026814416
8	0xbb4d6cb5	-0.0031345312
9	0xbb5fbd65	-0.0034139988
10	0xbb678e93	-0.0035332784
11	0xbb686a47	-0.0035463737
12	0xbb6c6281	-0.0036069455
13	0xbb756b38	-0.003744794
14	0xbb7c8dd6	-0.003853669
15	0xbb84702a	-0.0040416913
16	0xbb8bc280	-0.0042651296
17	0xbb964e79	-0.0045869914
18	0xbba02be8	-0.0048880465
19	0xbba80b31	-0.0051282872
20	0xbba35620	-0.004984632
21	0xbba13940	-0.004920155
22	0xbba7ef90	-0.0051249936
23	0xbbafdd63	-0.0053669675
24	0xbbb765a5	-0.005596834
25	0xbbb9c1f0	-0.005668871
26	0xbbbec5fe	-0.0058219424
27	0xbbbeb768	-0.0058202036
28	0xbbc07d9c	-0.005874349
29	0xbbba190f	-0.0056792567
30	0xbbb6ca90	-0.0055783466
31	0xbbba1d48	-0.00567976
32	0xbbc27962	-0.00593488
33	0xbbc21d36	-0.0059238924
34	0xbbbbd4d3	-0.0057321577
35	0xbbb7de74	-0.0056112353
36	0xbbb6affa	-0.0055751773
37	0xbbb4e424	-0.0055203605
38	0xbbb0afe5	-0.005392062
39	0xbbae3645	-0.005316528
40	0xbbabae05	-0.0052392506
41	0xbbad1b84	-0.005282821
42	0xbbab81b4	-0.0052339677
43	0xbbaac3a2	-0.0052113095
44	0xbba82bbf	-0.005132168
45	0xbba66b77	-0.005078729
46	0xbba5c8de	-0.0050593456
47	0xbba496b1	-0.0050228466
48	0xbba6eea4	-0.005094366
49	0xbbaae90f	-0.005215771
50	0xbbae9876	-0.0053282334
51	0xbbae4d6f	-0.0053192894
52	0xbbb33b5e	-0.0054697236
53	0xbbb4d2ba	-0.0055182846
54	0xbbb3a21d	-0.005481972
55	0xbba8fcfe	-0.005157112
56	0xbb9e5044	-0.0048313458
57	0xbb9f9961	-0.004870579
58	0xbb9f2ad2	-0.0048573995
59	0xbb9bd8e4	-0.00475608
60	0xbb958564	-0.0045630205
61	0xbb964013	-0.004585275
62	0xbb9b6cdd	-0.004743202
63	0xbba353da	-0.004984361
64	0xbba4b7d0	-0.005026795
65	0xbba78140	-0.0051118433
66	0xbbaa9d32	-0.0052067274
67	0xbbafbbc0	-0.0053629577
68	0xbbb11404	-0.0054039974
69	0xbbab0e85	-0.0052202367
70	0xbba349ee	-0.0049831783
71	0xbba6698d	-0.0050785006
72	0xbba989b9	-0.0051738885
73	0xbbafa79b	-0.0053605563
74	0xbbb92e74	-0.0056512896
75	0xbbbcb0f5	-0.0057583996
76	0xbbb7d0c1	-0.005609602
77	0xbbb2c126	-0.005455154
78	0xbbb92098	-0.0056496374
79	0xbbbe874b	-0.005814468
80	0xbbbff2a3	-0.005857782
81	0xbbbb98cf	-0.0057250033
82	0xbbbe7673	-0.00581246
83	0xbbc7e77f	-0.0061005945
84	0xbbcf8c1e	-0.006333842
85	0xbbcb37de	-0.0062017282
86	0xbbc1d2db	-0.0059150285
87	0xbbc1171a	-0.0058926465
88	0xbbc04ef5	-0.0058687874
89	0xbbc33142	-0.0059567997
90	0xbbc94589	-0.0061423224
91	0xbbcdbca7	-0.0062785926
92	0xbbccf634	-0.0062549356
93	0xbbcddcc8	-0.0062824227
94	0xbbcd97d7	-0.0062742042
95	0xbbcca7fa	-0.0062456103
