weights/linear_freq_weights/RLinear_horizon96_lookback512_cycle_144/checkpoint.pth (torch, 198570 bytes, 2 tensors)

Linear.weight f4 [96, 512]
0	0xbc364e11	-0.011127011
1	0xbb4e6478	-0.003149299
2	0xbb5d5bed	-0.0033776716
3	0xbc01136b	-0.007878165
4	0xbc281f6a	-0.010261396
5	0xbbf12900	-0.007359624
6	0xbbc3e05c	-0.0059776735
7	0xbbd97c71	-0.006637149
8	0xbb817537	-0.0039507407
9	0xbc0f8816	-0.008760473
10	0xbc273a15	-0.010206719
11	0xbbdf81cd	-0.0068208934
12	0xbbf57732	-0.007491016
13	0xbbf0af28	-0.007345099
14	0xbbde44e2	-0.006783114
15	0xbc1f443c	-0.009720858
16	0xbb931c21	-0.004489437
17	0xbc22eea9	-0.009944596
18	0xbb524344	-0.003208355
19	0xbc1603c7	-0.009156174
20	0xbb81b4a0	-0.0039582998
21	0xbbea1afc	-0.00714433
22	0xbc24bfee	-0.010055525
23	0xbb9af249	-0.0047285897
24	0xbbbf0471	-0.005829387
25	0xbbee0d11	-0.007264741
26	0xbbdc7dea	-0.0067288773
27	0xbbe09e85	-0.0068548345
28	0xbc172d6d	-0.009227139
29	0xbbcaadc2	-0.0061852643
30	0xbc001eb8	-0.007819824
31	0xbc47d7b9	-0.012197428
32	0xbb952786	-0.0045518307
33	0xbb8c70ff	-0.004285931
34	0xbbf56262	-0.007488535
35	0x3acfed27	0.0015863524
36	0xbc261237	-0.010136179
37	0xbbe1073f	-0.006867319
38	0xbc169293	-0.009190219
39	0xbbc3b3ca	-0.0059723603
40	0xbbddb778	-0.006766256
41	0xbc2d2ab2	-0.010569261
42	0xbc4a3fc0	-0.012344301
43	0xbb878cde	-0.0041366657
44	0xbbda5b2e	-0.0066637015
45	0xbc0875be	-0.008328853
46	0xbc4f9338	-0.012669377
47	0xba09af4e	-0.00052522577
48	0xbb88b345	-0.004171761
49	0xbc4ad14a	-0.012379
50	0x39c7fe79	0.00038145835
51	0xbc0cc0a1	-0.008590848
52	0xbbc7e410	-0.006100185
53	0xbc12147b	-0.008916016
54	0xbc409f3c	-0.011756714
55	0xbb8030ef	-0.0039120833
56	0xbbb984e1	-0.0056615924
57	0xbbaf1284	-0.0053427834
58	0xbc168118	-0.009186052
59	0xbbbc5a3c	-0.0057480615
60	0xbc251ee0	-0.010078162
61	0xbc005204	-0.007832054
62	0xb9aa42b9	-0.0003247464
63	0xbb5b2247	-0.003343718
64	0xbc56bc1f	-0.013106375
65	0xbbf8a0d6	-0.0075875325
66	0xbbe265b1	-0.006909095
67	0xbc5903e9	-0.013245561
68	0xbae0f309	-0.0017162274
69	0xbbec8e89	-0.00721914
70	0xbc88413c	-0.016632669
71	0xbb21819f	-0.002464391
72	0xbc7884f3	-0.015168416
73	0xbc28206c	-0.010261636
74	0xbb0e8003	-0.0021743781
75	0xbbf814a3	-0.0075708195
76	0xbc77d88c	-0.015127312
77	0xbc4a7dc7	-0.012359089
78	0xbc84ab8f	-0.016195087
79	0xbca400a9	-0.020019846
80	0x3ca66b0d	0.020314718
81	0x3bf6b6f9	0.0075291363
82	0xbc0d7f11	-0.008636252
83	0xbb863f5a	-0.0040969076
84	0xbc1cd3b6	-0.00957196
85	0xbc391078	-0.01129543
86	0x3b4cc0a0	0.0031242743
87	0x3b8161c4	0.003948422
88	0xbc115397	-0.008870027
89	0xbbad0d7f	-0.00528115
90	0xbc58568a	-0.013204226
91	0xbc544ab2	-0.012957262
92	0x3b3838e5	0.0028110084
93	0xbbd9d7bf	-0.0066480334
94	0xbc4b0f4a	-0.012393782
95	0xbae5a6d3	-0.0017521031
96	0xbc141508	-0.009038217
97	0xbc8e1cb4	-0.017347671
98	0x3aceea2b	0.001578634
99	0xbb9dbdb6	-0.004813875
100	0xbc41aa46	-0.0118203815
101	0xbbdc87a7	-0.006730038
102	0xbc51f2a7	-0.0128142005
103	0xba2c386d	-0.00065696874
104	0xbbacd991	-0.0052749594
105	0xbbdc819e	-0.0067293188
106	0xbc26bfae	-0.010177536
107	0x3a5a2cf3	0.0008322738
108	0xbc5f133e	-0.013615428
109	0xbc096a0c	-0.0083871
110	0x3b43369b	0.0029787186
111	0xbbe262b5	-0.0069087395
112	0xbc56ce86	-0.013110762
113	0xbc2e951d	-0.010655669
114	0xbbe05220	-0.0068457276
115	0xbb6d7cd4	-0.0036237733
116	0xbb32c58a	-0.0027278387
117	0xbbdef579	-0.006804165
118	0xbbe0fb20	-0.006865874
119	0xbbf2e1e1	-0.007412181
120	0xbca3b256	-0.019982498
121	0xbb9b63cb	-0.004742121
122	0xbb92c2a3	-0.004478769
123	0xb9855014	-0.000254274
124	0xbc114518	-0.008866571
125	0xbc1cf3ac	-0.00957958
126	0xbb1e7b0a	-0.0024182224
127	0xbc0e2769	-0.008676388
128	0xbaa8d34c	-0.0012880354
129	0xbc3c7604	-0.0115027465
130	0xbc25b5a1	-0.0101141045
131	0xbb8587d4	-0.00407503
132	0xbbd74644	-0.0065696556
133	0xbc1f7b28	-0.009733953
134	0xbba95077	-0.005167063
135	0xbc112343	-0.008858505
136	0xbb9f76a9	-0.0048664403
137	0xbb940e24	-0.0045182873
138	0xbc32b0a3	-0.010906371
139	0xbc0bf013	-0.008541125
140	0xbc059b99	-0.008154773
141	0xbb872f99	-0.004125547
142	0xbbddcbe7	-0.006768692
143	0xbbd8e688	-0.0066192783
144	0xbbfceb9d	-0.007718517
145	0xbc339c97	-0.010962627
146	0xbb82c0b9	-0.0039902595
147	0xbbfe34fb	-0.0077577806
148	0xbbec21a4	-0.0072061587
149	0xbbd17f54	-0.0063933525
150	0xbc1f8206	-0.00973559
151	0xbbde2be2	-0.0067801336
152	0xbbb07464	-0.0053849686
153	0xbb90d2f7	-0.00441968
154	0xbc24b68b	-0.010053287
155	0xbbd7d16b	-0.006586244
156	0xbc1f4829	-0.009721794
157	0xbbdd79a0	-0.0067588836
158	0xbbda2c6d	-0.006658128
159	0xbb7d8b84	-0.0038687894
160	0xbbb83f63	-0.0056227907
161	0xbbe9ca98	-0.0071347468
162	0xbc009514	-0.007848043
163	0xbc11d4c4	-0.008900825
164	0xbb82a529	-0.003986974
165	0xbc521c5f	-0.012824147
166	0xbc179510	-0.009251848
167	0xbb49b822	-0.0030779918
168	0xbc397cc2	-0.0113212485
169	0xbc07de05	-0.00829268
170	0xbaf1cd15	-0.001844796
171	0xbbe70a14	-0.007050762
172	0xbbcfc319	-0.006340396
173	0xbc0a600d	-0.008445752
174	0xbc04638a	-0.008080373
175	0xbc3d48eb	-0.0115530295
176	0xbb06b697	-0.002055561
177	0xbc05cb4d	-0.008166146
178	0xbc2605f2	-0.010133253
179	0xbb6850fe	-0.0035448666
180	0xbc2ec8cc	-0.010667991
181	0xbc391f4c	-0.011298966
182	0xbad617b1	-0.0016333965
183	0xbc052f18	-0.008128904
184	0xbbe12156	-0.006870429
185	0xbb464d82	-0.00302586
186	0xbc050d02	-0.008120777
187	0xbc4c54d1	-0.012471394
188	0xbb99b289	-0.0046904725
189	0xbba7e994	-0.00512428
190	0xbb90728c	-0.0044081863
191	0xbbf91e31	-0.007602476
192	0xbc23943c	-0.009984072
193	0xbc34c720	-0.011033803
194	0xbb692f3a	-0.0035581128
195	0xbbec7ad9	-0.007216793
196	0xbc0b7a6d	-0.008513075
197	0xbae9ff60	-0.0017852597
198	0xbb85d563	-0.0040842756
199	0xbc6fb9c6	-0.014631694
200	0xbbb3f80c	-0.005492216
201	0xbb772e80	-0.0037716925
202	0xbb2dc409	-0.002651455
203	0xbb978867	-0.0046244147
204	0xbc75edf5	-0.015010347
205	0xbc1486b6	-0.009065321
206	0xbbbb2be0	-0.0057120174
207	0x3997f00a	0.00028979807
208	0xbbd4a63f	-0.0064895446
209	0xbbae8283	-0.005325617
210	0xbc1a1ded	-0.009406549
211	0xbc62544a	-0.013814041
212	0xbbc4659f	-0.0059935595
213	0xbba0f2fb	-0.004911778
214	0xbba9b3b1	-0.0051788916
215	0xbbac4872	-0.0052576596
216	0xbcc06af1	-0.023488494
217	0xbc9aa756	-0.01887862
218	0x3c436f20	0.01192835
219	0xbab5f265	-0.0013881443
220	0xbca2cad4	-0.019872107
221	0xbc279298	-0.010227822
222	0xbc7622b0	-0.015022919
223	0xbc791853	-0.015203553
224	0x3c5cca4f	0.0134759685
225	0x3b545f0b	0.0032405283
226	0xbc47d7e1	-0.012197466
227	0x3b410214	0.0029450702
228	0xbc61d116	-0.01378276
229	0xbc950be7	-0.018194152
230	0x3c249881	0.010046125
231	0x3b8561b0	0.004070483
232	0xbc03533c	-0.00801545
233	0xbc5ccee2	-0.013477059
234	0xbc4255d6	-0.011861285
235	0xbc3971de	-0.011318652
236	0xbb9e0329	-0.004822154
237	0xba869e5a	-0.0010270581
238	0xbc42d321	-0.011891157
239	0xbc00c70e	-0.007859958
240	0xbba70c1d	-0.0050978796
241	0xbbc9cc3e	-0.006158381
242	0xbbba76ce	-0.005690432
243	0xbbd1963c	-0.006396083
244	0xbc425772	-0.011861669
245	0xbbb2b9a4	-0.005454259
246	0xbbc1d566	-0.0059153317
247	0xbc5cfc58	-0.013487898
248	0xbb5d409e	-0.0033760439
249	0xbbf6c405	-0.0075306916
250	0xbbbbe0e8	-0.005733598
251	0xbbc4c0fc	-0.006004451
252	0xbc448b5b	-0.011996116
253	0xbc03aba6	-0.00803653
254	0xbb6e879d	-0.003639675
255	0xbc07ce5d	-0.008288947

Linear.bias f4 [96]
0	0xbad22701	-0.0016033353
1	0xbb0d939f	-0.0021602882
2	0xbb22dd83	-0.002485127
3	0xbb4e5c07	-0.0031487958
4	0xbb75aa94	-0.0037485706
5	0xbb8fa72e	-0.004383943
6	0xbbb4f1f6	-0.005522008
7	0xbbc5a890	-0.006032057
8	0xbbd39674	-0.0064571444
9	0xbbf268eb	-0.007397761
10	0xbbf945f5	-0.0076072165
11	0xbc0415a1	-0.008061797
12	0xbc0ab445	-0.008465831
13	0xbc0e81e8	-0.008697964
14	0xbc1377a9	-0.009000697
15	0xbc20b907	-0.009809739
16	0xbc22d6ff	-0.009938954
17	0xbc29ebe6	-0.010371184
18	0xbc243f28	-0.010024823
19	0xbc2daccf	-0.010600283
20	0xbc27bcc6	-0.010237878
21	0xbc34d155	-0.011036237
22	0xbc35ed08	-0.011103876
23	0xbc3c716d	-0.011501652
24	0xbc3e196b	-0.01160274
25	0xbc46c535	-0.012131979
26	0xbc41d68b	-0.011830936
27	0xbc494c0d	-0.012286198
28	0xbc4c6996	-0.0124763455
29	0xbc5400a3	-0.012939605
30	0xbc4d02d9	-0.012512886
31	0xbc55381b	-0.013013865
32	0xbc4ec5b7	-0.012620381
33	0xbc57370b	-0.013135682
34	0xbc5be720	-0.013421804
35	0xbc5f84e0	-0.01364252
36	0xbc65ba70	-0.014021501
37	0xbc68730b	-0.014187585
38	0xbc6a03bd	-0.014283118
39	0xbc72b8a9	-0.014814534
40	0xbc772555	-0.015084584
41	0xbc78dc3e	-0.015189229
42	0xbc71401f	-0.01472476
43	0xbc72d2e1	-0.014820785
44	0xbc76a9f3	-0.0150551675
45	0xbc765450	-0.01503475
46	0xbc75f2c6	-0.015011495
47	0xbc7effe7	-0.015563942
48	0xbc80338f	-0.015649585
49	0xbc7eca9f	-0.015551238
50	0xbc79bb92	-0.015242474
51	0xbc7c78e3	-0.015409681
52	0xbc807364	-0.015680023
53	0xbc82fe3b	-0.015990367
54	0xbc7dcfb6	-0.015491417
55	0xbc84e3c0	-0.01622188
56	0xbc828de2	-0.015936796
57	0xbc838379	-0.016053902
58	0xbc862e47	-0.016379489
59	0xbc89df8e	-0.016830232
60	0xbc8ba955	-0.017048517
61	0xbc8ac92d	-0.016941631
62	0xbc8cb6e6	-0.017177057
63	0xbc8c2755	-0.017108599
64	0xbc8e615d	-0.01738041
65	0xbc8dac19	-0.017293977
66	0xbc8f824d	-0.017518187
67	0xbc919d7d	-0.017775292
68	0xbc8da2b3	-0.017289495
69	0xbc8d36bc	-0.017238013
70	0xbc8ae61e	-0.016955432
71	0xbc9009f1	-0.017582865
72	0xbc935b5c	-0.0179879
73	0xbc935e70	-0.017989367
74	0xbc9501b3	-0.018189287
75	0xbc98b24b	-0.018639704
76	0xbc961da7	-0.018324686
77	0xbc95c81c	-0.018283896
78	0xbc94d570	-0.018168181
79	0xbc954662	-0.018222038
80	0xbc959a10	-0.01826194
81	0xbc99d49c	-0.018778138
82	0xbc9547e4	-0.018222757
83	0xbc9a56b7	-0.018840177
84	0xbc9d87a9	-0.019229727
85	0xbc9a6c69	-0.018850522
86	0xbc9ad142	-0.01889861
87	0xbc962620	-0.018328726
88	0xbc9b825d	-0.01898306
89	0xbc972d55	-0.018454233
90	0xbc9a0a78	-0.01880382
91	0xbc9984b4	-0.018740036
92	0xbc98689f	-0.018604575
93	0xbc98de6f	-0.018660752
94	0xbc99be0f	-0.018767385
95	0xbc9a498c	-0.018833898
