weights/linear_freq_weights/RLinear_horizon96_lookback512_cycle_224/checkpoint.pth (torch, 198570 bytes, 2 tensors)

Linear.weight f4 [96, 512]
0	0xbc1115df	-0.008855312
1	0xbb633356	-0.003466805
2	0xbba6fc99	-0.00509603
3	0xbbc35c1c	-0.005961908
4	0xbb798594	-0.0038074004
5	0xbb9cd41b	-0.004786027
6	0xbc0ec11c	-0.008713033
7	0xbbb01e36	-0.005374695
8	0xbc023168	-0.00794635
9	0x3a220c1c	0.0006181614
10	0xbb8041e9	-0.003914107
11	0xbc07ddfb	-0.00829267
12	0xbaf01f24	-0.0018319828
13	0xbb7252a5	-0.003697553
14	0xbc2a5600	-0.010396481
15	0xbbc49bd5	-0.006000022
16	0xbbf94efb	-0.007608292
17	0xbabd4562	-0.0014440233
18	0xbb9fe9b0	-0.0048801526
19	0xbbcaa8bd	-0.006184666
20	0xbba055cf	-0.0048930417
21	0xbb8e607b	-0.0043449975
22	0xbbbfb947	-0.005850944
23	0xbb292849	-0.0025811365
24	0xbb6d5df0	-0.0036219321
25	0xbbddccb9	-0.0067687896
26	0xbc11c0e6	-0.008896088
27	0xba350434	-0.00069052284
28	0xbbdbff33	-0.0067137717
29	0x3a7f336f	0.0009735142
30	0xbc18e7fd	-0.009332654
31	0xbb0d6f50	-0.002158124
32	0xbba27a50	-0.0049584284
33	0xbc01e699	-0.007928514
34	0xbc136437	-0.008996061
35	0xbb467766	-0.003028357
36	0xbb18a289	-0.0023290238
37	0xbb8186ae	-0.0039528226
38	0xbae9fa64	-0.0017851111
39	0xbb930064	-0.0044861306
40	0xbc0548ab	-0.008135001
41	0xbb87c211	-0.0041430076
42	0xbc21609d	-0.009849695
43	0xbbcb9661	-0.006212995
44	0xbbcd838d	-0.0062717856
45	0xbb97c0f6	-0.004631157
46	0xbbcb31bb	-0.0062009967
47	0xbb2f6426	-0.0026762574
48	0xbba34755	-0.0049828687
49	0xbbd838ef	-0.006598584
50	0xbbba3f1c	-0.0056837928
51	0xbc4308aa	-0.011903921
52	0xbc0bd849	-0.008535453
53	0xbc85f6d8	-0.016353056
54	0xb9916993	-0.00027735214
55	0x3c07bccc	0.008284759
56	0x3bbd6b94	0.0057806466
57	0xbc100bf2	-0.0087919105
58	0xbc962ed1	-0.01833287
59	0xbbb7fa66	-0.0056145666
60	0xbc20e6c0	-0.00982064
61	0xbbf43a7a	-0.00745326
62	0xbc3d686b	-0.01156054
63	0xbc2ea2cd	-0.010658932
64	0x3bcf59f8	0.006327864
65	0xbae29b9b	-0.0017288806
66	0x3b0ea82c	0.0021767719
67	0xbb586381	-0.0033018293
68	0xba04b7e4	-0.0005062802
69	0xbb56d107	-0.0032778399
70	0xbbb6da82	-0.0055802474
71	0xbc078f7a	-0.008273954
72	0xbc4aeec2	-0.012386026
73	0x3bc1f52a	0.0059191184
74	0x3c18583d	0.009298381
75	0xb71de8a7	-9.412098e-06
76	0xbbf62968	-0.00751226
77	0xbc17215f	-0.009224265
78	0xbbb859a8	-0.0056259222
79	0xbb983622	-0.004645125
80	0xbc30d0c5	-0.010791962
81	0xbad32a1b	-0.0016110571
82	0xbc508437	-0.012726835
83	0x3a9d9ba3	0.0012024533
84	0xbbb99c8b	-0.0056644133
85	0x3abbf14a	0.0014338878
86	0xbc51705e	-0.012783138
87	0xbb77a120	-0.0037785247
88	0xbb6ac5e1	-0.0035823511
89	0xbc42a53d	-0.011880216
90	0xbb25e13c	-0.0025311252
91	0xbb873a68	-0.0041268356
92	0xbb9aab62	-0.0047201375
93	0xbb96676c	-0.0045899656
94	0xbb9f88f8	-0.004868623
95	0xbbd5024d	-0.0065005184
96	0xbc3308e6	-0.0109274145
97	0x3b02f60e	0.0019983086
98	0xbb4b4fe3	-0.0031022958
99	0xbc517e2f	-0.012786432
100	0xbb1f2209	-0.002428176
101	0xbbd55d9e	-0.006511404
102	0xbb339d0e	-0.0027406844
103	0xbb3d5042	-0.0028886949
104	0xba15c83c	-0.0005713736
105	0xbc5ba933	-0.013407039
106	0xbb261504	-0.0025342116
107	0xbbaf7321	-0.0053543006
108	0xbc1992b1	-0.009373353
109	0xbc1a04c1	-0.0094005475
110	0xbb100739	-0.0021976961
111	0x3a77b80a	0.0009449726
112	0xbb95bffc	-0.0045700055
113	0xbbe55c8f	-0.0069995592
114	0xbbe69f08	-0.007038001
115	0xbba1bb5e	-0.004935666
116	0xbb2b96f1	-0.0026182497
117	0xbc55d212	-0.013050573
118	0x3ac0c708	0.0014707753
119	0xbb7d468c	-0.0038646786
120	0xbb7108eb	-0.0036778997
121	0xbc1435a1	-0.009045989
122	0x3a728ae9	0.00092522666
123	0xbc13bdca	-0.009017417
124	0xbbe43944	-0.0069648344
125	0xbb107196	-0.0022040359
126	0xbb98d58a	-0.0046641277
127	0xbc03052d	-0.0079968395
128	0xbbab557f	-0.005228698
129	0xbbbf0e51	-0.005830564
130	0xbac3ccda	-0.001493837
131	0xbba7b07b	-0.0051174737
132	0xbbfa389a	-0.007636142
133	0xbbcf2400	-0.00632143
134	0xba14a28f	-0.0005669975
135	0xbbd7f842	-0.006590874
136	0xbc009d03	-0.0078499345
137	0xbb43f023	-0.0029897771
138	0xbba3ab92	-0.004994818
139	0xbb375415	-0.00279737
140	0xbbd1d1b7	-0.006403174
141	0xbbe2d222	-0.0069220224
142	0xbb1f20c8	-0.0024281014
143	0xbbb22de5	-0.0054376
144	0xbbe6902f	-0.007036231
145	0xbbbdace9	-0.0057884348
146	0xbc0d556b	-0.008626322
147	0xbb3907b8	-0.002823336
148	0xbb6e077c	-0.003632038
149	0xbb655a38	-0.0034996402
150	0xbbba6747	-0.005688581
151	0xbb4de53c	-0.0031417152
152	0xbb9335eb	-0.0044925115
153	0xbbc07475	-0.0058732578
154	0xbc0533cd	-0.008130026
155	0xbbbf06d0	-0.0058296695
156	0xbbe5127d	-0.0069907294
157	0xbb46e3b2	-0.003034812
158	0xbbd2a887	-0.0064287814
159	0xbb5b8839	-0.0033497943
160	0xbb39b9dd	-0.0028339543
161	0xbbb7eb79	-0.0056127873
162	0xbba41250	-0.005007066
163	0xbbdb209b	-0.0066872365
164	0xbb7506ce	-0.003738809
165	0xbbc0f827	-0.005888957
166	0xbc20e2a7	-0.009819663
167	0xbaf1dcad	-0.0018452607
168	0xbb2d0f49	-0.0026406816
169	0xbb8b86f3	-0.0042580306
170	0xbc246712	-0.0100343395
171	0xbbcb0c26	-0.0061965166
172	0xbb3685be	-0.0027850713
173	0xbbeea357	-0.007282655
174	0xbba0ee08	-0.004911188
175	0xbb6d02ef	-0.0036165079
176	0xbb128a16	-0.0022360138
177	0xbbd0c4a6	-0.0063710986
178	0xbbbd6a92	-0.0057805264
179	0xbbb33aa5	-0.0054696375
180	0xbc3103e1	-0.010804147
181	0xbb000393	-0.001953338
182	0xbb5fd2f9	-0.003415285
183	0xbb8c329c	-0.004278494
184	0xbbc0e4cb	-0.0058866492
185	0xbbb136b5	-0.005408133
186	0xbb5a7f21	-0.0033339935
187	0xbb8e729f	-0.00434716
188	0xbbe09cf1	-0.0068546464
189	0xbbd18972	-0.0063945586
190	0xbb68368a	-0.0035432898
191	0xbb9b52b2	-0.0047400827
192	0xbbec5f7e	-0.007213532
193	0xbbedf31d	-0.0072616474
194	0xbba919aa	-0.00516053
195	0xbb5ceece	-0.0033711675
196	0xb9caeb9b	-0.00038703982
197	0xbbf9dda0	-0.0076252967
198	0xbbc7c945	-0.0060969912
199	0xbc03e91c	-0.008051183
200	0xbb9513d7	-0.0045494842
201	0xbb65f09c	-0.0035086041
202	0xbbd3f82d	-0.006468794
203	0xbc0d3595	-0.008618732
204	0xbb67184b	-0.0035262282
205	0xbb1a7311	-0.002356712
206	0xbb586dce	-0.0033024433
207	0xbbd4dccb	-0.006496047
208	0xbc05972b	-0.008153717
209	0xba2339c6	-0.00062265655
210	0xbbf25055	-0.00739483
211	0xbbd0fd03	-0.0063778176
212	0xbb8cff84	-0.004302921
213	0xbb767d80	-0.0037611425
214	0xbbf0507c	-0.0073338132
215	0x39a67b02	0.00031753635
216	0xbbc65ed0	-0.006053783
217	0xbb70919d	-0.0036707886
218	0xbc23280b	-0.009958277
219	0xbb851ec5	-0.004062506
220	0xbb1052ef	-0.0022022089
221	0xbc1c08a7	-0.009523547
222	0xbbf70b8c	-0.0075392183
223	0xbb72063c	-0.0036929986
224	0xbbd64544	-0.006539019
225	0xbbd32435	-0.006443525
226	0xbbd911b2	-0.006624424
227	0x3b26a5f0	0.0025428496
228	0xbb45d044	-0.003018395
229	0xbc3828a6	-0.01124016
230	0xbb9afed9	-0.0047300872
231	0xbb785804	-0.0037894258
232	0xbb1d0a66	-0.0023962497
233	0xbc10da91	-0.008841173
234	0xbb6e4f3f	-0.0036363152
235	0xbb831f37	-0.004001524
236	0xbbad7cfd	-0.005294441
237	0xbbbfdb45	-0.0058549964
238	0xbb7cf003	-0.0038595207
239	0xbc17a33f	-0.0092552295
240	0xbbbe926b	-0.005815794
241	0xbbd0bba1	-0.0063700234
242	0xba9e94d9	-0.0012098803
243	0xbb1a038f	-0.0023500656
244	0xbc38cd02	-0.011279346
245	0xbb0c3124	-0.0021391595
246	0xbb8782be	-0.0041354587
247	0xbbe97ace	-0.007125235
248	0xbb49c9af	-0.0030790379
249	0xbbeaa713	-0.00716103
250	0xbc23fd86	-0.010009175
251	0x3b719dea	0.0036867806
252	0xbbae3b0f	-0.005317099
253	0xbbd8bbeb	-0.0066141984
254	0xbb9a4ee0	-0.0047091097
255	0xbb8e0997	-0.0043346393

Linear.bias f4 [96]
0	0xba9928b0	-0.00116851
1	0xbb1824f9	-0.0023215397
2	0xbb353abb	-0.0027653414
3	0xbb814d73	-0.0039460002
4	0xbb90221a	-0.0043985965
5	0xbba51a20	-0.0050385147
6	0xbbbae4d9	-0.0057035503
7	0xbbd7e578	-0.006588634
8	0xbbf22d28	-0.007390637
9	0xbc01daa0	-0.007925659
10	0xbc0a61a2	-0.008446129
11	0xbc153275	-0.009106268
12	0xbc1bfc13	-0.009520548
13	0xbc27d8a5	-0.010244523
14	0xbc2fcbeb	-0.01072977
15	0xbc334fd9	-0.01094433
16	0xbc3cbac0	-0.011519134
17	0xbc47ccf1	-0.012194858
18	0xbc4d64d4	-0.012536246
19	0xbc553c04	-0.013014797
20	0xbc5e7088	-0.013576634
21	0xbc6767c2	-0.014123859
22	0xbc6810ab	-0.01416413
23	0xbc71e8d8	-0.014764987
24	0xbc76a961	-0.0150550315
25	0xbc8097a5	-0.01569731
26	0xbc80a3dd	-0.015703136
27	0xbc82cf6d	-0.015968049
28	0xbc84d163	-0.016213125
29	0xbc86b5a2	-0.016444031
30	0xbc8bf378	-0.017083868
31	0xbc8d1aea	-0.017224748
32	0xbc9159e1	-0.017743053
33	0xbc951a4e	-0.01820102
34	0xbc963103	-0.018333917
35	0xbc979f5d	-0.018508608
36	0xbc9befb6	-0.019035202
37	0xbc9f8063	-0.0194704
38	0xbc9f7b11	-0.019467862
39	0xbca34e8c	-0.019934915
40	0xbca57079	-0.020195233
41	0xbca95e70	-0.020674914
42	0xbcabf715	-0.020991841
43	0xbcabe7c5	-0.02098454
44	0xbcae5579	-0.02128099
45	0xbcae9ae7	-0.021314098
46	0xbcaeece5	-0.021353194
47	0xbcb12102	-0.021622185
48	0xbcb15ecf	-0.021651654
49	0xbcb2d492	-0.021829877
50	0xbcb30856	-0.02185456
51	0xbcb6ecac	-0.02232965
52	0xbcb80b51	-0.022466334
53	0xbcb9757e	-0.022639032
54	0xbcba321f	-0.022728978
55	0xbcbc6776	-0.022998553
56	0xbcbf5083	-0.02335382
57	0xbcbfa7a4	-0.023395367
58	0xbcc397db	-0.023876121
59	0xbcc257af	-0.023723451
60	0xbcc37a62	-0.023862068
61	0xbcc2f602	-0.023798946
62	0xbcc8cd6b	-0.024512013
63	0xbcc4089a	-0.023929883
64	0xbcc66e98	-0.024222657
65	0xbcc42aa9	-0.023946123
66	0xbcc34b71	-0.023839684
67	0xbcc57dab	-0.024107775
68	0xbcc61b82	-0.024183039
69	0xbcc8a7e9	-0.024494128
70	0xbccb7ca3	-0.024839705
71	0xbcca9445	-0.024728904
72	0xbccdfd1d	-0.025145108
73	0xbccdd8d2	-0.025127802
74	0xbccf350c	-0.02529385
75	0xbcd0d6ee	-0.025493111
76	0xbcd20e8d	-0.025641704
77	0xbcd2fefe	-0.025756355
78	0xbcd30d22	-0.025763098
79	0xbcd17564	-0.025568672
80	0xbcd1158c	-0.02552297
81	0xbcd219ee	-0.02564713
82	0xbcd1dc84	-0.025617845
83	0xbcd0e5a8	-0.025500134
84	0xbccedb6d	-0.025251115
85	0xbcce52b9	-0.02518593
86	0xbccdee5b	-0.02513807
87	0xbcce6211	-0.025193246
88	0xbccc2340	-0.024919152
89	0xbccb6e81	-0.024832966
90	0xbcccf9b7	-0.025021417
91	0xbccdd41d	-0.025125558
92	0xbcceb00c	-0.02523043
93	0xbccde8d7	-0.02513544
94	0xbccef6e7	-0.025264217
95	0xbcd017c8	-0.025401965
