weights/linear_freq_weights/RLinear_horizon96_lookback512_cycle_48/checkpoint.pth (torch, 198570 bytes, 2 tensors)

Linear.weight f4 [96, 512]
00000000: d847 88ba 8a01 d1bb fd6d dfbb f646 86bb
00000010: 2776 53bc b2de 6fbb 8e61 48bc 63d5 ccbb
00000020: b57b cabb 0bba 1bbc c956 cbbb 0eda f3bb
00000030: eab6 95bb 638d 28bc 37b9 99bb 2cbe 98bb
00000040: fd41 17bc cf6d aabb ada2 07bc f007 2bbc
00000050: 48c0 a1bb d84a 9cba 911e 18bc 97b0 03bc
00000060: b1af 83bb defb 37bc 6648 f7bb ab15 f0ba
00000070: e371 d238 d554 98bc b539 e6bb 56ee 16bd
00000080: 3f86 3d3d eb46 23bc 7163 21bc 033e a5bc
00000090: 7ed3 d9bb cac9 4abc 1ba7 20b9 31bc 09bc
000000a0: dc5a acbb b7c0 1dba 1817 f3bb 1513 0fbc
000000b0: e57e 24bc b7b6 32bc 478e d5bb d73a 05bc
000000c0: 36ad 33bc 9533 abbb c2ce f4bb 0d12 d6bb
000000d0: 4714 13bb 726f 46bc 62f1 1bbb 3858 e2bb
000000e0: 48de 35bc 9a9d 9abb 9cc7 efbb 700b 2ebc
000000f0: 31ae 50bb a863 18bc 39c9 ccbb c9ed e0bb
00000100: 6dbd 07bc e118 32bc 61f8 2ebb fd86 efbb
00000110: a7bc 4f38 5ae4 48bc 97b7 26bc 1704 6fbb
00000120: 0dab e7bb fdf5 70bb 674a d0bb 2b3c 24bc
00000130: 35b6 fcbb 9ac4 c63a 98a3 84bc 3c36 cabc
00000140: 2f7c 983c 4cb2 cb39 c5cb 63bc 31aa a8bc
00000150: 0dd5 94bb f235 61bc ed7e c33a 8135 05bc
00000160: 6a35 21bc 8911 ecbb f5e1 953a 8415 2cbc
00000170: 134c 51bc 7b9b 0abb c0f2 37bb a446 fabb
00000180: 832c c2bb 5267 51bc add9 c2bb edc9 aabb
00000190: 12ff faba c410 d5bb 79a6 50bc ba1b b5bb
000001a0: 31b1 dbbb fb0a 49bc a13b c5bb 2b2a 05bc
000001b0: 27b3 4bbc c1fa 8cbb 945f 37bc e94c 90bb
000001c0: 6838 90bb b4e2 02bc 04e0 1fbc f661 cbbb
000001d0: 438e 0dbc 592a fdbb 8a57 e4bb 541f a3bb
000001e0: 53f2 f4bb 549b 0abb 7e6b 18bc 17f3 dbbb
000001f0: 255a 2abc 7a47 a0bc e33e b73a d3d4 2abd
00000200: ea8d 1d3d f2b1 d83a 54f0 fb3b 1d99 30bc
00000210: 0838 7dbc 88aa a5bb 8d7e 3cbc bda1 30bc
00000220: cf49 acbb 3e8b 0dbc 9553 48bc f44e b2ba
00000230: 806a 9bbb 35d3 05bc 8ad1 1dbc ae6a bdbb
00000240: 0911 acbb 517e 44bc 7f25 bebb 692f 09bc
00000250: 41fc 8fbb 4bbe a0bb 7fe3 6dbc 668a 153b
00000260: d92f 73bc 20f0 11bc 1b0a 1dbc d5a4 55bb
00000270: 5a33 f0bb c35b b7bb 78cb 7bbb fa82 80bb
00000280: 14a6 3dbb 27dd ccbb 8d4b 62bc c7db 5cbc
00000290: a5da bb3a 1d39 16bc d72b 92bb 4ee6 5abc
000002a0: 1aff 87bb aac2 45bc 26b1 57bc e530 e4bc
000002b0: f84b 2cbc 1d95 2ebd 95f2 0cbd e258 37bd
000002c0: 4fd6 a93d 1ee5 e53c cfb2 063d 6dbe 21bc
000002d0: 6f92 f2bb b993 8dbb 651e 383a 6b98 16bc
000002e0: 405e cebb f1b4 2dbc 0e16 e3bb aad4 36bc
000002f0: abbc 2ebc 8c56 a1bb a8a7 03bc 7098 48bc
00000300: f0de 18bc cea6 15bc eba3 83ba 4217 7dbc
00000310: 0cb9 f7b9 d2a1 28bc f752 e8ba be12 90bb
00000320: 7156 d3bb 904c 30bc e7e7 f9bb 42f1 b2bb
00000330: de74 0ebc 37ed ddbb 2d0a a3ba edb5 84bb
00000340: 7a64 6abc 3906 34bc 5ceb 473a 02ec 66bc
00000350: e52b e5bb 4df4 c9b9 be54 adbb 7c6e eabb
00000360: 666f 45bc ea12 88bb 9b77 9abb c30b 9cbc
00000370: ab8f 4bbc d4c4 5dbc 1ca3 08bd 08cf efbc
00000380: 3956 533d d341 933b be84 153c 7ac9 09bc
00000390: 7cfa c938 05e3 79bc 9c27 33bb be59 e5bb
000003a0: 0e1b 26bc 79d5 e2bb a7a4 2fba 6066 09bc
000003b0: 9dc8 2cbc 64d6 86bb 2a1f f5bb efb9 01bc
000003c0: a3d9 dcbb 43af 25bc 51f7 fbb9 b1ac c0bb
000003d0: ef1a 55bc b120 0339 bfa5 87bc eb7b babb
000003e0: 68e8 9abb 4beb 0cbc 6a99 bcbb d6e2 00bc
000003f0: 402e f7bb 5b4b 13bc d70e 85bb 2d09 78bb
-0.0010397388 -0.0063783573 -0.0068185315 -0.0040978147 -0.012906588 -0.0036601243 -0.01223029 -0.0062510236
-0.006179298 -0.009504805 -0.006205414 -0.0074417656 -0.004568924 -0.0102876155 -0.004691269 -0.004661342
-0.009232041 -0.0052010785 -0.008278531 -0.010438904 -0.004936252 -0.0011924161 -0.009284631 -0.008037708
-0.004018747 -0.011229483 -0.0075464724 -0.0018317004 0.000100347934 -0.018595139 -0.007025922 -0.03684839
0.046270605 -0.009965639 -0.009850369 -0.020171171 -0.0066475263 -0.012377212 -0.0001532104 -0.008406685
-0.0052598547 -0.00060177915 -0.0074185245 -0.008732577 -0.01004002 -0.01090782 -0.006517205 -0.008131704
-0.01096659 -0.005224655 -0.0074709365 -0.0065329135 -0.0022442506 -0.012111532 -0.0023794998 -0.006907489
-0.011100359 -0.0047184946 -0.0073174965 -0.010622844 -0.0031842107 -0.009301104 -0.0062495735 -0.0068642837
-0.008284909 -0.010870189 -0.0026698338 -0.007309793 4.9528342e-05 -0.0122614745 -0.010175607 -0.0036470944
-0.0070699514 -0.0036767714 -0.0063565257 -0.010024111 -0.0077121505 0.0015164793 -0.016191289 -0.024684064
0.018613903 0.0003885202 -0.013903563 -0.020588966 -0.004541999 -0.013745772 0.0014915146 -0.008130432
-0.009839395 -0.007204239 0.0011435138 -0.010503177 -0.012774485 -0.0021149802 -0.0028068274 -0.0076378155
-0.0059257164 -0.012780981 -0.005946359 -0.0052120597 -0.0019149503 -0.0065022428 -0.012735003 -0.005526987
-0.0067044725 -0.012270684 -0.006019071 -0.008127729 -0.01243285 -0.004302353 -0.011192221 -0.0044036997
-0.0044012554 -0.007988621 -0.009757999 -0.006206746 -0.008639875 -0.0077259955 -0.0069684433 -0.0049781
-0.0074751764 -0.0021149712 -0.009302972 -0.006712328 -0.010397469 -0.019565333 0.0013980534 -0.04170687
0.038465418 0.0016532524 0.0076885615 -0.010778693 -0.015455253 -0.0050557293 -0.011504781 -0.010780749
-0.005257822 -0.008639155 -0.012226959 -0.0013603852 -0.0047429204 -0.008168031 -0.009632478 -0.0057805395
-0.005251054 -0.011993007 -0.0058028097 -0.00837312 -0.0043940847 -0.004905497 -0.014519571 0.0022818088
-0.014842951 -0.008907348 -0.009584929 -0.0032599468 -0.0073303403 -0.0055956556 -0.0038420837 -0.0039218636
-0.0028938102 -0.0062519494 -0.013811958 -0.013480133 0.0014332129 -0.00916889 -0.0044607925 -0.013360573
-0.0041502835 -0.012070337 -0.013164794 -0.027855346 -0.010516159 -0.042622674 -0.03441103 -0.0447625
0.08292829 0.028063353 0.03288537 -0.009872061 -0.00740271 -0.0043205884 0.0007023572 -0.009191613
-0.0062978566 -0.010602222 -0.0069301194 -0.0111591015 -0.010665099 -0.0049236473 -0.008035578 -0.012243375
-0.009330496 -0.009134008 -0.0010043358 -0.01544744 -0.00047249382 -0.010292487 -0.0017724921 -0.0043967655
-0.0064495136 -0.010760441 -0.007626522 -0.005460889 -0.0086948555 -0.006772663 -0.0012438946 -0.0040500076
-0.014306182 -0.010987812 0.0007626319 -0.014094355 -0.006993758 -0.00038519726 -0.005289643 -0.007154284
-0.012050485 -0.0041526454 -0.004713965 -0.019048577 -0.01242439 -0.013535697 -0.03335868 -0.029273525
0.0515959 0.004493931 0.0091258865 -0.008409852 9.631083e-05 -0.01525188 -0.0027336841 -0.0069992235
-0.010138286 -0.0069224206 -0.00067002553 -0.0083862245 -0.010545877 -0.004114913 -0.0074805217 -0.007917865
-0.0067398115 -0.010112586 -0.00048058716 -0.0058799614 -0.01300691 0.00012505312 -0.016558526 -0.0056910417
-0.004727412 -0.00860102 -0.005755593 -0.007866582 -0.007543355 -0.008990134 -0.004060607 -0.0037847266

Linear.bias f4 [96]
00000000: 9968 09bb 8b62 47bb 3b4e 3dbb 5a29 5dbb
00000010: b497 9dbb 84fc 9cbb 8717 a0bb 4c81 99bb
00000020: e538 abbb aca0 b2bb 2f10 c0bb 7d09 c4bb
00000030: dfe7 c6bb 8803 e5bb aceb dcbb a54b ebbb
00000040: a7cf f9bb 75b9 09bc 139e 0ebc e9a2 1abc
00000050: 9825 1bbc 3ae3 29bc 95ee 2dbc 7f47 3bbc
00000060: 25a5 41bc 93ca 2ebc 2569 29bc 9c8e 3cbc
00000070: fdfa 2ebc f96e 33bc 0d7b 30bc 95a5 36bc
00000080: 33ba 40bc 53e4 40bc 384a 48bc 953e 48bc
00000090: ad3b 42bc 19e6 47bc 4e3e 46bc 8ff8 4bbc
000000a0: 18d7 4dbc 206a 4ebc bd3f 4abc 0ba9 42bc
000000b0: 4a9b 4bbc dd3b 45bc b233 45bc d943 4cbc
000000c0: 4624 59bc 30a8 4fbc aaaa 42bc 8d31 4cbc
000000d0: d248 4fbc 48a2 57bc 74b6 66bc 1263 4fbc
000000e0: 19e4 4cbc 0ec9 4cbc c0ae 38bc 0871 41bc
000000f0: c3fb 41bc c6f3 47bc b5a4 4cbc 412a 56bc
00000100: 2d7d 54bc e676 4fbc beb0 51bc 0c08 62bc
00000110: ca23 5ebc b1d1 6cbc 2267 6abc 2f87 71bc
00000120: 0c30 70bc a0cc 6ebc cee5 71bc 7460 83bc
00000130: b41c 6dbc 063b 69bc 2144 71bc ebd8 6cbc
00000140: 968c 67bc dc71 72bc 7207 73bc ebe6 70bc
00000150: 0d82 75bc 3832 74bc e392 68bc 1d1e 6dbc
00000160: 6e0d 7abc c369 74bc c653 79bc 54b9 74bc
00000170: 88c3 72bc 94f9 7cbc d51c 73bc dc7f 7ebc
-0.0020966886 -0.0030423726 -0.002888574 -0.0033746571 -0.004809344 -0.0047908444 -0.004885617 -0.004684603
-0.005225288 -0.0054512825 -0.0058613042 -0.0059825764 -0.0060701217 -0.0069889463 -0.0067419615 -0.0071806484
-0.007623631 -0.008406033 -0.00870468 -0.009438255 -0.009469412 -0.010369116 -0.010615964 -0.01143062
-0.011819159 -0.010668415 -0.01034001 -0.01150861 -0.010679957 -0.010951751 -0.010771525 -0.011147876
-0.011763143 -0.011773187 -0.012224726 -0.012221952 -0.011855048 -0.012200856 -0.0120998155 -0.012449398
-0.012563489 -0.012598544 -0.012344298 -0.011881123 -0.0124271605 -0.012038198 -0.012036251 -0.012467348
-0.013253277 -0.012674376 -0.01188151 -0.012462986 -0.012651639 -0.013161249 -0.014081586 -0.012657898
-0.012505555 -0.012499107 -0.011272132 -0.011806734 -0.01183981 -0.012204116 -0.012490441 -0.013071598
-0.012969297 -0.012662625 -0.012798486 -0.013795864 -0.013558337 -0.014454291 -0.014306815 -0.014741703
-0.014659893 -0.014575154 -0.014764262 -0.016037203 -0.014472175 -0.014235264 -0.014725716 -0.014456014
-0.014132639 -0.014797654 -0.014833318 -0.014703493 -0.01498462 -0.014904551 -0.014195177 -0.014472512
-0.015261991 -0.014917794 -0.015217727 -0.014936764 -0.014817126 -0.015440363 -0.014838417 -0.015533414
