weights/linear_freq_weights/RLinear_horizon96_lookback512_cycle_90/checkpoint.pth (torch, 198570 bytes, 2 tensors)

Linear.weight f4 [96, 512]
-0.0031944755 -0.011781803 0.0005833038 -0.012448458 -0.012419687 -0.002882064 -0.0068963435 -0.0045016347
-0.0067639374 -0.010273408 -0.012661934 -0.0032271089 -0.0032416726 -0.0055681975 -0.014165655 -0.0038929258
-0.013431821 -3.8329315e-05 -0.015279631 -0.004052664 -0.0034433946 -0.005821857 -0.009666888 -0.011055041
-0.0047722966 -0.009530939 -0.009812854 -0.0019685952 -0.003972966 -0.010620841 -0.010562648 -0.009820204
-0.0059881015 -0.008429286 -0.0036244562 -0.012445677 -0.0053309216 -0.004100028 -0.012039629 -0.009600452
-0.002964322 -0.005164533 -0.013052399 -0.0005747749 -0.008340341 -0.0057246336 -0.018836683 0.00037105367
-0.008702931 -0.011822574 -0.012852403 0.0030539385 -0.00973256 -0.0053791893 -0.0055651255 -0.011658363
-0.009171597 -0.019913599 -0.0137234405 -0.00576547 -0.018283626 -0.037712917 0.04518068 -0.0055094566
-0.0025028083 0.0055568665 -0.0035329107 -0.012007035 -0.010877692 -0.00613677 0.0035744733 -0.0120814415
-0.0041492553 -0.018013457 -0.0015146688 0.0011945929 -0.019384071 -0.0027597018 -0.011686612 -0.0029651558
-0.008538048 -0.0110175675 -0.008804907 -0.0074610612 -0.0042996216 -0.010450058 -0.010453244 -0.002583148
-0.007267451 -0.012037062 -0.0012543388 -0.010529959 -0.009667046 -0.0050821486 -0.009762215 -0.009672253
-0.007495108 -0.0091768075 -0.0026675751 -0.00827852 -0.008888023 -0.008622252 -0.010907557 -0.009315332
-0.0015912587 -0.009556026 -0.01091775 -0.00016450697 -0.01516231 -0.005673069 -0.009767426 -0.0041161343
-0.008901901 -0.008931039 -0.008096205 -0.008498537 -0.0049650706 -0.009799802 -0.005307705 -0.0065241917
-0.0036176154 -0.0111204805 -0.005432671 -0.010599237 -0.007754433 -0.013231645 -0.002674853 -0.010295986
-0.0026576298 -0.0051022856 -0.005571164 -0.008704872 -0.011341185 -0.012482224 -0.0030613714 -0.0069076903
-0.013144324 -0.0014184797 -0.0030655463 -0.011511737 -0.012429879 -0.0032788573 -0.0035905833 -0.008426045
-0.012462621 -0.0072848173 -0.005741819 -0.021401728 -0.014541633 0.015942952 -0.0277447 -0.03586478
0.02293413 0.008401992 0.004409687 -0.017791638 -0.0028391173 -0.008962922 -0.0073228898 -0.013323539
0.0014399391 -0.0110917855 -0.015112363 -0.004027274 -0.010118005 -0.0037963027 -0.01916652 0.007991692
-0.013874766 -0.0036821822 -0.01358542 -0.004991185 -0.0018703247 -0.0117438035 -0.009038025 -0.0043857936
-0.0041719927 -0.009975967 -0.011752601 -0.007112745 -0.0042585246 -0.008644716 -0.008718356 -0.003574578
-0.010377157 -0.008351493 -0.0063298666 -0.008872448 -0.008782187 -0.0040421393 -0.006967672 -0.004451429
-0.01627973 -0.004701401 -0.009310903 -0.008579125 -0.0041899765 -0.009695584 -0.009781928 -0.0032554998
-0.008778216 -0.009287778 -0.0072579826 -0.0068245493 -0.0066278107 -0.008846394 -0.005762317 -0.0073125307
-0.009734589 -0.012298617 -0.008272224 -0.0074512046 -0.0020440775 -0.006977448 -0.0038749145 -0.009946984
-0.004125134 -0.010786158 -0.013052098 -0.005806199 -0.008545512 -0.00555953 -0.01188114 -0.0015696245
-0.007337458 -0.008191598 -0.008485055 -0.006915238 -0.008478299 -0.0069459868 -0.0073630083 0.003200205
-0.017110474 -0.003548279 -0.0100426 -0.01034162 -0.007469332 -0.016517416 0.002372917 -0.018695364
-0.017370434 -0.03560458 0.032466806 -0.00039732736 -0.007683729 -0.017276254 0.008618374 -0.0032034712
-0.012515006 -0.0033157216 -0.011273775 -0.0029855103 -0.016258609 0.0026770937 -0.011322083 -0.013265773
00000000: 685a 51bb 7708 41bc dbe8 183a 9ef4 4bbc
00000010: f17b 4bbc 03e1 3cbb b9fa e1bb 7382 93bb
00000020: 05a4 ddbb cc51 28bc 0074 4fbc e77d 53bb
00000030: 3e72 54bb 6d75 b6bb 1017 68bc 7520 7fbb
00000040: 2411 5cbc cac3 20b8 6b57 7abc 36cc 84bb
00000050: 93aa 61bb 47c5 bebb de61 1ebc 3420 35bc
00000060: ed60 9cbb a827 1cbc 18c6 20bc 8c03 01bb
00000070: a82f 82bb 0903 2ebc f50e 2dbc ece4 20bc
00000080: d637 c4bb fd1a 0abc 4988 6dbb f4e8 4bbc
00000090: 03af aebb 8759 86bb dd41 45bc 374b 1dbc
000000a0: 1245 42bb 3e3b a9bb bbd9 55bc 7eac 16ba
000000b0: eda5 08bc b595 bbbb 634f 9abc fb89 c239
000000c0: bd96 0ebc 78b3 41bc e392 52bc 9624 483b
000000d0: 5175 1fbc e943 b0bb a85b b6bb b802 3fbc
000000e0: 7744 16bc d821 a3bc 48d8 60bc 45ec bcbb
000000f0: 8bc7 95bc dc78 1abd 600f 393d ac88 b4bb
00000100: 2806 24bb 6016 b63b 6888 67bb 28b9 44bc
00000110: 5938 32bc f516 c9bb b641 6a3b 3df1 45bc
00000120: 7af6 87bb f590 93bc da87 c6ba e393 9c3a
00000130: 58cb 9ebc 1ddc 34bb 3479 3fbc 0f53 42bb
00000140: 2be3 0bbc 0783 34bc 7542 10bc eb7b f4bb
00000150: d7e3 8cbb b836 2bbc 1544 2bbc 084a 29bb
00000160: cc23 eebb 1937 45bc a068 a4ba d985 2cbc
00000170: 8862 1ebc 2788 a6bb b3f1 1fbc 5f78 1ebc
00000180: 8699 f5bb 525a 16bc 7cd2 2ebb a1a2 07bc
00000190: 129f 11bc 5944 0dbc 9cb5 32bc 569f 18bc
000001a0: c891 d0ba e190 1cbc 5de0 32bc 817f 2cb9
000001b0: 566b 78bc 27e5 b9bb 8e07 20bc a3e0 86bb
000001c0: 47d9 11bc 7e53 12bc f2a5 04bc 733d 0bbc
000001d0: 08b2 a2bb 598f 20bc 42ec adbb e3c8 d5bb
000001e0: 8415 6dbb ad32 36bc 8c04 b2bb 6ca8 2dbc
000001f0: e618 febb 8bc9 58bc 964c 2fbb 7fb0 28bc
00000200: a12b 2ebb 1331 a7bb 508e b6bb e19e 0ebc
00000210: 61d0 39bc 3e82 4cbc 4aa1 48bb e859 e2bb
00000220: 4a5b 57bc 48ec b9ba 55e7 48bb b99b 3cbc
00000230: b1a6 4bbc 19e2 56bb fe4f 6bbb 650d 0abc
00000240: 0530 4cbc 7ab5 eebb de25 bcbb ad52 afbc
00000250: 0840 6ebc cb9a 823c da48 e3bc f3e6 12bd
00000260: 5be0 bb3c 82a8 093c 237f 903b c5bf 91bc
00000270: 7c10 3abb 38d9 12bc daf4 efbb f94a 5abc
00000280: 57bc bc3a 52ba 35bc d899 77bc 39f7 83bb
00000290: fdc5 25bc 64cb 78bb 1b03 9dbc 96ef 023c
000002a0: fd52 63bc c450 71bb 6295 5ebc 188d a3bb
000002b0: af25 f5ba 1569 40bc 3914 14bc b4b6 8fbb
000002c0: 36b5 88bb 3d72 23bc fb8d 40bc 0812 e9bb
000002d0: 188b 8bbb 91a2 0dbc 6fd7 0ebc 7843 6abb
000002e0: f304 2abc b3d4 08bc c56a cfbb be5d 11bc
000002f0: 29e3 0fbc ec73 84bb 1251 e4bb 4bdd 91bb
00000300: 115d 85bc 360e 9abb c28c 18bc 758f 0cbc
00000310: 124c 89bb 3ada 1ebc 6144 20bc 395a 55bb
00000320: 82d2 0fbc c42b 18bc 5fd4 edbb 78a0 dfbb
00000330: 1b2e d9bb 77f0 10bc d2d1 bcbb f49d efbb
00000340: d37d 1fbc 2380 49bc 3988 07bc 3c29 f4bb
00000350: eef5 05bb 13a3 e4bb 47f2 7dbb adf8 22bc
00000360: 222c 87bb 6db8 30bc 78d8 55bc ed41 bebb
00000370: 7a02 0cbc b82c b6bb 1da9 42bc dcbb cdba
00000380: 0f6f f0bb 0d36 06bc e604 0bbc 3999 e2bb
00000390: 90e8 0abc 299b e3bb 6445 f1bb 88ba 513b
000003a0: 442b 8cbc 3e8a 68bb b889 24bc e66f 29bc
000003b0: 4cc1 f4bb 884f 87bc f182 1b3b 0527 99bc
000003c0: 714c 8ebc 1cd6 11bd eafb 043d 6050 d0b9
000003d0: cac7 fbbb ee86 8dbc 1534 0d3c 54f1 51bb
000003e0: bd0b 4dbc 944c 59bb a4b5 38bc 8da8 43bb
000003f0: c630 85bc 2e72 2f3b 4280 39bc af58 59bc

Linear.bias f4 [96]
-0.00054798904 -0.0014802484 -0.0018080055 -0.003117292 -0.004024015 -0.0041568237 -0.00508485 -0.005796568
-0.006367802 -0.0067571946 -0.007464015 -0.007630952 -0.008570851 -0.008929463 -0.008487084 -0.008866301
-0.009791401 -0.010385001 -0.010594955 -0.011287175 -0.011534586 -0.011550828 -0.012056068 -0.011927558
-0.011812427 -0.012279214 -0.012560208 -0.012175009 -0.012198063 -0.012835512 -0.012747183 -0.013145697
-0.013608635 -0.0137803005 -0.014033139 -0.013880307 -0.013694963 -0.013873942 -0.013727819 -0.013895127
-0.014219203 -0.014264443 -0.014731532 -0.014772861 -0.01428489 -0.014447621 -0.014710666 -0.014503083
-0.014727737 -0.015339909 -0.015606069 -0.015652465 -0.015390679 -0.015032465 -0.014230314 -0.014328583
-0.0146911815 -0.014704019 -0.014527186 -0.014417361 -0.01469725 -0.015270317 -0.015570166 -0.015467314
-0.014871084 -0.013979976 -0.013897959 -0.013845476 -0.01459221 -0.014667567 -0.0147286225 -0.015205677
-0.015575266 -0.015377869 -0.015448545 -0.015653271 -0.016330916 -0.016781904 -0.01633736 -0.016344175
-0.016152378 -0.015876787 -0.016336147 -0.015861616 -0.015807848 -0.01575902 -0.015917512 -0.015534947
-0.015785536 -0.015932264 -0.016410671 -0.015797302 -0.015382478 -0.016155234 -0.016168213 -0.016555304
00000000: eca6 0fba e504 c2ba 99fa ecba 7b4b 4cbb
00000010: e2db 83bb f735 88bb d09e a6bb 23f1 bdbb
00000020: ffa8 d0bb 756b ddbb b294 f4bb 110d fabb
00000030: c16c 0cbc e24c 12bc 690d 0bbc f643 11bc
00000040: 1d6c 20bc da25 2abc 7696 2dbc d8ed 38bc
00000050: 8ffb 3cbc af3f 3dbc d086 45bc ce6b 43bc
00000060: e988 41bc c22e 49bc 55c9 4dbc b079 47bc
00000070: 62da 47bc 0a4c 52bc 90d9 50bc 0d61 57bc
00000080: c1f6 5ebc c5c6 61bc 40eb 65bc 3a6a 63bc
00000090: d760 60bc 884f 63bc a5ea 60bc 63a8 63bc
000000a0: a9f7 68bc 69b5 69bc 865c 71bc df09 72bc
000000b0: 2c0b 6abc b7b5 6cbc 0105 71bc 579e 6dbc
000000c0: 9b4c 71bc 3e54 7bbc 99b0 7fbc 9939 80bc
000000d0: 3029 7cbc ba4a 76bc 4326 69bc 6fc2 6abc
000000e0: 48b3 70bc 20e9 70bc 6f03 6ebc cb36 6cbc
000000f0: bccc 70bc 5a30 7abc 021a 7fbc 9e6a 7dbc
00000100: d9a5 73bc 450c 65bc 44b4 63bc 23d8 62bc
00000110: 2a14 6fbc 3c50 70bc 5250 71bc 3b21 79bc
00000120: 672f 7fbc 75f3 7bbc e51b 7dbc 4a3b 80bc
00000130: 6ac8 85bc 347a 89bc edd5 85bc 38e4 85bc
00000140: fe51 84bc 0910 82bc 62d3 85bc 38f0 81bc
00000150: 767f 81bc 0f19 81bc 7165 82bc 4a86 7ebc
00000160: ab50 81bc 6184 82bc ac6f 86bc 5869 81bc
00000170: ca06 7cbc fb57 84bc 3373 84bc fd9e 87bc
