weights/linear_freq_weights/RLinear_horizon96_lookback512_cycle_1440/checkpoint.pth (torch, 198570 bytes, 2 tensors)

Linear.weight f4 [96, 512]
00000000: ec03 98bc da39 13bb 9794 413b 86d3 26bb
00000010: b2a0 3abb c147 a5bc 07a2 fbbc e94c 0f3d
00000020: e14c 60bc 77b4 e1bc 6fe5 be3c 5b38 30bd
00000030: 27b7 a63c f2b0 f2bc f14f 923c 3647 61bc
00000040: 1c1d ddba 8dbe d3bc 6a5a 813b 3626 b5bb
00000050: fab3 3839 aa2b 0bbd 06ce 9d3c f766 4dbc
00000060: 8173 1fbc a26d e3bc f489 0c3d 093f afbc
00000070: a63a 58bc 3092 5abc d02c 503b 1f8a f7bb
00000080: 696e 2c3a d971 e0bc acaa 24bb 8b54 953c
00000090: 6f6e b4bc 2d64 19bc 7491 ebbb 2eaf b0bc
000000a0: b287 773b 4db9 0f3c 740a babb e528 24bd
000000b0: a699 a93b 938c 503b af6e 973c 64b9 0dbd
000000c0: 9a8f 25ba eb37 debc 0b7e 5a3c 656d dbbb
000000d0: 6c5f 5cbc 29c8 4abc 4622 6d3c 5347 c4bc
000000e0: 085b 983a e3e6 c7bc 02aa fc3b 3ec9 233c
000000f0: 6387 06bd c05b 02bc dccb 7d39 b7da 1bbc
00000100: 818f 7a3c 2db1 0fbd 9fde 1837 2a82 463a
00000110: 1b14 b7bb 461b 7cbc 4842 8cbc 54e9 bc3c
00000120: 7ede c2bc a62f 24bb d36c 43bc 2116 c3bc
00000130: 094a c13c a1d4 70bc db48 e4bc 88b7 bc3c
00000140: 6519 b7bc d9c8 0dbc 2152 06bb dd44 18bc
00000150: 2630 05bc ccd7 91bb dece b33a 6c25 bbbc
00000160: 5310 84bc ebf0 8c3c 6da4 0fbc a6b9 c437
00000170: 9d3e c6bc a6bd 83bc 97e8 4b3c a409 4c3c
00000180: dd9c 2bbd 2b31 093b 195d 923b 7838 d8bc
00000190: cbe6 783c 4a29 09bc 2018 22bd 8ecf 923c
000001a0: f438 8a3b 2d31 d2bc b7ae 17bc fe27 4c3b
000001b0: 4bc2 42bb 77fe 36bc 15c5 01bc c061 33bc
000001c0: a2b6 303b 9338 a5bc 8560 153c d146 fbbc
000001d0: cbb1 de3c c24e afbc 065a e1bc 59c9 b63c
000001e0: c987 20bc f3ea 6ebc acd0 99bc e947 ac3c
000001f0: 0381 28bd a479 f23b bffd 4bbc 35e0 8e3c
00000200: aa50 7dbc bc2d dbbc 1ce1 01bc 08f7 ae3c
00000210: 96aa 42bc 886a f4bc bdae ed3b cc66 c2bb
00000220: 93a5 bfbb ca6a 9dbb b7a8 37bc 018f 62bc
00000230: 25b4 7bbb 8395 673b f73e 4cbc 787c c5bc
00000240: 740b 803c 19fd 1b3c 09fb 05bd 4a82 88bc
00000250: 59d5 f83b 067b 3a38 5707 a0bc 4b85 82bc
00000260: 8e8e 953c b0e6 a4bb 02d6 e4bc 0518 67bc
00000270: 680b 8b3c 8b87 7bbc 2652 79bc c326 853b
00000280: 49ac 90ba 4a37 92bc bc0c 9eba 89c9 0cbc
00000290: 7361 3eba 4d51 c0bc bb48 94ba 40c0 663a
000002a0: 80e4 d7bb f034 88bc 1384 e9bb 45bb 8d3b
000002b0: 678a f2bb 1e29 92bc 3016 04bc b8ae 3c3b
000002c0: 7c9c 8ebc a649 803c d8b8 d1bc 6b91 a1bb
000002d0: 8a8b 93bb 9b6a 02bb 96eb 96bc 2ba6 6bbc
000002e0: 7352 b13c 4193 99bc eef0 5bbb 9a81 eebc
000002f0: 640e 583c 6417 6dbb 2361 b8bc 2770 2f3c
00000300: 1dda dcbc 7ef2 b73b a1fe 36bb 89f2 91bb
00000310: 0638 7cbc 58e0 c3bc f6b2 b03c 4e59 90bc
00000320: bf50 cbba 883d d4bc 88cf 1d3c 63cb a0bc
00000330: 01d0 883c 28a2 87bc d37c 6fbc c599 cebb
00000340: 355b 243c 3919 1abd 67b6 6b3c dae3 81bb
00000350: 4150 8abc 661f 26bb 78a4 e7bb 59d9 f6bb
00000360: a5e7 43bc 6c1e d3ba a50e 1f3c 4370 21bd
00000370: 1f99 8b3c c462 71bc 07d8 82bc fb76 2d3c
00000380: b1ba 6ebc 3161 9fbc bfc9 f23b e30d e0bb
00000390: 97be 20bc 11a8 69bc 613a 703b 4831 24b9
000003a0: 6ff8 4cbc 2559 4cbc 0271 bdba 894a 9bbc
000003b0: 4b47 733b fd0f 96ba a429 bc3b 8cfe ebbc
000003c0: 1f1f b6bc f3ab 1e3c 7a3a 38bb e524 91bc
000003d0: d9df 3e3a 2524 1b3c 1ca4 8dbc f40e d5bc
000003e0: 3987 adb8 096b 393c 1f24 47bc dd09 39bc
000003f0: bc74 93bc df6a 2d3c c22c e0bb f89e edbc
-0.018556558 -0.0022464902 0.002953803 -0.0025455668 -0.002847713 -0.020175816 -0.03071691 0.034985457
-0.013690204 -0.027551873 0.023302762 -0.043022495 0.020351006 -0.02962539 0.017860385 -0.013749888
-0.0016869637 -0.025847698 0.003947546 -0.0055282367 0.00017614654 -0.03397719 0.019263279 -0.012536756
-0.009732128 -0.027762238 0.03431125 -0.021392362 -0.013197577 -0.013340518 0.0031764992 -0.007554307
0.00065777317 -0.027398037 -0.0025126142 0.01822879 -0.022025315 -0.009362263 -0.00718897 -0.021567907
0.003777009 0.0087722065 -0.0056775156 -0.040078063 0.005175787 0.003182207 0.018485395 -0.03460063
-0.0006315649 -0.027126273 0.013335715 -0.0066963905 -0.013450485 -0.012376823 0.014473503 -0.023959791
0.0011623809 -0.024402088 0.007710696 0.00999671 -0.03284396 -0.007956445 0.00024203904 -0.009512595
0.015293003 -0.035081077 9.111739e-06 0.00075724965 -0.0055871136 -0.015387362 -0.01712145 0.023060478
-0.023787733 -0.0025052815 -0.011927801 -0.023814263 0.023594873 -0.014699132 -0.027866771 0.023036733
-0.022350976 -0.008653843 -0.002049573 -0.009293762 -0.008129155 -0.004450774 0.0013718267 -0.022844993
-0.016121065 0.017204722 -0.0087672295 2.345147e-05 -0.024199778 -0.016081642 0.01244559 0.01245347
-0.041897643 0.0020933847 0.0044666645 -0.026394114 0.015191744 -0.0083716605 -0.03957379 0.017921235
0.004218215 -0.025658214 -0.009257964 0.0031151767 -0.0029717858 -0.011169068 -0.007920523 -0.010948598
0.0026964326 -0.020168578 0.00911725 -0.030673416 0.027184388 -0.02139986 -0.027508747 0.022312807
-0.009797999 -0.014582383 -0.01877626 0.021030383 -0.04113866 0.0073997546 -0.0124506345 0.017440895
-0.015461126 -0.026755206 -0.007927205 0.021358028 -0.011881491 -0.029835954 0.0072534964 -0.0059326645
-0.0058485954 -0.00480399 -0.011209658 -0.01382804 -0.0038406935 0.0035336919 -0.012466184 -0.024107203
0.015630461 0.009520792 -0.03271011 -0.01666369 0.0075937924 4.446043e-05 -0.01953475 -0.0159327
0.018256452 -0.005032383 -0.027934078 -0.014104848 0.016973212 -0.01535214 -0.01521734 0.0040634586
-0.0011037673 -0.01784863 -0.0012058238 -0.008592972 -0.0007262446 -0.023476267 -0.0011313179 0.0008802451
-0.0065885186 -0.016626805 -0.00712634 0.004325303 -0.0074017528 -0.017841872 -0.008061931 0.0028790664
-0.017408602 0.015660118 -0.025600836 -0.0049306653 -0.0045027183 -0.0019899968 -0.018422883 -0.014382879
0.02164576 -0.018746974 -0.0033560353 -0.029114533 0.013187025 -0.0036177272 -0.022507256 0.010707892
-0.026959473 0.005613624 -0.0027922767 -0.0044539613 -0.015394216 -0.023910686 0.02156971 -0.017620709
-0.0015511735 -0.025908247 0.009631999 -0.019628232 0.016700746 -0.016556814 -0.014617163 -0.006304952
0.010031511 -0.03762171 0.01438675 -0.0039639296 -0.016883971 -0.0025348305 -0.0070691667 -0.007533234
-0.011957084 -0.0016107089 0.009708081 -0.0394137 0.017040787 -0.01473302 -0.01597215 0.010587449
-0.014570878 -0.019455524 0.007409304 -0.006837593 -0.009811065 -0.014261262 0.003665589 -0.00015658617
-0.012510403 -0.012472426 -0.0014453235 -0.01895644 0.0037121351 -0.0011448857 0.0057422686 -0.0288079
-0.022231637 0.009684551 -0.0028111027 -0.017717788 0.00072812807 0.009469067 -0.017290168 -0.026008107
-8.27447e-05 0.011317023 -0.012154608 -0.0112938555 -0.018 0.010584562 -0.006841273 -0.029006466

Linear.bias f4 [96]
00000000: 0a55 01ba 7a18 7dba 56c5 16bb 6494 75bb
00000010: fbb7 9fbb 3ca0 cbbb fe23 f9bb 56d8 0ebc
00000020: cf63 1cbc 53db 2bbc b7f1 36bc 4b1e 45bc
00000030: c3cb 50bc 643d 5bbc 63c3 64bc df5d 72bc
00000040: 82a8 7bbc 5e06 83bc e212 88bc 2e4c 8dbc
00000050: 054a 91bc 5011 96bc d141 9bbc b600 a1bc
00000060: 4b70 a6bc d1eb aabc 7a17 b0bc e380 b2bc
00000070: cf02 b4bc 8893 b5bc 1c9e b7bc 3b12 babc
00000080: 3188 bebc 14c8 c1bc 002b c5bc 8e43 c8bc
00000090: a39a cbbc b4bb cfbc d52a d3bc 4d83 d6bc
000000a0: d7ba dabc cfe6 ddbc 4e77 e0bc b255 e2bc
000000b0: a8be e5bc b848 e8bc 8753 ecbc 68dd eebc
000000c0: 6f2d f3bc ef77 f6bc 1d74 f9bc d645 fcbc
000000d0: 8e76 fcbc 0bc9 febc 4fde 00bd 96ad 01bd
000000e0: 5058 02bd ae9f 03bd 5061 04bd cee2 04bd
000000f0: 1220 06bd 6323 07bd 0b5e 08bd 2d77 08bd
00000100: b35c 09bd b9cc 09bd 4d0d 0abd 05ff 0abd
00000110: 87b7 0bbd 11ef 0cbd 8a23 0fbd d270 0fbd
00000120: 68bb 10bd 5e56 12bd 0488 12bd 4f6e 13bd
00000130: 9448 14bd d67f 14bd 9c7e 15bd 8369 15bd
00000140: e012 16bd 028f 15bd f559 15bd 1ad3 14bd
00000150: c957 14bd 08ba 14bd a15e 14bd e2a2 15bd
00000160: 12ed 15bd 74d4 16bd 951e 17bd 5474 18bd
00000170: f84d 1abd 4232 1cbd 0bb6 1dbd a6fc 1ebd
-0.0004933631 -0.00096548314 -0.0023005805 -0.003747248 -0.004874227 -0.00621417 -0.0076031676 -0.008718571
-0.009545281 -0.010489303 -0.011166028 -0.012031148 -0.012743893 -0.013381336 -0.013962599 -0.014792888
-0.01536 -0.015994247 -0.016610567 -0.01724824 -0.01773549 -0.018318802 -0.018952282 -0.01965366
-0.020317217 -0.0208644 -0.02149557 -0.021789974 -0.021973995 -0.022165075 -0.02241426 -0.022713771
-0.0232583 -0.023654975 -0.024068356 -0.024446275 -0.02485401 -0.025358059 -0.02577726 -0.026185656
-0.02670042 -0.027087597 -0.027400639 -0.027628753 -0.028045014 -0.028354988 -0.028848423 -0.02915831
-0.02968475 -0.030086486 -0.030450875 -0.03079502 -0.03081825 -0.031101724 -0.03146201 -0.031659685
-0.031822503 -0.032134704 -0.032319367 -0.03244286 -0.03274543 -0.03299273 -0.03329281 -0.03331678
-0.03353567 -0.033642504 -0.03370409 -0.03393461 -0.034110572 -0.03440768 -0.034946002 -0.035019703
-0.035334975 -0.035726897 -0.035774246 -0.03599387 -0.03620203 -0.036254726 -0.036497697 -0.036477577
-0.036639094 -0.036513336 -0.036462743 -0.036334135 -0.03621653 -0.036310226 -0.036223058 -0.03653229
-0.03660304 -0.036823705 -0.0368944 -0.037220314 -0.037672013 -0.038133867 -0.038503688 -0.038815163
