weights/linear_freq_weights/RLinear_horizon96_lookback512_cycle_14/checkpoint.pth (torch, 198570 bytes, 2 tensors)

Linear.weight f4 [96, 512]
000000 43 cb fd bb d8 0c e3 bb e8 72 77 3a 70 8d e5 bb
       -0.007745178 -0.0069290213 0.00094394246 -0.007005386
000010 bf 23 9e bb db c9 a5 ba 07 51 95 bc 63 3d 2d bc
       -0.0048260386 -0.0012648659 -0.018227113 -0.010573718
000020 90 03 15 3c bf ed 36 bc 28 99 4a bc 12 51 56 bc
       0.009095088 -0.0111650815 -0.012365617 -0.013080852
000030 af 0f 50 bc 30 eb d7 39 e2 c3 64 bc 2d eb ff bb
       -0.012699052 0.00041183224 -0.013962718 -0.0078100176
000040 b8 12 8d bc cf f6 23 bc be 87 0c bb 4a 2d d2 bb
       -0.01722084 -0.010007574 -0.0021443213 -0.0064140903
000050 1a 5c ce bc 64 bc 59 bd 44 60 5b 3d 4f f2 97 3b
       -0.025190402 -0.05315818 0.053558603 0.0046370397
000060 3a f3 48 bc 60 91 0c bc aa 01 05 bc dc 3a b9 3b
       -0.012265021 -0.008579582 -0.0081180725 0.0056527685
000070 d8 0a 2e bc d7 57 33 bc 49 20 28 bc da 0d 40 bb
       -0.010622703 -0.010946236 -0.010261604 -0.0029305131
000080 16 7e 3b bc 7f f6 1b bc 16 40 02 bc 20 51 e5 bc
       -0.011443635 -0.0095192185 -0.00794985 -0.027992785
000090 70 43 c3 3c eb a5 2b ba 90 25 38 bc 01 79 24 bc
       0.023835868 -0.0006547856 -0.011239424 -0.010038615
0000a0 a3 47 ca bb eb c6 e0 bb fb 17 5b bc 14 ac 51 bb
       -0.0061730905 -0.0068596504 -0.013372417 -0.0031993436
0000b0 f9 1a 15 bc 66 49 02 bc 44 f0 b7 bb 3c da e0 bb
       -0.009100669 -0.00795207 -0.0056133587 -0.006861953
0000c0 a5 85 13 bc f1 7d c0 ba 8b 78 71 bc 1d 39 5f bc
       -0.009004031 -0.0014685971 -0.014738212 -0.013624457
0000d0 2c bd 71 bc 2c 3e 46 bc b5 eb 3c ba f4 35 24 bc
       -0.014754575 -0.012099784 -0.0007206754 -0.010022629
0000e0 62 45 05 bc 01 a3 de bb cb 82 14 bc d4 2d 45 bc
       -0.008134218 -0.006794334 -0.009064387 -0.012034852
0000f0 09 b2 1c 3b 53 ea e6 b9 26 2e a7 bb ba 6b 1e bc
       0.0023909828 -0.00044043604 -0.005101937 -0.009669239
000100 90 e9 52 bc ea aa 67 bc 78 6d d8 bb 76 36 50 3b
       -0.012873068 -0.01413987 -0.0066048466 0.0031770742
000110 1c 05 c6 bb 23 64 7d bb 81 27 84 bc 24 d2 95 bb
       -0.0060430896 -0.0038664422 -0.016132118 -0.00457217
000120 17 5d ff bb 42 da b7 bc 7a 05 ac 3b 6a 98 ec bb
       -0.0077930796 -0.02244294 0.0052496763 -0.0072203176
000130 61 59 c8 bb d8 1f 2d bc 79 76 28 bc 41 f3 18 ba
       -0.0061141704 -0.010566674 -0.010282152 -0.00058345875
000140 44 b8 3c 3b 59 94 47 bc 2e 14 e7 bb 37 bd 00 bc
       0.0028796354 -0.012181365 -0.007051966 -0.007857612
000150 12 2f 42 bb d7 21 60 bc af 66 36 bc 77 2d 64 ba
       -0.0029630107 -0.013679943 -0.01113288 -0.00087042846
000160 37 62 1e bc d5 5c 83 bc d2 8f 6f bc e5 13 3b b9
       -0.009666971 -0.016035477 -0.014621692 -0.00017841121
000170 2d f3 7c bc 97 34 c4 bb 69 c7 20 bc 6b 3b 4f bc
       -0.015438837 -0.0059877145 -0.009813168 -0.012648444
000180 0f 21 7b bb 93 0b 18 bb 8f d4 0f bc 60 3d 35 ba
       -0.0038319265 -0.0023200258 -0.008778705 -0.00069137476
000190 63 2a 66 bb c5 5c df bb ee 37 eb bb 1b 22 3c bc
       -0.003512048 -0.006816479 -0.007178298 -0.011482741
0001a0 b5 0f 9f bb 9f 45 1c bc 35 18 5d 3b d3 6d e1 bb
       -0.0048541673 -0.009538083 0.0033736352 -0.006879547
0001b0 e7 83 8c bc 93 d4 e2 bb c1 12 6e bc 78 f3 18 bc
       -0.01715274 -0.0069223135 -0.0145308385 -0.009335391
0001c0 3c 19 57 bc d0 3d 92 bc 6f e9 b8 bb 33 93 90 38
       -0.013128575 -0.01785174 -0.005643062 6.893873e-05
0001d0 02 b0 c3 bc 2c ef 67 bc d8 a4 c6 bc ab e8 0c bd
       -0.023887638 -0.014156144 -0.024248526 -0.034401577
0001e0 71 c1 3c 3d 02 3b 1f 3c 78 ee 25 bc 67 49 6d bc
       0.046082918 0.009718658 -0.010127656 -0.0144828325
0001f0 af 38 60 bb 40 85 76 bc d2 35 a6 bb 09 cd 13 bc
       -0.0034213474 -0.015046418 -0.005072334 -0.009021052
000200 c3 8e f7 bb 33 f2 8a bc ed a7 d4 3a c1 30 bb bb
       -0.0075548603 -0.016961193 0.0016224362 -0.005712599
000210 2b db 2f bc 42 be 9f bc 95 6e 40 3c 20 cd a3 bb
       -0.010733406 -0.019499902 0.011745115 -0.004998818
000220 40 1f b7 bb 1f 60 eb bb 1a cb 1c bc d1 2c 58 b9
       -0.005588442 -0.0071830894 -0.009569908 -0.0002061606
000230 79 a4 45 bc 6a aa 28 bc 75 cd 64 bc 2c c3 94 bb
       -0.012063139 -0.010294536 -0.013965 -0.004539868
000240 2d 03 96 bb 7c f3 27 bc a8 46 2e 3b fd 48 96 bb
       -0.0045780153 -0.010250922 0.0026592407 -0.0045863376
000250 93 07 5c bc 90 35 af bb 9c a5 74 bb 9a 32 ef bb
       -0.01342954 -0.0053469613 -0.0037330156 -0.0072997333
000260 6a 22 c8 ba f0 7d 1d bc 14 f6 0a bc 1d 32 76 bc
       -0.0015269045 -0.009612545 -0.008481521 -0.015026596
000270 c6 33 c8 b9 34 3d 14 bc 75 39 63 bb 1c bb 7b ba
       -0.00038185547 -0.009047795 -0.0034671698 -0.00096027716
000280 ec 9f b0 bb e2 0d db bb 03 b5 82 bc 6a b4 91 3b
       -0.005390158 -0.0066850046 -0.015955454 0.004446556
000290 f8 39 00 bc 34 3e 78 bb 60 41 04 bc 29 44 f4 bb
       -0.007826321 -0.0037878873 -0.008072227 -0.0074544144
0002a0 f6 5a 29 bc 31 30 99 bb 39 cd 49 bc 00 11 97 39
       -0.010336628 -0.0046749343 -0.012316995 0.0002881363
0002b0 40 65 57 bb db eb 51 bc 56 33 f5 bb 7a 11 de 3b
       -0.0032866746 -0.01281258 -0.0074829264 0.0067769857
0002c0 c3 ff ce bb 07 87 9c bc fc 10 4e 3b 98 ba b8 3a
       -0.0063171103 -0.019107355 0.003144323 0.0014093695
0002d0 18 80 c2 bb 74 b1 1d bc 40 a7 d9 39 f9 85 20 bc
       -0.00593568 -0.009624828 0.00041514076 -0.009797567
0002e0 c9 ba 83 bb 55 cb 50 bc 79 09 05 bb c4 43 38 bb
       -0.0040200693 -0.012743791 -0.0020299836 -0.0028116563
0002f0 d7 4c b4 bb 06 31 57 bc 10 41 37 bc e6 d0 82 bc
       -0.005502324 -0.013134247 -0.011184946 -0.015968751
000300 90 c0 67 bc 97 19 1d bc 75 49 6b bc 18 ed 22 bc
       -0.014145032 -0.009588621 -0.014360775 -0.009944223
000310 7f d2 3e bc 04 06 21 bc fa 07 9c 3a bf f1 0a bb
       -0.011646866 -0.009828094 0.0011904233 -0.002120122
000320 c5 98 55 bc ce b1 40 bc e5 f7 1b 3c 3a a6 de bc
       -0.013036911 -0.011761142 0.009519552 -0.027178872
000330 14 bf 30 3c f8 7a 9d bc 6f 99 d0 bb 53 52 63 bc
       0.010787744 -0.019223675 -0.006365947 -0.013874608
000340 aa a2 85 bc e9 b4 9c bb 0d 04 fb bb 1d 93 5c bc
       -0.016312916 -0.0047823084 -0.007660395 -0.013462809
000350 08 e7 de bb f4 71 3c b9 f6 e5 89 bc 4c 2f 0d bc
       -0.0068024434 -0.00017971528 -0.016833287 -0.0086172335
000360 1d a1 93 bc 87 00 26 bd 00 6f 60 3d 11 88 d3 3b
       -0.01802116 -0.040527847 0.054793358 0.0064554294
000370 a4 c9 85 bc f5 8c ed b9 a9 16 1c bc 63 5b c6 bb
       -0.016331501 -0.00045309184 -0.009526887 -0.0060533746
000380 e3 bd be bb 00 0e 95 bb d4 aa 90 bb 00 83 08 bb
       -0.005820976 -0.004548788 -0.0044148955 -0.0020830035
000390 d5 75 de bb 59 e0 02 bc 4f 8c 92 bc 93 c0 dc bc
       -0.006788949 -0.007988059 -0.01788917 -0.026947295
0003a0 8f ea a1 3c 61 8c 8f ba 90 b1 bc bb 4e d8 17 bc
       0.019765167 -0.001095187 -0.005758472 -0.00926788
0003b0 01 27 bc bb 88 6e 83 bb 13 3a 11 bb 3c 22 8f 39
       -0.0057419543 -0.004010979 -0.002215986 0.00027300592
0003c0 63 a9 f1 bb a4 53 9d bb 6a 27 99 bc a8 ae 11 bc
       -0.007374929 -0.0048012305 -0.018695552 -0.008891739
0003d0 87 6d 8e bb ba aa de bc ee 5e 7d bb b5 33 40 bc
       -0.004346553 -0.027181018 -0.0038661319 -0.011731078
0003e0 71 08 b3 bb b8 5d 86 bb 7b aa 75 bc 5d f7 f1 3a
       -0.005463653 -0.0041005276 -0.014994259 0.0018460561
0003f0 74 b8 94 bc 01 d4 23 bc 39 25 b1 bb 05 00 1c bc
       -0.01815436 -0.009999276 -0.0054060486 -0.009521489

Linear.bias f4 [96]
000000 40 52 6c bb 0c ad e1 bb 8a 5f 1c bc f4 b4 17 bc
       -0.0036059767 -0.006887084 -0.009544263 -0.009259451
000010 48 54 6d bc f3 f1 0f bc b5 80 2f bc 26 dd db bb
       -0.014485426 -0.0087857125 -0.0107118385 -0.0067097126
000020 e9 13 fb bb 11 c4 05 bc 25 61 20 bc 38 ce 18 bc
       -0.0076622856 -0.008164422 -0.009788786 -0.00932651
000030 34 25 26 bc cb cc 46 bc be e9 3e bc ef c0 51 bc
       -0.010140706 -0.012133787 -0.011652408 -0.012802347
000040 8d 95 3d bc a5 39 49 bc 20 3d 93 bc 40 ab 71 bc
       -0.0115713 -0.01228181 -0.017973483 -0.014750302
000050 7b 9f 68 bc 33 a2 57 bc 0b ef 18 bc 6a fa 33 bc
       -0.014198179 -0.01316123 -0.009334336 -0.010984996
000060 43 84 16 bc ba 44 25 bc d1 0a 6b bc 96 61 65 bc
       -0.009186807 -0.0100871865 -0.014345841 -0.014000317
000070 39 ae 86 bc 57 d1 69 bc 58 a5 77 bc 03 74 7f bc
       -0.016440498 -0.014271102 -0.015115105 -0.015591624
000080 96 07 91 bc 70 57 a6 bc af c0 9a bc cc 2c 84 bc
       -0.017703813 -0.020305365 -0.018890707 -0.016134642
000090 6f 04 74 bc 33 fe 5b bc e1 5b 32 bc 4c 9c 47 bc
       -0.014893635 -0.013427305 -0.010886163 -0.01218326
0000a0 4f 01 5c bc 2c d0 51 bc ed db 42 bc cb f5 52 bc
       -0.013428046 -0.01280598 -0.011893255 -0.012875984
0000b0 ac 8d 53 bc fa e8 54 bc 37 e8 78 bc d4 82 66 bc
       -0.012912195 -0.012994999 -0.015192083 -0.014069278
0000c0 03 ae 74 bc 60 c8 6d bc 1b e2 63 bc b7 71 4c bc
       -0.014934066 -0.014513105 -0.013908888 -0.012478284
0000d0 bf b3 3b bc 4a 43 6b bc d7 5f 49 bc e9 7a 80 bc
       -0.011456429 -0.014359305 -0.012290916 -0.015683608
0000e0 7c e5 84 bc 65 28 80 bc 2b 9d 79 bc 39 c0 92 bc
       -0.016222708 -0.015644262 -0.015235226 -0.017913925
0000f0 41 89 a0 bc a0 7f 9b bc d0 1c 91 bc b8 1b 76 bc
       -0.019596698 -0.018981755 -0.017713934 -0.015021257
000100 5b 45 8a bc d2 e5 87 bc 4f 6a 8a bc b2 fe 91 bc
       -0.016878774 -0.016589079 -0.016896395 -0.017821644
000110 9c 99 90 bc c4 1a 9f bc c2 7a bf bc 74 bb bf bc
       -0.017651372 -0.019421943 -0.023373965 -0.023404814
000120 12 51 a8 bc bc 4e 9f bc 4d 91 ac bc c8 05 98 bc
       -0.02054647 -0.019446723 -0.021065379 -0.018557444
000130 99 68 7a bc 60 d8 8f bc 77 d9 a0 bc ad 4a a0 bc
       -0.015283727 -0.01755923 -0.019634945 -0.019566858
000140 b1 09 99 bc fd 24 5a bc 59 8b 94 bc 28 06 8d bc
       -0.018681379 -0.013314483 -0.018132852 -0.01721485
000150 84 9e c2 bc fb 6c dc bc 5f 0a bf bc 71 d3 dc bc
       -0.023757227 -0.026907435 -0.023320375 -0.026956292
000160 b0 dc c4 bc 63 32 a0 bc a1 85 c0 bc 0d 44 9e bc
       -0.024031013 -0.019555276 -0.02350122 -0.019319559
000170 9a e2 bb bc ca a1 c7 bc 2e 50 b6 bc 81 25 dd bc
       -0.0229352 -0.02436914 -0.02225503 -0.026995422
