weights/linear_freq_weights/RLinear_horizon96_lookback512_cycle_128/checkpoint.pth (torch, 198570 bytes, 2 tensors)

Linear.weight f4 [96, 512]
000000 04 53 5e bc 7e 43 c8 3b d2 26 67 bc fd f6 e0 3b
       -0.013569597 0.0061115613 -0.014108377 0.006865381
000010 1a 31 11 bc 15 9b 77 bc 4f 66 ae bb e4 60 12 bc
       -0.008861804 -0.015112658 -0.0053222547 -0.008934233
000020 a0 2d 92 bb d9 6e 4e bc 76 16 49 bc 15 85 00 bc
       -0.0044610053 -0.01259967 -0.0122734215 -0.007844229
000030 34 55 d5 39 a8 af 34 bc de f9 0b bc 09 7d 90 bc
       0.00040690007 -0.011028208 -0.00854346 -0.017637746
000040 84 e8 62 bb 4e 1e ff bb 83 88 0c bc f1 e9 b3 bb
       -0.0034623453 -0.007785595 -0.008577469 -0.0054905345
000050 71 02 6c bc 28 c9 12 bc 33 c5 08 3c eb d8 86 bc
       -0.014404879 -0.008959092 0.008347797 -0.016460856
000060 ab 53 be bb c5 40 94 bc 7b e7 8a bb 1c d9 d1 bb
       -0.005808314 -0.01809729 -0.0042390204 -0.0064040553
000070 32 68 1f bc 62 39 69 bb e6 99 17 bc 26 ce 65 bc
       -0.009729432 -0.0035587181 -0.009253001 -0.0140262
000080 b2 c2 ad bb dc 33 1b bc 8c 74 e4 bb 41 5f cf bb
       -0.0053027505 -0.009472813 -0.0069719013 -0.006328494
000090 e9 0a 4b bc 46 f6 18 bc 96 b9 85 bb 8f 26 16 bc
       -0.012392738 -0.00933606 -0.0040809615 -0.0091644665
0000a0 35 0f e3 bb a6 24 f2 bb 8a f1 2e bc eb 4a 19 bc
       -0.006929303 -0.0073896227 -0.010677705 -0.009356241
0000b0 75 9b 37 bc ea a0 33 3b 4a 50 86 bc b5 b5 30 bc
       -0.011206497 0.0027409145 -0.016395707 -0.01078551
0000c0 84 2d a8 bb 54 55 22 bc 03 a4 06 bc bf b6 03 bc
       -0.005132379 -0.009908039 -0.008217814 -0.0080391755
0000d0 b5 b9 ef bb c6 ea 1e bc 80 ba a1 bb 17 77 29 bc
       -0.007315839 -0.009699529 -0.0049355626 -0.010343335
0000e0 c1 21 dc bb 44 99 70 bc c1 86 88 bb e5 4c fe bb
       -0.006717891 -0.014684979 -0.0041664545 -0.0077606314
0000f0 18 5b 29 bc 88 88 c7 bb 45 a5 27 bc d0 87 d8 bb
       -0.01033666 -0.006089274 -0.010232274 -0.006607987
000100 cd a2 f3 bb 86 a0 4d bc ce 43 2d bc e6 30 c5 bb
       -0.007435179 -0.012550479 -0.010575248 -0.006017792
000110 b6 20 dd bb 5f f5 1e bc 34 c3 16 bc de d4 fb bb
       -0.006748284 -0.009702056 -0.0092018135 -0.007685288
000120 0e 50 00 bc 11 aa 1f bc a8 df cf bb b5 99 01 bc
       -0.0078315865 -0.009745137 -0.0063438006 -0.007910182
000130 41 73 40 bc 41 23 e1 bb db 84 c5 bb 6e 07 46 bc
       -0.011746229 -0.0068706577 -0.0060278005 -0.012086732
000140 c4 0d e1 bb 20 67 e5 bb f3 93 3e bc 6d cc f5 bb
       -0.006868096 -0.007000819 -0.0116319535 -0.007501176
000150 ad d0 25 bc 02 c9 1d bc 2a 68 89 bb 93 16 f1 bb
       -0.010120553 -0.0096304435 -0.0041933255 -0.0073574274
000160 58 00 b0 bb d3 a7 07 bc d0 59 38 bc 2a d0 cd bb
       -0.0053711347 -0.0082797585 -0.011251882 -0.0062809186
000170 a1 17 fa bb 44 6d 1b bc 67 cf 34 bc 41 63 1b bc
       -0.0076322113 -0.0094865 -0.011035777 -0.009484113
000180 42 db d2 bb 4c 1a fb bb 10 cc 3e bc 25 76 2f bb
       -0.006434829 -0.007663047 -0.011645332 -0.00267733
000190 ee d8 5e bc e3 1f ee bb 0a bc ca bb 76 17 28 bc
       -0.013601525 -0.007266985 -0.006186967 -0.0102595
0001a0 1c 1c 10 bc bb b6 40 bc 64 e4 6e bb c3 ab fe bb
       -0.008795764 -0.011762316 -0.003645205 -0.0077719404
0001b0 6e 7e ff bb 09 e4 f8 bb 4e 4f 78 bc 7a bf bc bb
       -0.007797054 -0.0075955433 -0.015155626 -0.0057601305
0001c0 59 22 10 3b 3b 46 05 bc 20 f4 a0 bc c7 e7 a9 bb
       0.002199313 -0.00813442 -0.019647658 -0.0051851007
0001d0 5e cb 30 bc 8a 0f 03 bc 49 4a 23 bb 40 bf 95 bc
       -0.010790674 -0.00799931 -0.0024916104 -0.018279672
0001e0 86 51 bf bb 04 d6 a9 bc 8c 4e 2e bb c4 cc 4a bb
       -0.005838576 -0.020731933 -0.002659711 -0.0030944804
0001f0 aa 6a 4a bc 46 ee 7a bc f2 59 c1 bc 89 db db bc
       -0.012354532 -0.015315598 -0.02360246 -0.026838081
000200 8c de c0 3c f5 f4 58 b9 f8 49 ec bb 3c f5 5b bb
       0.023543619 -0.00020690619 -0.007210966 -0.003356292
000210 42 5a 87 bc cc f8 36 b9 7f bb 11 3b 6f 53 10 bc
       -0.01652253 -0.00017449557 0.0022237 -0.008808955
000220 0a f9 0f bc 41 88 63 bc 67 84 f0 bb f8 17 94 3b
       -0.008787403 -0.013887466 -0.0073400023 0.004519459
000230 dc 15 ad bc c7 22 44 bb 47 62 30 bc 14 02 89 bc
       -0.021128587 -0.0029927955 -0.010765619 -0.016724624
000240 d4 1a e1 39 62 64 e2 bb 50 96 3a bc fd cb 34 bc
       0.00042935333 -0.006908939 -0.011388376 -0.011034963
000250 7d 9b 2c bc 1b 0a 3b bb 1b 21 8b bb e1 b0 5c bc
       -0.010535118 -0.002853996 -0.00424589 -0.013469906
000260 7a 3f c2 ba 8f 32 81 bc b0 c1 dc ba 9e 99 13 3b
       -0.0014819943 -0.015771179 -0.0016842391 0.0022521983
000270 7a 39 89 bc bf a4 8e bc 68 43 0a bc d1 c2 01 bc
       -0.01675104 -0.017412541 -0.008438922 -0.007919983
000280 9a cc 8c bb 18 10 8a bb cf a7 ef bb b6 49 89 bc
       -0.0042968513 -0.0042133443 -0.0073137055 -0.01675878
000290 c3 90 4e bc f0 6d 1b bb 6c ee b4 ba 2c 3c 4b bc
       -0.012607756 -0.002371665 -0.0013803965 -0.012404483
0002a0 a3 45 51 bc 9a 02 97 bb 8a ed c7 bb 86 01 ba bb
       -0.01277295 -0.0046084644 -0.006101315 -0.005676451
0002b0 d7 90 39 bc b7 c8 10 bc 82 80 08 bb d8 23 5f bc
       -0.011326036 -0.008836917 -0.002082855 -0.013619386
0002c0 a6 70 03 bc 7d a0 5f bc b8 3a 21 bb 08 f9 01 bc
       -0.008022463 -0.013649103 -0.002460165 -0.007932909
0002d0 21 b3 47 bc 35 d0 08 bc d3 79 b0 bb 02 9c 03 bc
       -0.012188704 -0.008350422 -0.0053856163 -0.008032801
0002e0 fd 86 af bb 78 f7 35 bc 9f f8 12 bc e2 c4 f1 bb
       -0.005356668 -0.011106364 -0.008970409 -0.0073782066
0002f0 b2 4f fa bb 4e 6f 0a bc 22 57 59 bc 9c 1c fa bb
       -0.007638895 -0.008449389 -0.013265403 -0.007632805
000300 7e 1b 88 bb af e3 02 bc e6 34 0e bc 5b 6f 09 bc
       -0.004153668 -0.007988854 -0.008679604 -0.008388366
000310 d8 b9 05 bc 30 53 11 bc 65 96 fb bb 90 1a c2 bb
       -0.008161984 -0.008869931 -0.0076778405 -0.0059235767
000320 d5 2f 04 bc c3 14 05 bc 8a 04 0d bc 89 7d f9 bb
       -0.008068045 -0.008122626 -0.008607039 -0.007613842
000330 f6 01 6a bc cc de b4 bb a9 9b 18 bc 4c 5b 63 bc
       -0.014282694 -0.0055197235 -0.009314456 -0.013876747
000340 d7 5c 91 ba 45 57 1c bc 56 4c b2 bb 3f c0 3e bc
       -0.001109029 -0.009542291 -0.005441229 -0.011642515
000350 aa c9 28 bc 57 3b c7 bb d8 cf a5 bb d2 68 89 bc
       -0.010301987 -0.006080072 -0.0050601773 -0.016773615
000360 08 0c 3e 38 41 36 4e bc 0e 24 3e bc d4 bc b9 bb
       4.5310735e-05 -0.012586177 -0.011605276 -0.005668262
000370 4e 75 07 bc cb d9 19 bc 72 98 81 bb 1a 42 8b bc
       -0.008267714 -0.009390305 -0.0039549405 -0.016999293
000380 68 aa b2 bb 03 95 96 bb 3c 8a fb bb e2 bf 26 bc
       -0.005452443 -0.0045954003 -0.007676391 -0.010177584
000390 11 85 4b bc d1 3b 91 bb b3 c8 26 bc 02 6d 02 bc
       -0.012421862 -0.0044321795 -0.010179686 -0.00796056
0003a0 a2 9d 3d bb 0a 81 ef bb 2f 1a 4c bc f0 26 b9 bb
       -0.0028933068 -0.007309084 -0.0124574145 -0.0056503937
0003b0 c3 3b 02 ba 8a 6e 2b bc 44 22 22 bc 6f d2 63 bc
       -0.00049680116 -0.010463366 -0.009895865 -0.013905152
0003c0 d8 a7 f7 bb 97 2b ac 3a 4a 9c 26 bc a4 e2 41 bc
       -0.0075578503 0.0013135549 -0.010169098 -0.0118338205
0003d0 91 02 89 bc c0 32 e4 bb 2d 73 f9 bb 9c 59 3f ba
       -0.016724857 -0.0069640577 -0.007612607 -0.00072994246
0003e0 e5 e7 45 bc 08 56 ee bc c6 0a 2c bc 4f 82 93 3c
       -0.012079214 -0.029093757 -0.010500615 0.018006472
0003f0 00 9e 91 bc 31 c1 7b bc a6 cb 4e bc bc fb ba bc
       -0.017775536 -0.015365885 -0.012621796 -0.022825114

Linear.bias f4 [96]
000000 91 45 cb ba 86 a0 24 bb 06 9b 5c bb 26 69 6f bb
       -0.0015508403 -0.0025120093 -0.0033661737 -0.003653118
000010 4e 14 82 bb 2e 0e 8f bb e1 6a a1 bb bc 0d c1 bb
       -0.0039697057 -0.004365704 -0.004926071 -0.00589153
000020 e8 9f e1 bb 34 1b ec bb 71 cc ef bb 1a c3 fb bb
       -0.0068855174 -0.0072053913 -0.0073180725 -0.00768317
000030 ae e7 0a bc b4 d3 12 bc c2 88 1e bc 6a 15 26 bc
       -0.008478088 -0.008961607 -0.00967616 -0.010136941
000040 3a f0 29 bc b8 86 2d bc 5b ea 35 bc 5a da 37 bc
       -0.010372216 -0.0105912015 -0.011103238 -0.011221493
000050 77 26 40 bc 50 ac 4b bc b0 aa 56 bc f3 7a 51 bc
       -0.011727921 -0.012431219 -0.0131022185 -0.012785661
000060 49 d4 56 bc 66 74 5d bc f1 c1 67 bc 63 56 63 bc
       -0.013112136 -0.013516521 -0.01414536 -0.013875577
000070 d6 37 6e bc b0 eb 6b bc a8 f2 68 bc cc 7d 72 bc
       -0.0145396795 -0.014399454 -0.01421801 -0.0148005
000080 32 69 6d bc dd a8 7d bc 28 a6 83 bc b9 32 8b bc
       -0.014490413 -0.015482155 -0.01607044 -0.01699196
000090 79 c2 88 bc b5 91 8a bc e4 23 8a bc 0b ff 8d bc
       -0.016694294 -0.016915182 -0.016862817 -0.017333528
0000a0 03 58 93 bc 1e 27 90 bc 8f 8e 92 bc 81 81 91 bc
       -0.017986303 -0.017596778 -0.017890243 -0.017761948
0000b0 04 57 91 bc f2 ac 93 bc 52 3a 97 bc c9 48 99 bc
       -0.017741688 -0.018026803 -0.018460426 -0.018711464
0000c0 20 21 99 bc d4 37 97 bc 56 be 97 bc 03 d9 97 bc
       -0.018692553 -0.018459238 -0.018523376 -0.018536096
0000d0 b6 27 9b bc ae 8e 9a bc db 2f 9c bc c0 39 9d bc
       -0.018939834 -0.018866863 -0.019065788 -0.019192576
0000e0 26 0b 9f bc 17 bc 9f bc 04 94 a2 bc c2 4d a4 bc
       -0.019414496 -0.019498868 -0.01984597 -0.020056609
0000f0 89 ef a3 bc 46 7d ab bc df 8e a9 bc ee 25 ac bc
       -0.02001168 -0.020933758 -0.020698009 -0.02101418
000100 52 dc ae bc f7 27 aa bc 07 ef a7 bc 73 40 a5 bc
       -0.021345291 -0.02077101 -0.02049972 -0.020172333
000110 02 8b a8 bc cc 30 ae bc 7d 6b ae bc e4 95 ae bc
       -0.020574097 -0.021263503 -0.021291489 -0.021311708
000120 d3 e7 b1 bc ad d0 af bc 8d 8d b1 bc 60 16 b1 bc
       -0.021716988 -0.021461809 -0.021673942 -0.021617115
000130 04 65 b0 bc 8a a4 b3 bc 56 75 b2 bc 9a ae b0 bc
       -0.021532543 -0.021929044 -0.021784466 -0.021567632
000140 60 2f b7 bc e3 1e b4 bc ff ff b3 bc a6 f6 b4 bc
       -0.022361457 -0.021987384 -0.021972654 -0.022090267
000150 1e 6d b4 bc d3 ab b1 bc d7 79 b3 bc 5c eb b4 bc
       -0.022024687 -0.021688377 -0.021908684 -0.022084884
000160 28 13 b6 bc f8 d1 b7 bc 21 b1 b4 bc 41 63 b5 bc
       -0.022225931 -0.022438988 -0.022057118 -0.022142055
000170 3e df b2 bc 36 d1 b3 bc c4 21 b7 bc 9f ca b6 bc
       -0.021834966 -0.021950345 -0.022354968 -0.022313414
