weights/linear_freq_weights/RLinear_horizon96_lookback512_cycle_42/checkpoint.pth (torch, 198570 bytes, 2 tensors)

Linear.weight f4 [96, 512]
000000 12 41 e0 bb 6f 17 1f ba e0 4f 4b bc e3 bf ba 3b
       -0.0068436945 -0.00060688605 -0.01240918 0.005699144
000010 ff 36 9e bc 0a 65 04 bc bd 3b 5e 3b 05 75 0c bd
       -0.019313334 -0.00808073 0.0033910119 -0.034291286
000020 17 37 ed 3c 74 af 71 bc 87 c8 4c bc 86 62 87 3c
       0.028956933 -0.014751304 -0.012498981 0.016526472
000030 f2 fb 94 bc 94 0e a7 ba 2c 04 b0 bb f4 bf 84 bb
       -0.018186543 -0.0012745433 -0.005371591 -0.004051203
000040 20 c0 e0 bb 80 5f 33 bb 1b 10 84 ba 46 f3 3e bc
       -0.0068588406 -0.0027370155 -0.0010075601 -0.011654681
000050 27 fb 21 bb a6 e1 5e bb bb 75 1a bc a6 a7 09 bb
       -0.002471635 -0.0034009009 -0.009427483 -0.0021004467
000060 c7 6e 01 bc 48 f3 14 bc c2 4c 7c bb 99 72 06 bb
       -0.0078999465 -0.009091206 -0.00384979 -0.0020515083
000070 ee 24 2d bc 41 ce f6 bb fa 38 06 bb 86 ba 2c bc
       -0.010567887 -0.0075319116 -0.0020480738 -0.0105425175
000080 97 c9 41 ba a8 4a b3 bb bd 05 bc ba 18 2d 4e bc
       -0.0007392405 -0.005471546 -0.0014344972 -0.012583993
000090 b0 d7 26 bb f7 04 9f 3b dd a7 b3 bb 21 fa 88 bc
       -0.002545815 0.004852887 -0.0054826573 -0.016720833
0000a0 8a 3f b4 ba ef 9a 8c bb 0d da 88 bb 27 4a 1e bc
       -0.0013751846 -0.0042909305 -0.0041763843 -0.009661234
0000b0 e0 70 aa bb fb ef 6f 3a 66 4b d7 bb 09 b2 0f bc
       -0.005201444 0.00091528863 -0.0065702675 -0.008770474
0000c0 a0 c4 1d bc 76 0d 98 bc 9c b2 c1 3c 58 d7 a5 bc
       -0.009629399 -0.018561106 0.023644738 -0.020244285
0000d0 dd 9e 81 3b 82 44 68 bc e9 28 c1 3a 1b e1 71 bb
       0.0039557056 -0.01417649 0.0014736924 -0.0036907855
0000e0 38 30 30 bc a4 54 e1 ba d1 2f fe bb 13 f2 02 bc
       -0.010753684 -0.0017191363 -0.007757165 -0.007992285
0000f0 74 5b fc bb e5 d3 99 3a 39 ad 5a bb c6 32 f1 bb
       -0.0077013317 0.0011736123 -0.003336741 -0.007360789
000100 55 e2 7e bb ae e5 ab bb ea eb 17 bb b7 20 fe bb
       -0.0038892229 -0.005245886 -0.0023181387 -0.0077553648
000110 e9 2d 6f bb 1a 46 1b bc b8 91 49 bb 1a 18 14 bc
       -0.003649587 -0.009477163 -0.003075702 -0.009038949
000120 0a 47 11 bc 68 4c fc bb 99 b5 9f 3a 1f f4 a9 bb
       -0.008867035 -0.007699538 0.0012184858 -0.005186572
000130 b1 28 ed bb 1f a8 b2 bb 01 ec e9 bb 3f 4d 21 bc
       -0.007237517 -0.0054521705 -0.0071387296 -0.009845077
000140 3c cc 90 ba bd 92 f8 bb 65 99 b2 bb e4 41 b8 ba
       -0.0011047195 -0.007585852 -0.005450415 -0.0014057723
000150 a3 6f 03 bc f5 73 a3 bb 9a 20 5c bb 83 fa 96 bb
       -0.008022222 -0.0049881884 -0.0033588768 -0.0046075
000160 f8 fd cc 3b d0 0b b4 bc 96 b9 93 bb ad 84 10 bd
       0.0062558614 -0.021978289 -0.0045082076 -0.03528278
000170 0d 8b 41 3d af bd 17 bc 18 41 7b bc 00 c2 08 bc
       0.04725175 -0.009261533 -0.015335344 -0.008347034
000180 b0 3d 2b bc e2 e8 0a 3b 48 43 ad bb 5d bc 30 bc
       -0.010451719 0.0021195938 -0.0052875616 -0.010787097
000190 4a 82 98 3b bb ba f5 bb 98 6e de bb 4f 31 d6 bb
       0.0046542035 -0.0074990666 -0.006788086 -0.0065366398
0001a0 d4 b5 e4 bb ba 3b 2e bc a1 9b a2 bb 52 3f c2 bb
       -0.0069796834 -0.010634357 -0.0049624 -0.0059279585
0001b0 5e b2 89 bb 0b 10 6d ba b2 fb 6a bc 4f d9 27 ba
       -0.004202171 -0.0009043223 -0.014342235 -0.0006402926
0001c0 e8 6a bd bb 38 e9 07 bc 73 33 6a b9 60 3c 55 bc
       -0.0057805665 -0.00829535 -0.00022335145 -0.013014883
0001d0 9c 94 42 bb f0 ef 99 bb 8e af a6 bb a0 84 ef bb
       -0.002969063 -0.004697792 -0.0050868457 -0.0073095113
0001e0 b7 e4 13 bc 69 67 71 bb 67 fd 86 3b 64 53 aa bb
       -0.009026698 -0.003683532 0.0041195634 -0.005197929
0001f0 a2 4d a8 bb 25 a1 37 bc 35 3f da bb 88 cc e1 bb
       -0.0051362077 -0.011207853 -0.006660367 -0.006890837
000200 a4 6b 3c bb 33 21 66 3b bb d8 59 bb 46 af 12 bb
       -0.0028750682 0.0035115003 -0.0033240754 -0.0022382303
000210 0a af 50 bc b9 89 00 bd 2a cc d3 3c 6f e0 23 38
       -0.012737045 -0.031381343 0.025854189 3.907125e-05
000220 7a dd b0 bc 0d 63 7c bb 2f 42 49 bc 3c 5d aa ba
       -0.021589983 -0.0038511187 -0.012283846 -0.0012997757
000230 70 9a 03 bc bb a1 82 bb cb 6c 4b bb cf ee d9 bb
       -0.008032426 -0.003986565 -0.0031040187 -0.0066507827
000240 1b 9c c8 bb 46 19 07 bc fc be d5 3a 4f 4f 9b bb
       -0.006122125 -0.008245772 0.0016307528 -0.004739679
000250 fb 07 c9 bb a8 5a 1f bc 2a e9 aa bb e2 ac a4 bb
       -0.0061349845 -0.009726204 -0.0052157836 -0.005025492
000260 9d ae 18 3b 73 32 e3 bb 40 a8 d5 bb 93 c4 4f bb
       0.0023297437 -0.0069335042 -0.006520301 -0.003170286
000270 a6 fb 8b bc 32 32 25 3b 4c 20 25 bc b3 73 3f bb
       -0.017087769 0.002520692 -0.010078501 -0.002921325
000280 56 b9 f4 bb de 50 0d bc f0 5a 90 ba f8 13 ed bb
       -0.007468383 -0.008625237 -0.001101343 -0.0072350465
000290 6b b5 0a bc 7c 59 89 b9 5d da 4a bc af 66 dc bb
       -0.008466105 -0.00026197347 -0.012381163 -0.006726108
0002a0 56 2f 76 bb b3 37 b8 bb 79 d1 79 bb 8c e7 f2 3b
       -0.0037564836 -0.0056218742 -0.003811924 0.0074128564
0002b0 61 27 2d bc ed d7 fe bc 7d 65 f0 3b 26 3b 28 bd
       -0.010568471 -0.03110882 0.007336317 -0.041072033
0002c0 d3 f3 26 3d 4c 92 97 3a 9f 02 25 3c b4 45 d2 bb
       0.040759873 0.0011563986 0.010071426 -0.0064170007
0002d0 07 51 70 bc b1 e7 0c bc e2 1f 06 bc fe 3e ae bb
       -0.014667756 -0.008600161 -0.008186312 -0.005317568
0002e0 71 d4 1d bc 6b be 8f bb a9 32 f0 bb 08 5a 02 bb
       -0.0096331695 -0.0043867133 -0.007330258 -0.0019890089
0002f0 6b e1 8b bb ec 8b 23 bc 26 9e d9 bb fc e3 10 bc
       -0.0042688153 -0.00998209 -0.006641167 -0.008843418
000300 34 72 71 bb 5a c6 e1 bb 92 ee 3f bb 0f fd 49 bc
       -0.0036841752 -0.0068901004 -0.0029286486 -0.0123284
000310 cd 2e 25 ba 3d 5f 24 bc 97 05 18 bc 78 61 7d bb
       -0.00063012243 -0.010032472 -0.0092786765 -0.0038662832
000320 c2 7a c9 bb d5 81 99 ba 42 f6 07 3b f0 c0 21 bc
       -0.006148667 -0.0011711667 0.0020746146 -0.00987266
000330 0a 2a 5c 3b 4a 37 78 bb ea 95 42 bc fe 65 ea bb
       0.0033594393 -0.0037874752 -0.011876563 -0.0071532717
000340 ce 38 f6 ba df 58 91 bb 45 93 10 bc 6f 2e 20 bc
       -0.001878524 -0.004435643 -0.008824174 -0.009776696
000350 43 52 25 bb f7 b1 b9 bc f1 4c a5 bc db 64 3a bd
       -0.0025226034 -0.022667868 -0.02017829 -0.04550634
000360 f6 3a 19 bd 52 5d 22 bd 73 1c 9d 3d 40 8c 43 3d
       -0.037409745 -0.03963978 0.07671442 0.047741175
000370 b2 0f ea 3c 3d 07 7d bc ef 84 9b 3b 2b 05 cd b9
       0.028571937 -0.01544362 0.0047460715 -0.00039104497
000380 76 ee ab bb 56 fa 0c bb 09 42 29 bc 85 ed da bb
       -0.0052469326 -0.0021511517 -0.010330685 -0.0066811466
000390 fb d1 12 bc d5 1e b3 bb 1a 38 61 bc 59 d6 1b bc
       -0.008961196 -0.005466322 -0.013746286 -0.009511554
0003a0 d8 c0 dc bb d1 13 37 bc 43 6f b5 3a ae 19 34 bc
       -0.006736856 -0.011174158 0.0013842363 -0.010992451
0003b0 38 b8 63 bb c1 b9 91 b9 4d 5a 7f bb 44 7c 5c bb
       -0.0034747254 -0.00027794953 -0.0038963736 -0.0033643404
0003c0 e7 aa 39 bc 29 1d c1 bb 48 f0 6b bb e4 be 15 bc
       -0.01133225 -0.0058933687 -0.0036001373 -0.00913975
0003d0 d2 52 00 bc 98 8c 4e 3a c3 a9 f5 bb 65 16 be bb
       -0.007832246 0.00078792265 -0.007497044 -0.0058010095
0003e0 9f d9 c5 bb 95 11 12 bc c9 35 8a bb c2 db ca ba
       -0.0060379053 -0.008915325 -0.0042178375 -0.001547687
0003f0 1a 8e bd ba 48 82 95 bc 8b 64 e1 39 0d 85 a8 bb
       -0.0014461905 -0.0182506 0.00042990255 -0.005142814

Linear.bias f4 [96]
000000 5b d1 bd ba 6f 5a 0d bb d3 8d 66 bb bf 5c 8a bb
       -0.0014481948 -0.0021568795 -0.0035179749 -0.004222482
000010 38 ac b1 bb 0e 02 b2 bb 77 80 d1 bb 26 e4 e2 bb
       -0.0054221414 -0.005432374 -0.006393488 -0.00692417
000020 28 fa ec bb 25 57 00 bc 03 5c 05 bc 3b c9 0e bc
       -0.0072319694 -0.007833277 -0.008139613 -0.008714969
000030 37 6b 15 bc ed b7 19 bc 0b 7d 1b bc a6 5e 23 bc
       -0.0091198 -0.00938223 -0.009490262 -0.009971296
000040 a4 7e 1e bc 13 de 20 bc aa 1a 20 bc f3 f4 1c bc
       -0.009673748 -0.009818572 -0.009771982 -0.009579885
000050 92 75 18 bc e7 16 1d bc 23 75 1d bc 28 bd 21 bc
       -0.009305375 -0.00958798 -0.009610447 -0.0098717585
000060 bc aa 2a bc 71 9d 2e bc c5 c3 38 bc 7e 54 2c bc
       -0.010416683 -0.010657654 -0.011277144 -0.010518191
000070 24 25 2c bc c4 66 28 bc 9e 30 26 bc 3e cf 21 bc
       -0.010506902 -0.0102784075 -0.010143427 -0.009876071
000080 2a a4 24 bc 8d 79 28 bc 4d 98 26 bc e2 13 32 bc
       -0.010048905 -0.010282886 -0.010168147 -0.010868998
000090 a6 e1 2a bc 6b 13 26 bc 2d 76 20 bc d2 37 2f bc
       -0.010429775 -0.010136466 -0.0097938 -0.010694461
0000a0 29 7e 29 bc 14 9b 1f bc de 89 28 bc ee 09 33 bc
       -0.01034502 -0.009741563 -0.010286776 -0.01092766
0000b0 93 8e 33 bc 39 2e 3d bc ca 34 3d bc 67 57 34 bc
       -0.010959285 -0.011546665 -0.01154823 -0.0110071665
0000c0 82 0a 39 bc 0f 4c 48 bc 04 06 52 bc 36 63 46 bc
       -0.011294009 -0.012225165 -0.012818817 -0.012108615
0000d0 33 4f 50 bc 63 ba 50 bc d4 82 52 bc 16 4c 55 bc
       -0.012714195 -0.012739751 -0.012848575 -0.013018629
0000e0 7b ad 54 bc 2f 45 59 bc a4 f4 52 bc 99 2b 5c bc
       -0.012980814 -0.013261124 -0.01287571 -0.013438129
0000f0 24 0c 61 bc 83 38 56 bc 6e dc 4b bc 19 28 59 bc
       -0.013735805 -0.013074997 -0.012442691 -0.013254189
000100 70 f6 5f bc 2e 05 62 bc 17 ed 5a bc f0 d7 64 bc
       -0.013669595 -0.01379518 -0.013362191 -0.013967499
000110 3a ae 63 bc 85 93 63 bc 5e 49 5a bc dd b2 5d bc
       -0.013896519 -0.013890152 -0.013323156 -0.013531414
000120 07 b6 66 bc ae 9e 60 bc 26 4b 63 bc ae 17 5c bc
       -0.014081485 -0.013709707 -0.013872897 -0.01343338
000130 a9 af 68 bc b5 79 72 bc 98 24 7f bc e5 1a 78 bc
       -0.014202037 -0.014799525 -0.0155726895 -0.015143131
000140 54 43 6e bc bb d6 6f bc 3c 60 71 bc b9 78 72 bc
       -0.014542419 -0.014638598 -0.014732417 -0.01479929
000150 99 f4 79 bc 0a 3a 7b bc 32 25 74 bc 82 3d 78 bc
       -0.0152560705 -0.015333662 -0.014901446 -0.015151383
000160 47 91 7d bc 7f 90 80 bc 07 17 82 bc 8a f9 85 bc
       -0.015476531 -0.015693901 -0.01588012 -0.016354341
000170 59 91 81 bc 0a 9d 86 bc 2a 61 86 bc 1a aa 87 bc
       -0.015816377 -0.016432304 -0.016403753 -0.016560603
