weights/linear_freq_weights/RLinear_horizon96_lookback512_cycle_7/checkpoint.pth (torch, 198570 bytes, 2 tensors)

Linear.weight f4 [96, 512]
0	0xbc5f6151	-0.013634042
1	0xbbdd7983	-0.00675887
2	0xbc4cd22a	-0.012501279
3	0x3907416c	0.00012898975
4	0xbc3b2f04	-0.011424784
5	0xbbe30ed4	-0.006929258
6	0xbb40d025	-0.0029420939
7	0x3c5a88d3	0.0133382855
8	0xbc383e0b	-0.011245261
9	0xbc061a28	-0.008184947
10	0x3b0f3f5a	0.0021857829
11	0xbbe3c65b	-0.006951136
12	0xbbfb37d3	-0.007666567
13	0x3bb77466	0.0055985926
14	0x3bd3572e	0.0064496016
15	0x3bc0d8d4	0.005885223
16	0xbc29cbfa	-0.010363573
17	0xbc0c0d4a	-0.00854809
18	0xbbb8e443	-0.0056424453
19	0xbb9ef76b	-0.004851272
20	0xbbbf7e83	-0.005843939
21	0xbcf64281	-0.030061008
22	0x3cbfce74	0.023413874
23	0x3b956b3e	0.0045599034
24	0xbc1a9a02	-0.009436132
25	0xbbc3a393	-0.0059704273
26	0xbc16a5a0	-0.0091947615
27	0xba71f171	-0.0009229398
28	0xbc347d3c	-0.011016186
29	0x3c7b0d85	0.0153230475
30	0xbb9490e4	-0.004533874
31	0xbbcca273	-0.0062449514
32	0xbc161438	-0.009160094
33	0xbbb57e48	-0.0055387355
34	0xbc4155e8	-0.011800267
35	0xbc3fac95	-0.011698862
36	0xbc61742f	-0.0137606105
37	0xbbe1d6c0	-0.0068920553
38	0xbc26858d	-0.010163677
39	0x3952d4ad	0.00020106389
40	0xbc7a2cfd	-0.015269515
41	0xbc53dfe1	-0.012931795
42	0x3af836a1	0.0018937179
43	0xb8360e5e	-4.3405562e-05
44	0x37fce2a1	3.0146273e-05
45	0xbbf2de36	-0.0074117435
46	0xbc09a164	-0.008400295
47	0xbc1f0f16	-0.009708187
48	0xbc19f586	-0.009396916
49	0x3ace986c	0.0015761978
50	0xbc6abd73	-0.014327395
51	0xbb92a90d	-0.004475719
52	0xbb7de5c7	-0.0038741694
53	0xbbf7fcbf	-0.0075679715
54	0xbac336c5	-0.0014893642
55	0xbbfde15a	-0.0077478113
56	0xb93f8d51	-0.00018267824
57	0xbc49b9dc	-0.012312379
58	0xbb8de8f2	-0.0043307478
59	0xbc0d924e	-0.008640839
60	0xbc3c6bba	-0.011500293
61	0xbbfb962d	-0.0076778145
62	0x3bb185d9	0.005417567
63	0xbbf4f53a	-0.0074755223
64	0xbbbee4df	-0.0058256234
65	0xbc304029	-0.0107574845
66	0xbc2df677	-0.010617844
67	0xbc152470	-0.009102926
68	0xbb154012	-0.0022773785
69	0xbc2cc338	-0.010544591
70	0xbca00de1	-0.019537868
71	0x3cb48f8a	0.022041101
72	0xba081b53	-0.000519206
73	0xba6fc013	-0.0009145748
74	0xbbea96b2	-0.0071590776
75	0xbb9e8465	-0.00483756
76	0xbc8a55df	-0.01688665
77	0xbca2d867	-0.01987858
78	0x3b505755	0.0031790335
79	0xba0f7366	-0.0005472213
80	0x3a5a3935	0.00083245646
81	0xbae502b0	-0.0017472114
82	0x39347bcd	0.00017212257
83	0xbbb20ce3	-0.005433665
84	0xbb9a9840	-0.0047178566
85	0xbc29e811	-0.01037027
86	0xba1638cb	-0.0005730509
87	0xbc050a45	-0.008120124
88	0xbca6dc5d	-0.02036875
89	0xbc100bc7	-0.00879187
90	0xba1547d9	-0.0005694605
91	0xbbda9da7	-0.0066716257
92	0xbbe1096f	-0.0068675797
93	0xbb95a7ad	-0.0045671077
94	0xbbf5decf	-0.0075033675
95	0xbc2a8daa	-0.010409752
96	0xbc041d52	-0.008063631
97	0xbbfb8d5e	-0.0076767644
98	0xbb2cab68	-0.0026347283
99	0xbc5708cd	-0.013124657
100	0x3b203623	0.002444633
101	0xbb9570bf	-0.0045605595
102	0x3c1f7243	0.009731832
103	0xbb636d65	-0.0034702655
104	0x3b266411	0.0025389234
105	0xbb5991be	-0.0033198441
106	0xbca24bf8	-0.019811615
107	0xbc8bf561	-0.01708478
108	0x3b054a24	0.002033838
109	0xbbc07bc7	-0.0058741304
110	0xbc1e8bda	-0.009676898
111	0xbbf27291	-0.0073989113
112	0xbb9aa371	-0.0047191908
113	0xbc089478	-0.008336179
114	0x3bdbf239	0.006712225
115	0xbbe3f7b0	-0.006957017
116	0xbc282a8d	-0.010264051
117	0x37b5340a	2.1601114e-05
118	0xbc81e5fc	-0.015856735
119	0xbc5b9b76	-0.013403764
120	0x3c9a95c6	0.018870246
121	0x3b684f2a	0.0035447576
122	0xba981179	-0.0011601887
123	0xba8af374	-0.0010601119
124	0xbc7acbc3	-0.01530737
125	0xbbeb801e	-0.0071869036
126	0xbbbff699	-0.005858254
127	0xbb850b1d	-0.0040601627
128	0xbb60f83c	-0.0034327647
129	0xbc5d0954	-0.0134909935
130	0xbb467aaf	-0.0030285527
131	0xbc58c589	-0.01323069
132	0xba1ca924	-0.00059761317
133	0xbba65a6f	-0.0050766985
134	0xbc05374f	-0.008130862
135	0xbbec23ac	-0.007206401
136	0xbc5b56af	-0.013387366
137	0xba89b5d6	-0.0010506462
138	0x3bdb2093	0.0066872328
139	0xbacadd8d	-0.0015477404
140	0x3c595720	0.013265401
141	0xbc5a2dd4	-0.01331659
142	0xbc0e6313	-0.008690613
143	0xbbd9a06c	-0.006641438
144	0xbbac4586	-0.0052573113
145	0xbc3bc57f	-0.011460661
146	0xbb2b5fab	-0.0026149552
147	0x3badf976	0.005309279
148	0xbc4cbc22	-0.012496026
149	0xbc3528f4	-0.011057127
150	0xbc1cd5cf	-0.00957246
151	0xbc408f04	-0.011752848
152	0xbba036cb	-0.0048893443
153	0xbc240e08	-0.010013111
154	0xbc58e37b	-0.013237829
155	0xbc9932e6	-0.018701028
156	0xbbdac42d	-0.006676218
157	0xbc0e28de	-0.008676736
158	0xba605226	-0.0008557163
159	0x3b3ec01c	0.0029106205
160	0xbc2bc840	-0.010484755
161	0xbc07e9c6	-0.008295482
162	0x3c27cbfe	0.010241507
163	0xbc08417a	-0.008316392
164	0xbc046a85	-0.008082037
165	0xbbdc54b3	-0.006723964
166	0xbb90494c	-0.004403269
167	0x3bb3879b	0.005478812
168	0xbc51f64e	-0.012815071
169	0x3d0987b7	0.033576693
170	0xbbb08ca2	-0.0053878585
171	0xbbbe2a5f	-0.005803391
172	0xbc47e078	-0.012199514
173	0xbc84c8ed	-0.01620909
174	0xbbcfe454	-0.0063443575
175	0xbc3aa266	-0.011391258
176	0x3b5da63f	0.0033821014
177	0xbbc8a9b1	-0.0061237444
178	0xbbb7a645	-0.0056045377
179	0xbc251dc6	-0.010077899
180	0xbbab53d9	-0.0052285013
181	0xbb678f6f	-0.0035333296
182	0xbbf345ca	-0.007424091
183	0xbc2d6fe7	-0.010585762
184	0x38ada481	8.279924e-05
185	0x397b3e36	0.000239604
186	0xbbb75930	-0.005595349
187	0x3c61a87e	0.013773082
188	0xbbf2f7ee	-0.0074148094
189	0xbc38c719	-0.011277937
190	0xbccfefa9	-0.025382834
191	0x3b7ab6e8	0.0038255993
192	0xbc9804f0	-0.018557042
193	0xbc1045d5	-0.008805712
194	0xba65f901	-0.0008772761
195	0x3ad53900	0.0016267598
196	0x3ba69930	0.0050841793
197	0xbc18bb3d	-0.009321985
198	0xba6f6002	-0.0009131433
199	0xbb938e30	-0.004503034
200	0xba42d3ff	-0.00074321026
201	0xbbce826d	-0.006302169
202	0xbc974905	-0.018467436
203	0x3a8531d9	0.001016195
204	0xbc340e38	-0.010989718
205	0xbbb4fe1a	-0.0055234553
206	0xbc4ad449	-0.012379714
207	0x3b58fc30	0.00331093
208	0xba2009c0	-0.00061049685
209	0x3bc538a6	0.006018716
210	0xbc98984f	-0.018627314
211	0x398b9a02	0.0002662689
212	0x39cb6cbf	0.000388002
213	0x39a91fc1	0.0003225785
214	0x3ab0d39a	0.0013490797
215	0x3a8492af	0.0010114516
216	0xbc19b0ff	-0.009380578
217	0xbc93635e	-0.017991718
218	0x3cbc6cc3	0.02300108
219	0xbc65ed85	-0.01403368
220	0x3bad9593	0.0052973717
221	0xbbf53eb1	-0.00748428
222	0xbc1e5310	-0.009663358
223	0xbc5113c3	-0.012761059
224	0xbc5ca08d	-0.013466013
225	0x3b2f5722	0.0026754816
226	0xbbb8b8a9	-0.0056372476
227	0xbc0f0262	-0.008728595
228	0xbc4dd63b	-0.012563284
229	0xbc11ccdb	-0.008898939
230	0xbb2f983d	-0.0026793622
231	0xbb19e40d	-0.0023481876
232	0x3aeaad80	0.001790449
233	0xbb8ba15a	-0.004261178
234	0xbb470acc	-0.0030371426
235	0xbc7e60e5	-0.015526031
236	0xbc018a26	-0.007906472
237	0xbbd7b066	-0.0065823076
238	0x3b355c77	0.0027673522
239	0xbb5e863b	-0.003395452
240	0xbc04acb3	-0.008097815
241	0xbbcacd20	-0.0061890036
242	0xbb3510d6	-0.0027628443
243	0xbc5f46f0	-0.013627753
244	0xbbab42e2	-0.005226479
245	0xbc4d2fff	-0.01252365
246	0x3ae8badd	0.0017755885
247	0xbc9c0dda	-0.019049574
248	0xbba47ef6	-0.0050200177
249	0x3b9f759a	0.004866314
250	0xbc47d58f	-0.012196912
251	0xbbe9f9f2	-0.0071403915
252	0xbab587a3	-0.0013849627
253	0xbc458f6e	-0.012058122
254	0xbc355202	-0.0110669155
255	0x3b26dd26	0.0025461405

Linear.bias f4 [96]
0	0xbb8a8b8c	-0.004228061
1	0xbbbdb9f0	-0.0057899877
2	0xbc09050a	-0.008363018
3	0xbbf7cef9	-0.007562515
4	0xbc2c357a	-0.010510797
5	0xbc269919	-0.010168337
6	0xbc44ab66	-0.012003755
7	0xbc56d1b6	-0.013111522
8	0xbc5852cd	-0.013203335
9	0xbc7d97ac	-0.015478056
10	0xbc6b3739	-0.014356428
11	0xbc4fb4c5	-0.012677376
12	0xbc4b9376	-0.012425294
13	0xbc4b13af	-0.01239483
14	0xbc50a5dc	-0.012734856
15	0xbc5baed7	-0.013408384
16	0xbc78cc9a	-0.0151855
17	0xbc44681a	-0.01198771
18	0xbc5288f0	-0.012850031
19	0xbc61282b	-0.013742487
20	0xbc8b7f9e	-0.017028626
21	0xbc92fe6b	-0.017943582
22	0xbc93790e	-0.01800206
23	0xbc8da6bd	-0.017291421
24	0xbc7f7f4c	-0.015594315
25	0xbc7491ee	-0.0149273705
26	0xbc927474	-0.017877795
27	0xbc8d6a3f	-0.017262576
28	0xbc97e238	-0.018540487
29	0xbca0239c	-0.01954823
30	0xbc99e016	-0.01878361
31	0xbc931e71	-0.017958852
32	0xbc8f5499	-0.017496394
33	0xbc9df0e6	-0.019279908
34	0xbca3302e	-0.019920435
35	0xbc98ff87	-0.018676532
36	0xbc9f4905	-0.019443998
37	0xbca7b8b6	-0.02047382
38	0xbca6e9a0	-0.020375073
39	0xbc983ede	-0.018584665
40	0xbcabefa2	-0.02098829
41	0xbcaa3082	-0.020775083
42	0xbca906ae	-0.020633068
43	0xbcaf646d	-0.021410191
44	0xbcc54141	-0.024078967
45	0xbcb8ccf0	-0.02255866
46	0xbcc0a100	-0.02351427
47	0xbcd363cc	-0.025804423
48	0xbccfae3f	-0.025351642
49	0xbcd38d61	-0.02582425
50	0xbcd0dd19	-0.025496053
51	0xbcddd958	-0.027081177
52	0xbce14b8d	-0.027501846
53	0xbce1dcff	-0.0275712
54	0xbcf89f39	-0.03034936
55	0xbcf3b8cc	-0.029751204
56	0xbce79e0e	-0.028273609
57	0xbce7d060	-0.028297603
58	0xbcfb141a	-0.030649234
59	0xbcfd2d80	-0.030905485
60	0xbcf1d792	-0.029521737
61	0xbcf15b8d	-0.0294626
62	0xbcfcd6d7	-0.030864162
63	0xbcf7a7e0	-0.030231416
64	0xbcf12bce	-0.029439833
65	0xbcfbd8ad	-0.030742968
66	0xbcfcd37c	-0.030862562
67	0xbce78079	-0.028259503
68	0xbceeee22	-0.029166285
69	0xbcee8ef5	-0.029120902
70	0xbcfb7f5a	-0.030700374
71	0xbcfb14f4	-0.03064964
72	0xbcefdb38	-0.029279336
73	0xbcee2111	-0.029068502
74	0xbcdb4a98	-0.026768968
75	0xbce6ab68	-0.028157905
76	0xbce412af	-0.02784094
77	0xbcef3183	-0.029198414
78	0xbce6e36c	-0.028184615
79	0xbcfc549e	-0.030802067
80	0xbcf7a5f3	-0.030230498
81	0xbce951c1	-0.028481366
82	0xbceda735	-0.029010395
83	0xbcfd5ba5	-0.030927489
84	0xbcfb42d7	-0.03067152
85	0xbcf050f0	-0.029335469
86	0xbcfd4cbb	-0.030920377
87	0xbcf9c858	-0.03049104
88	0xbd064572	-0.032781072
89	0xbd05695c	-0.03257118
90	0xbd122135	-0.0356762
91	0xbd031274	-0.03200002
92	0xbd081d58	-0.03323111
93	0xbd0ddf7d	-0.034636963
94	0xbd10ffb7	-0.03540012
95	0xbd0aef53	-0.033919644
